shared/weights/model_weights_for_layer_size_99_for_dense_False.pth (torch, 634310 bytes, 16 tensors)

upper_traingular1.weight f4 [99, 99]
00000000: eb94 7e3d 39bc 7d3d e85e afbd 0b05 bc3d
00000010: d47c 3abd c741 613d 5e23 c73d fb9e 44bd
00000020: 9c5b 123b ff99 c93d 4545 6d3d fd9e 57bc
00000030: 3c88 603d 1542 7dbd 3829 20bc cde5 5bbd
00000040: 87b4 643d c2c1 ae3d 498c 1cbc 2caa 933d
00000050: 6d19 ccbd 7f9b 683d 50e9 8ebc 391f 7a3d
00000060: 10b7 f93c f4d6 58bd 5b8d cbbd bbf4 6ebd
00000070: fe2a 89bd 25bc b3bd f0f1 cb3d 9949 b5bd
00000080: 8e15 90bd db39 d7bc d0f2 973d 0164 463d
00000090: 6023 dbbc 4b52 e53c cdab 54bc cc55 0e3c
000000a0: f744 62bd e560 babd 13fb cb3d 5a53 10bc
000000b0: b8f4 ce3c a277 97bd b9e2 ac3c 99c1 14bd
000000c0: 3bce c33d 911e 90bd 7b69 ccbd ddbc c53c
000000d0: 8255 92bd b6b9 f7bc ae03 44bc d7a3 28bd
000000e0: ea41 763d e9c3 a7bd 2d49 563b f05a 623d
000000f0: 83c6 8ebd 517e aebd 1846 c2bd 4bf6 8bbd
00000100: af23 ae3c 062c 143d 43cd 0dbc 2151 a73c
00000110: 85cd b03d a602 5ebd 1dfa 5ebd 1071 a7bc
00000120: bd3b 4fbd b4e5 4c3d 23bd f5bc 4529 69bd
00000130: 69d5 60bc 9985 3dbb 02b4 bb3d 1b53 973c
00000140: 8db3 c33c 9165 163d b650 c03d 758a f5bc
00000150: 1f36 86bd 9de1 d33c a0a7 81bd cbf1 9cbd
00000160: 726e 023d a6f1 5e3d 24c1 92bd a6ec 7b3d
00000170: 6054 203d bd4b 76bd c974 cb3d 761f 0bbd
00000180: c635 483d 206d 80bc c6bc fdbc f943 59bd
00000190: 4414 c03d 8a0f 323d 63cb 11bc 1d5e 98bd
000001a0: 6edf 47bc d5ae 923d f95e 9a3d ffe5 c2bb
000001b0: 53dd 8bbd 92fa 403d afa3 9dbd f2c3 b6bd
000001c0: 349a 993c d08f cbbb b64b 36bd 325c 41bd
000001d0: daa5 b63c 437a 263d 56c6 143d f6fe a03d
000001e0: df75 89bd 29f1 bdbc 7b74 f63c cf2b b33d
000001f0: ebb9 c13d b5e1 3a3c 4cb3 6dbd a226 cdbd
00000200: 6be0 cc3d 3832 053c 28c5 85bc f907 d63c
00000210: cded aa3d 01a4 533d aaee 5c3d 4e48 1f3d
00000220: bf8d 7ebc ecd3 a8bd 2aca 863b cde1 c63d
00000230: 1a53 9bbd 2274 83bc 5d16 ccbd 73a8 7a3c
00000240: d65c b0bd c7f0 763c f1e4 62bd 6614 943d
00000250: 32a4 583b fbd6 f73c f1d3 ba3b 7b29 c8bd
00000260: 033e c3bd fb54 b73c 2fb9 7cbd 36c4 be3d
00000270: d731 91bd 80a0 303c 7929 81bd 4ce1 a53d
00000280: 65f8 5ebd a795 6c3d 04a3 e4bc b76f ee3c
00000290: c7d6 ccbc 6665 e3b9 59e8 0d3d aeb2 b4bd
000002a0: e4ee b5bd 7844 3a3c 6eb1 2ebd 31c2 02bd
000002b0: e79a b7bc f636 753c 61e7 483d 44db 7dbd
000002c0: 24b6 40bc 6ed1 dfbc bc31 553d 81ce a2bd
000002d0: c9bc 63bd 246f 96bd d374 9d3c d00c 9e3c
000002e0: 8c52 9dbd b75a 983d 17de 943d 2c8a 3a3c
000002f0: aa07 9c3d 4f67 543d c085 4ebd 6a0a 06bd
00000300: 31a8 183c f5de ec3c c5b8 953d 490f 673d
00000310: de38 903d 3e57 4b3d ab73 72bc 1f54 2f3d
00000320: 283e ad3c 6e42 95bb 6230 083d 1d5f 5b3d
00000330: ec8e d9bc 7cd3 4fbc b6e4 40bd 1803 c8bd
00000340: ffd6 7cbd e188 b2bd d46e c8bd bf3e 8dbc
00000350: 6579 fbbb 8432 2f3c 56c2 c1bb 3847 26bc
00000360: 3d8a b0bb f119 26bd 66b6 5b3d 7a4e b93d
00000370: 4265 1abd 36ae b03d fefa 733d d68c b9bd
00000380: 7909 4c3c c5e6 9a3d 6bcc c53c f6b5 99bd
00000390: 3a96 c8bd 4428 46bd c723 853d c165 53bd
000003a0: 87b1 75bd d40d 5ebd 8fa5 1a3d 06c9 4b3d
000003b0: cd71 a6bd 76dc 62bd f87d 203d 73e9 c43d
000003c0: 9ef6 28bc bcfe d3bc fc6b 593d 968a 14bd
000003d0: c463 973b eed9 f8bb 323e cabc 56de f3bc
000003e0: 1009 4bbd 9b5f bf3d b0ba 803b de07 c33c
000003f0: cc9f 7c3d c728 8f3d 6b08 8cbc 2c45 75bd
0.062153738 0.06194708 -0.08563024 0.09180649 -0.0455292 0.05499437 0.09723543 -0.048003178
0.0022332435 0.098438255 0.05792739 -0.013160464 0.054817423 -0.0618306 -0.009775452 -0.053685952
0.055836227 0.0853305 -0.009554931 0.07210192 -0.09965787 0.056788918 -0.017445236 0.061064932
0.030482799 -0.05293937 -0.09939071 -0.058338862 -0.06697653 -0.0877612 0.09958255 -0.08851928
-0.07035361 -0.026272705 0.0741936 0.048435215 -0.026750267 0.027993342 -0.012980414 0.008687448
-0.05524155 -0.091005124 0.09959998 -0.008808935 0.025263175 -0.07395865 0.021104204 -0.03631744
0.0956082 -0.0703708 -0.09981056 0.024137909 -0.071452156 -0.030239921 -0.011963768 -0.041171875
0.060121454 -0.08191664 0.0032697425 0.055262506 -0.06971457 -0.08520187 -0.094860256 -0.06834086
0.02125725 0.036174797 -0.008654895 0.020424427 0.0863295 -0.054201744 -0.054437745 -0.020439655
-0.05059408 0.05002375 -0.029997414 -0.056924123 -0.013722756 -0.0028918742 0.09165193 0.018472245
0.023889327 0.036717955 0.093903944 -0.029973248 -0.065532915 0.025864417 -0.063308 -0.07663306
0.03184361 0.054429673 -0.07165745 0.061504982 0.039142966 -0.060130823 0.099343844 -0.03396555
0.048879407 -0.015677035 -0.030973803 -0.05304334 0.09378865 0.04347185 -0.008898589 -0.07439826
-0.012199266 0.07162253 0.07537646 -0.005947828 -0.068293236 0.047113962 -0.07697236 -0.08924092
0.018750288 -0.006212212 -0.044505797 -0.047207065 0.022295881 0.04064394 0.03632196 0.0786113
-0.06711935 -0.023186283 0.03008484 0.0874859 0.09459289 0.011406352 -0.05803232 -0.10017134
0.10003742 0.008129649 -0.016329363 0.026126849 0.08346138 0.05167008 0.053938545 0.038887314
-0.015536725 -0.08243546 0.0041134553 0.09711037 -0.0758421 -0.016046587 -0.09965203 0.0152989505
-0.08611457 0.015072054 -0.055394117 0.07230453 0.0033056852 0.030253878 0.005701535 -0.09773537
-0.09533312 0.022379389 -0.061700042 0.09314768 -0.07089584 0.010780454 -0.063067384 0.080996126
-0.054436106 0.057759907 -0.027909763 0.029106004 -0.025004758 -0.00043372362 0.034645412 -0.08823143
-0.088834554 0.011368863 -0.04264968 -0.031923477 -0.02241273 0.014966717 0.049048785 -0.061976686
-0.011762176 -0.027321544 0.052049384 -0.07949544 -0.05559996 -0.07345417 0.019220745 0.019293219
-0.0768176 0.074391775 0.07268923 0.011385482 0.07618649 0.051856335 -0.050420523 -0.032724775
0.009317444 0.028914908 0.073106326 0.05641106 0.070420966 0.049643748 -0.014798085 0.042804834
0.021147802 -0.004555038 0.033249266 0.053557504 -0.026557408 -0.012684699 -0.047093116 -0.09766215
-0.061728474 -0.08717514 -0.09786764 -0.017241834 -0.0076743835 0.010693196 -0.005913059 -0.010148816
-0.005387573 -0.040552083 0.053640746 0.09048171 -0.037694223 0.08626978 0.059565537 -0.090600654
0.01245343 0.07563547 0.024145326 -0.075054094 -0.097942784 -0.048378244 0.065009646 -0.051610712
-0.059983756 -0.054212406 0.037755545 0.049752258 -0.081271745 -0.05538603 0.039182633 0.096148394
-0.010312704 -0.025878303 0.053081498 -0.03626498 0.0046200473 -0.0075943386 -0.02468786 -0.029769104
-0.04956919 0.09344407 0.003928505 0.023807462 0.06167583 0.069901995 -0.017093858 -0.05988042

upper_traingular1.sparse_mask f4 [99, 99]
00000000: 0000 803f 0000 803f 0000 803f 0000 803f
00000010: 0000 803f 0000 803f 0000 803f 0000 803f
00000020: 0000 803f 0000 803f 0000 803f 0000 803f
00000030: 0000 803f 0000 803f 0000 803f 0000 803f
00000040: 0000 803f 0000 803f 0000 803f 0000 803f
00000050: 0000 803f 0000 803f 0000 803f 0000 803f
00000060: 0000 803f 0000 803f 0000 803f 0000 803f
00000070: 0000 803f 0000 803f 0000 803f 0000 803f
00000080: 0000 803f 0000 803f 0000 803f 0000 803f
00000090: 0000 803f 0000 803f 0000 803f 0000 803f
000000a0: 0000 803f 0000 803f 0000 803f 0000 803f
000000b0: 0000 803f 0000 803f 0000 803f 0000 803f
000000c0: 0000 803f 0000 803f 0000 803f 0000 803f
000000d0: 0000 803f 0000 803f 0000 803f 0000 803f
000000e0: 0000 803f 0000 803f 0000 803f 0000 803f
000000f0: 0000 803f 0000 803f 0000 803f 0000 803f
00000100: 0000 803f 0000 803f 0000 803f 0000 803f
00000110: 0000 803f 0000 803f 0000 803f 0000 803f
00000120: 0000 803f 0000 803f 0000 803f 0000 803f
00000130: 0000 803f 0000 803f 0000 803f 0000 803f
00000140: 0000 803f 0000 803f 0000 803f 0000 803f
00000150: 0000 803f 0000 803f 0000 803f 0000 803f
00000160: 0000 803f 0000 803f 0000 803f 0000 803f
00000170: 0000 803f 0000 803f 0000 803f 0000 803f
00000180: 0000 803f 0000 803f 0000 803f 0000 0000
00000190: 0000 803f 0000 803f 0000 803f 0000 803f
000001a0: 0000 803f 0000 803f 0000 803f 0000 803f
000001b0: 0000 803f 0000 803f 0000 803f 0000 803f
000001c0: 0000 803f 0000 803f 0000 803f 0000 803f
000001d0: 0000 803f 0000 803f 0000 803f 0000 803f
000001e0: 0000 803f 0000 803f 0000 803f 0000 803f
000001f0: 0000 803f 0000 803f 0000 803f 0000 803f
00000200: 0000 803f 0000 803f 0000 803f 0000 803f
00000210: 0000 803f 0000 803f 0000 803f 0000 803f
00000220: 0000 803f 0000 803f 0000 803f 0000 803f
00000230: 0000 803f 0000 803f 0000 803f 0000 803f
00000240: 0000 803f 0000 803f 0000 803f 0000 803f
00000250: 0000 803f 0000 803f 0000 803f 0000 803f
00000260: 0000 803f 0000 803f 0000 803f 0000 803f
00000270: 0000 803f 0000 803f 0000 803f 0000 803f
00000280: 0000 803f 0000 803f 0000 803f 0000 803f
00000290: 0000 803f 0000 803f 0000 803f 0000 803f
000002a0: 0000 803f 0000 803f 0000 803f 0000 803f
000002b0: 0000 803f 0000 803f 0000 803f 0000 803f
000002c0: 0000 803f 0000 803f 0000 803f 0000 803f
000002d0: 0000 803f 0000 803f 0000 803f 0000 803f
000002e0: 0000 803f 0000 803f 0000 803f 0000 803f
000002f0: 0000 803f 0000 803f 0000 803f 0000 803f
00000300: 0000 803f 0000 803f 0000 803f 0000 803f
00000310: 0000 803f 0000 803f 0000 0000 0000 0000
00000320: 0000 803f 0000 803f 0000 803f 0000 803f
00000330: 0000 803f 0000 803f 0000 803f 0000 803f
00000340: 0000 803f 0000 803f 0000 803f 0000 803f
00000350: 0000 803f 0000 803f 0000 803f 0000 803f
00000360: 0000 803f 0000 803f 0000 803f 0000 803f
00000370: 0000 803f 0000 803f 0000 803f 0000 803f
00000380: 0000 803f 0000 803f 0000 803f 0000 803f
00000390: 0000 803f 0000 803f 0000 803f 0000 803f
000003a0: 0000 803f 0000 803f 0000 803f 0000 803f
000003b0: 0000 803f 0000 803f 0000 803f 0000 803f
000003c0: 0000 803f 0000 803f 0000 803f 0000 803f
000003d0: 0000 803f 0000 803f 0000 803f 0000 803f
000003e0: 0000 803f 0000 803f 0000 803f 0000 803f
000003f0: 0000 803f 0000 803f 0000 803f 0000 803f
1.0 1.0 1.0 1.0 1.0 1.0 1.0 1.0
1.0 1.0 1.0 1.0 1.0 1.0 1.0 1.0
1.0 1.0 1.0 1.0 1.0 1.0 1.0 1.0
1.0 1.0 1.0 1.0 1.0 1.0 1.0 1.0
1.0 1.0 1.0 1.0 1.0 1.0 1.0 1.0
1.0 1.0 1.0 1.0 1.0 1.0 1.0 1.0
1.0 1.0 1.0 1.0 1.0 1.0 1.0 1.0
1.0 1.0 1.0 1.0 1.0 1.0 1.0 1.0
1.0 1.0 1.0 1.0 1.0 1.0 1.0 1.0
1.0 1.0 1.0 1.0 1.0 1.0 1.0 1.0
1.0 1.0 1.0 1.0 1.0 1.0 1.0 1.0
1.0 1.0 1.0 1.0 1.0 1.0 1.0 1.0
1.0 1.0 1.0 0.0 1.0 1.0 1.0 1.0
1.0 1.0 1.0 1.0 1.0 1.0 1.0 1.0
1.0 1.0 1.0 1.0 1.0 1.0 1.0 1.0
1.0 1.0 1.0 1.0 1.0 1.0 1.0 1.0
1.0 1.0 1.0 1.0 1.0 1.0 1.0 1.0
1.0 1.0 1.0 1.0 1.0 1.0 1.0 1.0
1.0 1.0 1.0 1.0 1.0 1.0 1.0 1.0
1.0 1.0 1.0 1.0 1.0 1.0 1.0 1.0
1.0 1.0 1.0 1.0 1.0 1.0 1.0 1.0
1.0 1.0 1.0 1.0 1.0 1.0 1.0 1.0
1.0 1.0 1.0 1.0 1.0 1.0 1.0 1.0
1.0 1.0 1.0 1.0 1.0 1.0 1.0 1.0
1.0 1.0 1.0 1.0 1.0 1.0 0.0 0.0
1.0 1.0 1.0 1.0 1.0 1.0 1.0 1.0
1.0 1.0 1.0 1.0 1.0 1.0 1.0 1.0
1.0 1.0 1.0 1.0 1.0 1.0 1.0 1.0
1.0 1.0 1.0 1.0 1.0 1.0 1.0 1.0
1.0 1.0 1.0 1.0 1.0 1.0 1.0 1.0
1.0 1.0 1.0 1.0 1.0 1.0 1.0 1.0
1.0 1.0 1.0 1.0 1.0 1.0 1.0 1.0

lower_traingular1.weight f4 [99, 99]
00000000: b780 f03c 5acc 49bc bb33 b4bd 3ec5 f43c
00000010: 84b9 8c3d 9e22 c23d 4a11 a7bd 3710 6a3d
00000020: 4c13 afbd d552 0e3c 8c43 993c a41c 873d
00000030: 3bfe 5c3d 5962 993d 0e62 973c ea6c bf3d
00000040: c708 a63d b087 e23b 41ae d63c c493 5b3b
00000050: 6924 cbbd 8137 523d bcb6 c9bd f07a a33d
00000060: 7e1e e63b 9030 9d3d 2fd8 0cbd 0401 c2bd
00000070: a116 97bc 8055 aabd 8747 593d ba89 c2bd
00000080: 9615 0bbd b911 4abd a71b 0f3d 7b46 433d
00000090: 8f0a bfbd a626 ae3c 31fd 9dbd 1216 c0bd
000000a0: 434b b1bd 3d80 f3bc f589 143d 1a00 20bd
000000b0: c2f6 7c3d 1d8e 80bd 9999 463d 0a83 ccbd
000000c0: 79b0 c0bd c09a 95bc 6e1f a7bc c37c f5bc
000000d0: 161f b2bd 8560 c13c b18d a83c 69dc ee3b
000000e0: 16a9 693c 1c37 013c 6bd8 81bd 846e b23d
000000f0: d290 c6bd f336 cb3d cd95 583d f7b8 6f3d
00000100: 33f1 3dbd 065d 5fba 3958 993d ba96 243d
00000110: 6b72 f9bc 3ba5 a63d 5d70 2f3d 1a3b 773d
00000120: bc56 833b 958a c63d e2b8 bc3d 1650 aabd
00000130: b194 533d 6ffc 883d 5112 43bd 2438 b43d
00000140: db69 c33d e85e af3d 2923 bb3c 4bc6 96bd
00000150: 3b51 78bd 123f 4e3d 0d2f 0e3c cfe7 7e3d
00000160: db38 f0bb 872f 803d 9940 debc 55f6 a73b
00000170: c2f4 eb3c 172e 87bd b7af 87b9 26e8 4dbd
00000180: e901 3a3d 84d4 cdbd aa3c 7bbd 6ea4 833d
00000190: dba0 9bbd 3d19 b8bd 4e62 a6bc 8897 70bb
000001a0: 8543 1c3d 8cfe 9e3c fc0e 843c 3a6d 81bd
000001b0: ee93 e63c b75e a3bd 1d56 853d 6618 3a3d
000001c0: 58e3 5abd d1b1 4fbc 3905 88bd f657 ff3c
000001d0: 379c 36bd 28db 533d 8be8 5a3d 8de0 82bd
000001e0: ab94 98bc f588 9dbd 8422 b93c 979e b23d
000001f0: 7bd0 a8bd bea8 8ebd bf23 b53d fe39 8339
00000200: 19d9 a1bd 2fb1 ff3c c5aa 06bd a330 2ebd
00000210: 7f48 443d 9552 7cbc 0f7b d43b bd09 06bd
00000220: 6071 c3bd 1d38 a23d 2cc0 3e3b b385 e2bc
00000230: 11b8 503d acca ebbb b27d 663d 08d1 973d
00000240: 59db 91bd 1361 60bd 5a1b 813d 4e4b b13c
00000250: f111 7abd 8e00 9d3d d34e 8fbd c339 d8bb
00000260: 69ad c83b 1a5b bc3b c985 603d b9dc cabd
00000270: 2d95 8e3d 0d71 793d 51f7 233d 84f3 a7bc
00000280: 8dc3 01bd 54a4 a2bc eb07 c3bc 249c d33b
00000290: 81ed 493d d682 cc3d 343f 91bd 9202 65bd
000002a0: 9d18 ae3d 0bc4 8fbd 50b4 0dbd 0678 a8bd
000002b0: f070 f03a 6431 65bd eac1 c53c 5e61 b7bd
000002c0: 4ddd d1bc ce01 963d f206 c7bd 9634 8b3d
000002d0: 534b 013d bc8c 973d ac80 263d 6777 05bd
000002e0: 6614 04bd 8097 5a3b 5e67 3e3d a8e2 edbc
000002f0: bfab b8bc ea26 023c 11bb f7bc 1fe1 42bd
00000300: e767 a3bd a747 6ebd a507 05bd 1543 303d
00000310: 297b 3c3c 91a2 aabd bd0d 3f3d 2067 a63d
00000320: e789 a93d a934 793d 30af 9e3d 79c1 9dbd
00000330: 6f85 8b3d c7e6 933d adba 663c 79fb 433d
00000340: b5da 7bbd afb3 bcbd 9d00 1ebd bb5d 723d
00000350: 4db7 163d 6e78 37bd 66f8 4ebd 3540 01bd
00000360: 0694 89bd 5510 a6bd f301 40bd 8ec6 8ebd
00000370: 3e4a 99bd 7dea 2f3d b08c 97bd 7caf 623d
00000380: 5149 0cbc 7c12 cebc 1d38 1f3b 8dc5 84bd
00000390: 75fb 18bd 9b80 41bc 8de8 be3d 3862 c7bd
000003a0: a995 35bc 963d b73d 6889 b2bd 6e59 98bd
000003b0: bbb4 3ebd 0ba4 043d db8d a63d fda9 8ebd
000003c0: 1cc8 a23c e411 a7bd ea32 a33d 3d57 aa3d
000003d0: 4a36 a7bd 0f05 c4bd dcd6 1fbc 5aeb a7bd
000003e0: 1ea2 91bd db17 35bd 5bf4 b93d 3dca 263d
000003f0: 7909 c6bc d3b2 a33d d1aa 82bd 5402 883b
0.029358251 -0.012316788 -0.08798929 0.029879209 0.06871322 0.09479259 -0.081575945 0.05714437
-0.085486025 0.008686741 0.018708967 0.0659726 0.05395339 0.074894615 0.018479373 0.093469456
0.08107143 0.006913148 0.026206138 0.0033504823 -0.09919054 0.051322464 -0.09849307 0.07982433
0.007022678 0.07675278 -0.034385856 -0.0947285 -0.018443407 -0.08317089 0.05304673 -0.094989255
-0.033956133 -0.049333308 0.03493848 0.047674637 -0.09328186 0.021258663 -0.07714308 -0.093792096
-0.08656933 -0.029724235 0.03626438 -0.039062597 0.061758764 -0.06277106 0.048486326 -0.09985931
-0.094086595 -0.018262267 -0.020400729 -0.029966718 -0.086973354 0.023605594 0.020575376 0.0072894585
0.014261505 0.007886674 -0.063401066 0.087124854 -0.09695591 0.0992259 0.052877236 0.058526006
-0.046372604 -0.00085206365 0.0748753 0.040182807 -0.030450067 0.08136984 0.042831767 0.060359098
0.0040081423 0.09694401 0.09214951 -0.083160564 0.051655475 0.06688773 -0.04762489 0.087997705
0.09541675 0.08563024 0.022843914 -0.0736204 -0.060624342 0.050353117 0.00867821 0.06223279
-0.0073309965 0.06259065 -0.027130412 0.0051258006 0.028803233 -0.06600588 -0.00025880124 -0.050270222
0.045411978 -0.100503 -0.06133715 0.06427847 -0.0759904 -0.08989189 -0.020310547 -0.0036711413
0.03815033 0.019408487 0.016120426 -0.063196614 0.02814671 -0.0797705 0.065105654 0.045433424
-0.05343947 -0.012676672 -0.06641621 0.031169873 -0.04458257 0.051722676 0.053444427 -0.06390486
-0.018625578 -0.07692138 0.022599466 0.08721655 -0.082428895 -0.06965779 0.08844709 0.00025029475
-0.07902736 0.031212417 -0.032877702 -0.042526852 0.0479207 -0.015400548 0.0064843963 -0.03272413
-0.09543109 0.07920859 0.0029106243 -0.027651643 0.05095679 -0.007195791 0.056272216 0.074129164
-0.07121915 -0.054780077 0.06304045 0.021642353 -0.061052267 0.076661214 -0.069974564 -0.0065986826
0.0061241877 0.005748165 0.054815087 -0.09905381 0.06962047 0.06089883 0.04003078 -0.02050186
-0.031680632 -0.019853748 -0.023807487 0.0064578224 0.049298767 0.099858925 -0.07092133 -0.055910654
0.08500788 -0.07019814 -0.034595788 -0.08226018 0.0018344205 -0.055955306 0.024140317 -0.08954118
-0.02561822 0.07324563 -0.097181216 0.06797139 0.031565975 0.0739989 0.040650055 -0.032584574
-0.032246016 0.0033354461 0.046485297 -0.029038742 -0.022542832 0.007943848 -0.030240567 -0.047577973
-0.07978802 -0.0581738 -0.032477994 0.043032724 0.011503973 -0.08331788 0.04664396 0.08125138
0.08278256 0.060841236 0.07748258 -0.077029176 0.0681256 0.07221752 0.014082593 0.047847245
-0.061487872 -0.092139594 -0.038574804 0.05917142 0.036795903 -0.044792585 -0.05052986 -0.031555373
-0.06717686 -0.08108584 -0.04687686 -0.06971465 -0.07484864 0.042948235 -0.07399881 0.055343136
-0.008562402 -0.025155298 0.002429492 -0.06482992 -0.037349183 -0.011810447 0.09321699 -0.097355306
-0.011083045 0.089472935 -0.087176144 -0.07438932 -0.046559077 0.032383006 0.081325255 -0.069660164
0.01987081 -0.08157709 0.079686955 0.08317421 -0.08164652 -0.09571277 -0.009755816 -0.081991866
-0.071109995 -0.044212203 0.0907981 0.040720213 -0.024174439 0.079930924 -0.06380237 0.004150668

lower_traingular1.sparse_mask f4 [99, 99]
00000000: 0000 803f 0000 0000 0000 0000 0000 0000
00000010: 0000 0000 0000 0000 0000 0000 0000 0000
00000020: 0000 0000 0000 0000 0000 0000 0000 0000
00000030: 0000 0000 0000 0000 0000 0000 0000 0000
00000040: 0000 0000 0000 0000 0000 0000 0000 0000
00000050: 0000 0000 0000 0000 0000 0000 0000 0000
00000060: 0000 0000 0000 0000 0000 0000 0000 0000
00000070: 0000 0000 0000 0000 0000 0000 0000 0000
00000080: 0000 0000 0000 0000 0000 0000 0000 0000
00000090: 0000 0000 0000 0000 0000 0000 0000 0000
000000a0: 0000 0000 0000 0000 0000 0000 0000 0000
000000b0: 0000 0000 0000 0000 0000 0000 0000 0000
000000c0: 0000 0000 0000 0000 0000 0000 0000 0000
000000d0: 0000 0000 0000 0000 0000 0000 0000 0000
000000e0: 0000 0000 0000 0000 0000 0000 0000 0000
000000f0: 0000 0000 0000 0000 0000 0000 0000 0000
00000100: 0000 0000 0000 0000 0000 0000 0000 0000
00000110: 0000 0000 0000 0000 0000 0000 0000 0000
00000120: 0000 0000 0000 0000 0000 0000 0000 0000
00000130: 0000 0000 0000 0000 0000 0000 0000 0000
00000140: 0000 0000 0000 0000 0000 0000 0000 0000
00000150: 0000 0000 0000 0000 0000 0000 0000 0000
00000160: 0000 0000 0000 0000 0000 0000 0000 0000
00000170: 0000 0000 0000 0000 0000 0000 0000 0000
00000180: 0000 0000 0000 0000 0000 0000 0000 803f
00000190: 0000 803f 0000 0000 0000 0000 0000 0000
000001a0: 0000 0000 0000 0000 0000 0000 0000 0000
000001b0: 0000 0000 0000 0000 0000 0000 0000 0000
000001c0: 0000 0000 0000 0000 0000 0000 0000 0000
000001d0: 0000 0000 0000 0000 0000 0000 0000 0000
000001e0: 0000 0000 0000 0000 0000 0000 0000 0000
000001f0: 0000 0000 0000 0000 0000 0000 0000 0000
00000200: 0000 0000 0000 0000 0000 0000 0000 0000
00000210: 0000 0000 0000 0000 0000 0000 0000 0000
00000220: 0000 0000 0000 0000 0000 0000 0000 0000
00000230: 0000 0000 0000 0000 0000 0000 0000 0000
00000240: 0000 0000 0000 0000 0000 0000 0000 0000
00000250: 0000 0000 0000 0000 0000 0000 0000 0000
00000260: 0000 0000 0000 0000 0000 0000 0000 0000
00000270: 0000 0000 0000 0000 0000 0000 0000 0000
00000280: 0000 0000 0000 0000 0000 0000 0000 0000
00000290: 0000 0000 0000 0000 0000 0000 0000 0000
000002a0: 0000 0000 0000 0000 0000 0000 0000 0000
000002b0: 0000 0000 0000 0000 0000 0000 0000 0000
000002c0: 0000 0000 0000 0000 0000 0000 0000 0000
000002d0: 0000 0000 0000 0000 0000 0000 0000 0000
000002e0: 0000 0000 0000 0000 0000 0000 0000 0000
000002f0: 0000 0000 0000 0000 0000 0000 0000 0000
00000300: 0000 0000 0000 0000 0000 0000 0000 0000
00000310: 0000 0000 0000 0000 0000 803f 0000 803f
00000320: 0000 803f 0000 0000 0000 0000 0000 0000
00000330: 0000 0000 0000 0000 0000 0000 0000 0000
00000340: 0000 0000 0000 0000 0000 0000 0000 0000
00000350: 0000 0000 0000 0000 0000 0000 0000 0000
00000360: 0000 0000 0000 0000 0000 0000 0000 0000
00000370: 0000 0000 0000 0000 0000 0000 0000 0000
00000380: 0000 0000 0000 0000 0000 0000 0000 0000
00000390: 0000 0000 0000 0000 0000 0000 0000 0000
000003a0: 0000 0000 0000 0000 0000 0000 0000 0000
000003b0: 0000 0000 0000 0000 0000 0000 0000 0000
000003c0: 0000 0000 0000 0000 0000 0000 0000 0000
000003d0: 0000 0000 0000 0000 0000 0000 0000 0000
000003e0: 0000 0000 0000 0000 0000 0000 0000 0000
000003f0: 0000 0000 0000 0000 0000 0000 0000 0000
1.0 0.0 0.0 0.0 0.0 0.0 0.0 0.0
0.0 0.0 0.0 0.0 0.0 0.0 0.0 0.0
0.0 0.0 0.0 0.0 0.0 0.0 0.0 0.0
0.0 0.0 0.0 0.0 0.0 0.0 0.0 0.0
0.0 0.0 0.0 0.0 0.0 0.0 0.0 0.0
0.0 0.0 0.0 0.0 0.0 0.0 0.0 0.0
0.0 0.0 0.0 0.0 0.0 0.0 0.0 0.0
0.0 0.0 0.0 0.0 0.0 0.0 0.0 0.0
0.0 0.0 0.0 0.0 0.0 0.0 0.0 0.0
0.0 0.0 0.0 0.0 0.0 0.0 0.0 0.0
0.0 0.0 0.0 0.0 0.0 0.0 0.0 0.0
0.0 0.0 0.0 0.0 0.0 0.0 0.0 0.0
0.0 0.0 0.0 1.0 1.0 0.0 0.0 0.0
0.0 0.0 0.0 0.0 0.0 0.0 0.0 0.0
0.0 0.0 0.0 0.0 0.0 0.0 0.0 0.0
0.0 0.0 0.0 0.0 0.0 0.0 0.0 0.0
0.0 0.0 0.0 0.0 0.0 0.0 0.0 0.0
0.0 0.0 0.0 0.0 0.0 0.0 0.0 0.0
0.0 0.0 0.0 0.0 0.0 0.0 0.0 0.0
0.0 0.0 0.0 0.0 0.0 0.0 0.0 0.0
0.0 0.0 0.0 0.0 0.0 0.0 0.0 0.0
0.0 0.0 0.0 0.0 0.0 0.0 0.0 0.0
0.0 0.0 0.0 0.0 0.0 0.0 0.0 0.0
0.0 0.0 0.0 0.0 0.0 0.0 0.0 0.0
0.0 0.0 0.0 0.0 0.0 0.0 1.0 1.0
1.0 0.0 0.0 0.0 0.0 0.0 0.0 0.0
0.0 0.0 0.0 0.0 0.0 0.0 0.0 0.0
0.0 0.0 0.0 0.0 0.0 0.0 0.0 0.0
0.0 0.0 0.0 0.0 0.0 0.0 0.0 0.0
0.0 0.0 0.0 0.0 0.0 0.0 0.0 0.0
0.0 0.0 0.0 0.0 0.0 0.0 0.0 0.0
0.0 0.0 0.0 0.0 0.0 0.0 0.0 0.0

upper_traingular2.weight f4 [99, 99]
00000000: d5ea 193d 2c9c 2f3d 35b3 9ebd 7f75 d03b
00000010: 7e63 62bd 0f4c 033d 2e33 983d 9380 a1bd
00000020: df5f 2b3d 83fa 1c3d b18e a0bd 3fd9 b63d
00000030: a36f 94bd 08da 96bd 3e4a 84bd 9544 633d
00000040: 2e9c 983c d3ac cdbd e99e 9cbd 1a72 b4bd
00000050: dd88 1abd 1020 773c bf1a bfbd 827a 163d
00000060: ccdc 88bc e274 9dbd a5b2 6f3d 1670 4fbd
00000070: 9d26 6a3c d9c6 1d3d 01c7 e23b c89c 193d
00000080: bd23 1bbd 2f68 553d 6240 1ebd dc32 173d
00000090: 3f53 983d a699 8b3d 721d 823d a4aa 7bbc
000000a0: 8f03 6e3d d3d1 ca3d 62cf ce3c ffd3 41bd
000000b0: 2695 1dbd 8347 0bbd df93 af3d 309d 95bc
000000c0: 8035 68bd 2579 523d b093 a4bd f789 6a3d
000000d0: 56ec a7bd c9ea 9a3d de6e 6fbd da85 5c3d
000000e0: 048f c1bd 5354 9cbd 993e ba3d 7e4e 643d
000000f0: 9490 05bd 4a67 fc3b 02b2 cebc 85dc c03d
00000100: 9811 8bbd 5124 b3bd 493b 093d 485c 833d
00000110: bd6a 313d 90b9 b73d a7e3 7e3d 783c c7bd
00000120: 4c60 d7bc fdd7 5cbb cf46 943d f363 8cbb
00000130: f276 35bd 63d2 99bd d703 3cbd 7997 ecbc
00000140: dc8b 97bd d8b3 053d 2733 36bc 7868 19bd
00000150: bcd6 0a3d 20d7 dbbc 797b 713b 8e01 b0bd
00000160: 55bc a53d 1c43 6a3d 8ab6 03bd b55e 47bd
00000170: 3dca 61bc dcbc 8c3d d771 163d 6b28 3dbd
00000180: 8328 91bd f698 3c3d dc80 09bd 20ce 543c
00000190: e10d 853d 67da 36bd 73d7 bfbc e15e b8bd
000001a0: 19ce 173d 42b0 de3b 7a56 c23c 6fe9 acbd
000001b0: 2744 febc cb66 b43d 06f3 6e3d 4243 33bd
000001c0: 6d49 bd3d 3ed1 853c d1de 29bd 28ae 163d
000001d0: 7c23 7fbd 92f0 943c e7b6 b23d 8e33 64bd
000001e0: a02c cfbc 7252 adbd c4f4 143d 2d28 15bd
000001f0: 1fef 88bd 8d66 c2bd 64e2 b2bd f230 8fbb
00000200: f410 68bd e826 f53c 1594 5dbd 120a 5c3d
00000210: 0a11 9d3d 74c0 863d e4a7 5bbd fb2d 12ba
00000220: 2213 f53c 25c2 6abc db7c 82bd 4f8a 9aba
00000230: 4841 cabd e143 84bd 3f76 6b3d 0c4c 60bd
00000240: c506 843c bf91 883b 4abc 993d 151d c4bc
00000250: f834 31bd c79f bdbd 5634 72bd fca5 a6bd
00000260: 6090 293d 9212 c33c 984b 84bd 3b92 35bd
00000270: 657c ea3b 841a 7f3d b138 993d 6fb4 c7bd
00000280: fa93 c73c 2c07 acbd 11f3 213d 59be 393c
00000290: f643 ffba 4cf4 673c 4a34 4c3c 7770 9d3d
000002a0: e49e 0a3d 559e ec3b 0f42 83bc 5331 3a3d
000002b0: 3b42 1e3c 2aa0 783d a0b5 603d 1905 be3d
000002c0: 0987 2a3d e01f aa3d 5229 b23c d7a5 5cbc
000002d0: 0808 abbd 06e8 82bd b524 a83d 6e18 8fbd
000002e0: 7d78 a8bd b39b 853c a01a 9a3c b00b b83d
000002f0: 5bfb a3bd 5c2e b7bd 4a3e a73d cc23 c23c
00000300: e91d 7e3d 6f92 72bd 3314 a73b 2dcf b93d
00000310: 0b93 c5bd 3d09 883c c81c 8fbd 2376 a03d
00000320: be97 423d 30a6 6b3b d272 b23d 923a b43c
00000330: a7e9 6e3d 0a28 ecbc 967b a73d 4017 a63d
00000340: 7b95 c3bd 7cc1 84bd 0898 593d aadc c7bb
00000350: 964c b4bd 79f6 c33d 106d 543d a11d b8bd
00000360: f192 813d 0091 923d 7202 2abd 02a3 c33d
00000370: ed4e 3cbd 67ce 2ebd ca52 93bd bb5c 203d
00000380: 6e5a b43d 2010 8abd 7f0f 71bd fee3 8cbc
00000390: d4ee c93d bbd5 80bd f54c 6a3d 0a8e cd3d
000003a0: 189f b33b 65ff 9abc d254 623d c9c7 6d3d
000003b0: cc0b 38bd 697f c1bd f31a 903d b920 2abd
000003c0: 0779 ad3c 6f38 bfbd 839c 69bd 6656 8e3d
000003d0: 256d 5bbd 7523 bf3d 613b 16bd 1c75 78bd
000003e0: 38f1 6a3d 3ce7 9fbd e9cc a13d 8bcd 7e3d
000003f0: fcdd 5e3a 74a5 c2bd 8705 4fbd 19af 2a3d
0.03757747 0.042873546 -0.07749025 0.006361663 -0.055270664 0.032054957 0.07431637 -0.07885852
0.041839477 0.038324844 -0.07839716 0.08928155 -0.072478555 -0.07365805 -0.06459473 0.055485327
0.01862916 -0.10042729 -0.07647497 -0.08810826 -0.03772818 0.015083328 -0.09331273 0.036737926
-0.016706847 -0.07688309 0.058519978 -0.050644003 0.014291433 0.038519714 0.006920696 0.037503034
-0.03787588 0.05210131 -0.03863562 0.036913738 0.07437753 0.068164155 0.063532725 -0.015360508
0.058108862 0.09903302 0.025245372 -0.047321316 -0.038472317 -0.034003746 0.08573126 -0.01826343
-0.056691647 0.051385064 -0.08035982 0.05726048 -0.081993744 0.07564313 -0.05845534 0.05383859
-0.09451106 -0.07633271 0.09093971 0.05573892 -0.032608584 0.0077027427 -0.025231365 0.09417061
-0.06790465 -0.08747161 0.033503804 0.064140856 0.043314684 0.0897094 0.062228825 -0.097283304
-0.026291035 -0.0033698075 0.07240068 -0.004284376 -0.04430289 -0.07510831 -0.0459021 -0.028880822
-0.07399723 0.032642215 -0.011120594 -0.037453145 0.033896193 -0.026835978 0.0036847277 -0.085940465
0.08092562 0.057192907 -0.032156505 -0.048674304 -0.0137811275 0.068719596 0.03672966 -0.046181124
-0.07087805 0.046044312 -0.033570156 0.012988597 0.06496788 -0.04464188 -0.023418164 -0.09002472
0.037061784 0.006795914 0.023722876 -0.084429614 -0.031038357 0.08808669 0.058337234 -0.043765314
0.092425205 0.016335126 -0.04147226 0.036787182 -0.0622897 0.01818112 0.08726292 -0.05571323
-0.025289834 -0.08462991 0.03636624 -0.036415268 -0.06686234 -0.09492216 -0.08734587 -0.0043698484
-0.056656793 0.029925779 -0.0540963 0.05372054 0.076692656 0.06579676 -0.05362691 -0.00055763096
0.02991635 -0.014328514 -0.063714705 -0.0011790487 -0.09875733 -0.064582594 0.057485815 -0.054760024
0.01611651 0.004167765 0.075066164 -0.023939649 -0.043263406 -0.09258991 -0.059131943 -0.08137128
0.041397452 0.023812566 -0.06459731 -0.04432891 0.0071559423 0.062281147 0.07481516 -0.09751212
0.024362553 -0.083998054 0.039538447 0.011336886 -0.001947521 0.014157366 0.012463639 0.076874666
0.033842936 0.007221023 -0.01602271 0.045457195 0.009659345 0.06069962 0.05486071 0.09278316
0.041632686 0.08306861 0.021748219 -0.013467274 -0.08351141 -0.06391911 0.08210126 -0.069870815
-0.08226106 0.016309595 0.018811524 0.08986604 -0.080069266 -0.08944389 0.081661776 0.02369871
0.062040243 -0.05922168 0.0050988435 0.09072719 -0.09647187 0.016605968 -0.069879115 0.07835033
0.047507994 0.003595721 0.087133065 0.022000585 0.058328297 -0.028827686 0.08177869 0.08109903
-0.095499955 -0.06482217 0.053123504 -0.0060993033 -0.0880367 0.09568495 0.051861823 -0.08990026
0.06326855 0.07156563 -0.04150624 0.09552576 -0.045973707 -0.04267731 -0.07193525 0.039150935
0.088063106 -0.06741357 -0.05885267 -0.017198559 0.09860006 -0.06290766 0.0572023 0.100368574
0.005481612 -0.01892061 0.055256672 0.058051858 -0.044933125 -0.0944813 0.0703639 -0.041535113
0.021175874 -0.09336936 -0.057034027 0.06950073 -0.053570885 0.09332935 -0.036677722 -0.06065856
0.05735895 -0.07807776 0.07900412 0.06220774 0.0008501706 -0.09504214 -0.05054238 0.041670892

upper_traingular2.sparse_mask f4 [99, 99]
00000000: 0000 803f 0000 803f 0000 803f 0000 803f
00000010: 0000 803f 0000 803f 0000 803f 0000 803f
00000020: 0000 803f 0000 803f 0000 803f 0000 803f
00000030: 0000 803f 0000 803f 0000 803f 0000 803f
00000040: 0000 803f 0000 803f 0000 803f 0000 803f
00000050: 0000 803f 0000 803f 0000 803f 0000 803f
00000060: 0000 803f 0000 803f 0000 803f 0000 803f
00000070: 0000 803f 0000 803f 0000 803f 0000 803f
00000080: 0000 803f 0000 803f 0000 803f 0000 803f
00000090: 0000 803f 0000 803f 0000 803f 0000 803f
000000a0: 0000 803f 0000 803f 0000 803f 0000 803f
000000b0: 0000 803f 0000 803f 0000 803f 0000 803f
000000c0: 0000 803f 0000 803f 0000 803f 0000 803f
000000d0: 0000 803f 0000 803f 0000 803f 0000 803f
000000e0: 0000 803f 0000 803f 0000 803f 0000 803f
000000f0: 0000 803f 0000 803f 0000 803f 0000 803f
00000100: 0000 803f 0000 803f 0000 803f 0000 803f
00000110: 0000 803f 0000 803f 0000 803f 0000 803f
00000120: 0000 803f 0000 803f 0000 803f 0000 803f
00000130: 0000 803f 0000 803f 0000 803f 0000 803f
00000140: 0000 803f 0000 803f 0000 803f 0000 803f
00000150: 0000 803f 0000 803f 0000 803f 0000 803f
00000160: 0000 803f 0000 803f 0000 803f 0000 803f
00000170: 0000 803f 0000 803f 0000 803f 0000 803f
00000180: 0000 803f 0000 803f 0000 803f 0000 0000
00000190: 0000 803f 0000 803f 0000 803f 0000 803f
000001a0: 0000 803f 0000 803f 0000 803f 0000 803f
000001b0: 0000 803f 0000 803f 0000 803f 0000 803f
000001c0: 0000 803f 0000 803f 0000 803f 0000 803f
000001d0: 0000 803f 0000 803f 0000 803f 0000 803f
000001e0: 0000 803f 0000 803f 0000 803f 0000 803f
000001f0: 0000 803f 0000 803f 0000 803f 0000 803f
00000200: 0000 803f 0000 803f 0000 803f 0000 803f
00000210: 0000 803f 0000 803f 0000 803f 0000 803f
00000220: 0000 803f 0000 803f 0000 803f 0000 803f
00000230: 0000 803f 0000 803f 0000 803f 0000 803f
00000240: 0000 803f 0000 803f 0000 803f 0000 803f
00000250: 0000 803f 0000 803f 0000 803f 0000 803f
00000260: 0000 803f 0000 803f 0000 803f 0000 803f
00000270: 0000 803f 0000 803f 0000 803f 0000 803f
00000280: 0000 803f 0000 803f 0000 803f 0000 803f
00000290: 0000 803f 0000 803f 0000 803f 0000 803f
000002a0: 0000 803f 0000 803f 0000 803f 0000 803f
000002b0: 0000 803f 0000 803f 0000 803f 0000 803f
000002c0: 0000 803f 0000 803f 0000 803f 0000 803f
000002d0: 0000 803f 0000 803f 0000 803f 0000 803f
000002e0: 0000 803f 0000 803f 0000 803f 0000 803f
000002f0: 0000 803f 0000 803f 0000 803f 0000 803f
00000300: 0000 803f 0000 803f 0000 803f 0000 803f
00000310: 0000 803f 0000 803f 0000 0000 0000 0000
00000320: 0000 803f 0000 803f 0000 803f 0000 803f
00000330: 0000 803f 0000 803f 0000 803f 0000 803f
00000340: 0000 803f 0000 803f 0000 803f 0000 803f
00000350: 0000 803f 0000 803f 0000 803f 0000 803f
00000360: 0000 803f 0000 803f 0000 803f 0000 803f
00000370: 0000 803f 0000 803f 0000 803f 0000 803f
00000380: 0000 803f 0000 803f 0000 803f 0000 803f
00000390: 0000 803f 0000 803f 0000 803f 0000 803f
000003a0: 0000 803f 0000 803f 0000 803f 0000 803f
000003b0: 0000 803f 0000 803f 0000 803f 0000 803f
000003c0: 0000 803f 0000 803f 0000 803f 0000 803f
000003d0: 0000 803f 0000 803f 0000 803f 0000 803f
000003e0: 0000 803f 0000 803f 0000 803f 0000 803f
000003f0: 0000 803f 0000 803f 0000 803f 0000 803f
1.0 1.0 1.0 1.0 1.0 1.0 1.0 1.0
1.0 1.0 1.0 1.0 1.0 1.0 1.0 1.0
1.0 1.0 1.0 1.0 1.0 1.0 1.0 1.0
1.0 1.0 1.0 1.0 1.0 1.0 1.0 1.0
1.0 1.0 1.0 1.0 1.0 1.0 1.0 1.0
1.0 1.0 1.0 1.0 1.0 1.0 1.0 1.0
1.0 1.0 1.0 1.0 1.0 1.0 1.0 1.0
1.0 1.0 1.0 1.0 1.0 1.0 1.0 1.0
1.0 1.0 1.0 1.0 1.0 1.0 1.0 1.0
1.0 1.0 1.0 1.0 1.0 1.0 1.0 1.0
1.0 1.0 1.0 1.0 1.0 1.0 1.0 1.0
1.0 1.0 1.0 1.0 1.0 1.0 1.0 1.0
1.0 1.0 1.0 0.0 1.0 1.0 1.0 1.0
1.0 1.0 1.0 1.0 1.0 1.0 1.0 1.0
1.0 1.0 1.0 1.0 1.0 1.0 1.0 1.0
1.0 1.0 1.0 1.0 1.0 1.0 1.0 1.0
1.0 1.0 1.0 1.0 1.0 1.0 1.0 1.0
1.0 1.0 1.0 1.0 1.0 1.0 1.0 1.0
1.0 1.0 1.0 1.0 1.0 1.0 1.0 1.0
1.0 1.0 1.0 1.0 1.0 1.0 1.0 1.0
1.0 1.0 1.0 1.0 1.0 1.0 1.0 1.0
1.0 1.0 1.0 1.0 1.0 1.0 1.0 1.0
1.0 1.0 1.0 1.0 1.0 1.0 1.0 1.0
1.0 1.0 1.0 1.0 1.0 1.0 1.0 1.0
1.0 1.0 1.0 1.0 1.0 1.0 0.0 0.0
1.0 1.0 1.0 1.0 1.0 1.0 1.0 1.0
1.0 1.0 1.0 1.0 1.0 1.0 1.0 1.0
1.0 1.0 1.0 1.0 1.0 1.0 1.0 1.0
1.0 1.0 1.0 1.0 1.0 1.0 1.0 1.0
1.0 1.0 1.0 1.0 1.0 1.0 1.0 1.0
1.0 1.0 1.0 1.0 1.0 1.0 1.0 1.0
1.0 1.0 1.0 1.0 1.0 1.0 1.0 1.0

lower_traingular2.weight f4 [99, 99]
00000000: 961b 81bd a7c6 5f3d f29a 88bc 2143 423d
00000010: 1b07 763d 75a4 b9bd 4182 b63d ce34 693c
00000020: 2e0a 853d 5421 4f3d 2e75 c23d 3d5f 9e3d
00000030: 4606 a2bd f818 88bc 0a5a b8bc 8878 aebd
00000040: d0b6 c0bd 4059 203d 9bec f3bc cd51 d13a
00000050: dd39 823d 82e1 4e3d a913 a23d d85f 493d
00000060: f315 233d 3868 4a3d 4786 6bbc 1e7f b23d
00000070: fad3 9abb 8a3c 7e3d 722f 903c 37ef a73d
00000080: 0821 823c 6358 3f3c 8aab b1bd 8e31 7fbd
00000090: 46c8 22bd 5d4a 5d3a b156 363d c262 7ebd
000000a0: aa97 a83c 113f 78bd 057c 523d c18e bf3d
000000b0: feb1 12bd 29c4 cc3d 439b 643d 892c bf3d
000000c0: beab 9c3d f4cb 93bd 60f3 a1bd 4328 c13a
000000d0: 5a07 8e3d 6f1c 57bd 641c 21bd 8356 b7bc
000000e0: 3a86 b7bd addb 613c 56cd 56bd 566e 93bc
000000f0: b62d 223d f432 aebd 48ad 4c3d 0bef 2dbc
00000100: bfac 963c 8444 e13c 0cab e33b fddc cc3d
00000110: e4ba 54bd f15e 11bb 43df 883d 7929 973c
00000120: 1c76 6ebd ab15 27bd 91ce 45bd 6318 a03d
00000130: 015b 213d 7f4a 383d 01b0 f9bb 4642 ceb9
00000140: 722a a33d 462b 65bd b581 d03c 985b 81bc
00000150: 2fd0 4ebb 519e 8f3c 545d 64bd dc22 a13d
00000160: 7405 bfbd fa60 4bbb c1ba 823c 2941 cdbd
00000170: 9b83 333d 717b 953c e2bf b03c 5e33 0dbd
00000180: 3422 933c f945 c03d d71f 1f3c 073d c03d
00000190: eed9 633d 439c a53c 3607 553d 4889 b3bd
000001a0: 1e3b b63c b6d4 333d 6847 bb3d 4c07 b5bc
000001b0: be92 e8bc 2ea1 9bbd 1f8a eebc 6ce9 7d3d
000001c0: a13b e53c 3aea ca3d 51db 84bd 5714 6f3d
000001d0: 5274 29bd fab2 253c 3cff 77bc d0e3 94bd
000001e0: 4d70 9c3d d3ee 913d b238 b53d c6b2 14bd
000001f0: 7f08 31bd eda1 8dbd 6e3e da3c 3d1c babd
00000200: 19bc 483d 82f4 b23d b26d aa3c fa1e 593d
00000210: 42b2 a03d 4872 a03d 7e41 efbc b2ee 26bd
00000220: acab a53d 91aa be3b 0a88 ba3d 9d14 35bc
00000230: e32e 20bd d0b0 d23c 4ea1 703d 9f86 903d
00000240: 2a4f 85bb 8a90 943d 47bd be3d 0715 44bd
00000250: cc2a d3bc f9fb cd3c 5657 d8bc 3016 89bd
00000260: 1c68 fb3b d0e9 aebd 63c2 633d c378 903d
00000270: e7c1 31bb eb4f 05bc 3832 8f3d 9401 bfbc
00000280: 945f 8c3d 0fda d1bc f166 2cbd df1d 1ebd
00000290: f426 d63c 212b 933d cc03 b439 46ff b93d
000002a0: ffc7 abbd c262 b33d cb98 cc3c 106e 383c
000002b0: f3db b03c 321e c63d 1f0f a63d 8fd1 8abd
000002c0: 120f 2dbd 6a80 53bd 4f54 b7bd ed5a 863d
000002d0: ff5f 0ebc 7e32 87bd 4899 b9bd 8b2e 9bbd
000002e0: 104a 8abd 2ae1 723d e903 e33c 2857 c0bd
000002f0: 8b2e 703d 1b40 0a3c 947f a9bd b713 143c
00000300: f8fb bc3d c60e abbd c732 1ebd 88dd bc3c
00000310: 6886 96bc 896f 29bd 3cab ba3d 8076 b3bd
00000320: 92c4 87bd b8b1 7d3d 9b8c 4f3d 768e 673d
00000330: da0d 683d cc43 90bc 0d26 0abd 9117 b7bd
00000340: fa68 40bd e438 acbd 2cbb 4abd 6146 4cbc
00000350: 6ded 55bd 6f9c 853d 7ee4 18bc 34fe ae3d
00000360: c5d2 9dbd ae31 16bd aebf 02bc 2e0c 4bbd
00000370: 08cb a2bd 6f77 213d e38c f4bc f09b 893d
00000380: 9fb4 a0bb b533 12bd d16d cb3c 62a1 35bd
00000390: 1904 c0bc f357 94bd affc 8ebd eac0 8abd
000003a0: 75d4 c23c daf0 a53d 47b5 b63c 0028 833d
000003b0: c629 2fbd 65d0 693d ddc6 9ebd c4fa 8d3d
000003c0: dfda afbd 9807 9f3d 38d6 b93d acdb e43b
000003d0: c519 603d bf30 633d b5df 7b3d 13ff 473d
000003e0: 8dda a8bc d3bd a4bc 7b55 86bc 69fc 27bc
000003f0: 2bf6 ba3d 5516 2dbd 0dcd af3d 61ad 8dbc
-0.0630409 0.05463281 -0.016675446 0.0474273 0.06006537 -0.09064571 0.08911563 0.014233781
0.06496082 0.050568894 0.094950065 0.07733009 -0.07911353 -0.016613469 -0.022503871 -0.08519083
-0.09409869 0.039147615 -0.029775908 0.0015969813 0.06358693 0.05050803 0.07913906 0.04916367
0.039815854 0.049415797 -0.014375276 0.08715652 -0.0047249766 0.062069453 0.017600749 0.081999235
0.015884891 0.011678788 -0.086752966 -0.06230312 -0.039741777 0.0008441562 0.04451627 -0.0621059
0.020580132 -0.06060702 0.051387805 0.093534 -0.035814278 0.09998352 0.05581213 0.09334666
0.07649945 -0.07216635 -0.07907748 0.001473673 0.06934996 -0.05251735 -0.039333716 -0.02238012
-0.089611486 0.013785285 -0.052441917 -0.017996948 0.039594375 -0.08505812 0.04996994 -0.010616074
0.018392919 0.027498491 0.0069478806 0.10003088 -0.051936045 -0.0022181834 0.06683209 0.018452393
-0.058218107 -0.04079215 -0.0482927 0.078171514 0.03939343 0.04499292 -0.0076198583 -0.0003934076
0.0796708 -0.055949472 0.025452474 -0.015790746 -0.0031557193 0.017531546 -0.055753067 0.07867977
-0.09327212 -0.0031033144 0.015958192 -0.10022194 0.04382668 0.018247338 0.021575872 -0.034472816
0.017960645 0.09388346 0.009712181 0.0938664 0.055627756 0.020216113 0.05200883 -0.08766419
0.022244986 0.04390403 0.09144479 -0.022098206 -0.028390285 -0.07599102 -0.029118596 0.061990187
0.027982535 0.099079564 -0.06487144 0.058369007 -0.041370697 0.010113472 -0.015136536 -0.07270014
0.07638607 0.0712563 0.088487044 -0.036303304 -0.043220993 -0.069156505 0.026641097 -0.09087417
0.04900751 0.087380424 0.02080426 0.053008057 0.078465 0.078342974 -0.029206034 -0.04075498
0.080893844 0.005818673 0.09107979 -0.011052278 -0.039107215 0.025719076 0.058747582 0.07056927
-0.004068275 0.07254131 0.093134455 -0.047871616 -0.025777243 0.025144564 -0.026408833 -0.06693685
0.007672323 -0.0854069 0.055605303 0.070542835 -0.0027123631 -0.00813673 0.06992 -0.023316182
0.068541676 -0.025616674 -0.04209036 -0.038602706 0.026141621 0.071859606 0.00034335104 0.09081893
-0.083877556 0.08759071 0.024975201 0.01125671 0.021589255 0.09673728 0.08108353 -0.067782514
-0.0422507 -0.051636137 -0.089516275 0.065603115 -0.008689879 -0.066014275 -0.09062439 -0.07577237
-0.067524076 0.059296764 0.027711825 -0.09391624 0.058638137 0.0084381355 -0.08276287 0.0090379035
0.09227747 -0.08352427 -0.038622644 0.023054853 -0.018374637 -0.041366134 0.091146916 -0.087628365
-0.0662929 0.061937064 0.0506712 0.056532346 0.056653835 -0.017610453 -0.033727694 -0.08940042
-0.046975113 -0.084092885 -0.049494907 -0.0124679515 -0.05222838 0.06523978 -0.0093318205 0.08544579
-0.07706217 -0.036668472 -0.00798027 -0.049572162 -0.079488814 0.03942054 -0.029852336 0.06719196
-0.004904344 -0.035693843 0.024832638 -0.04434336 -0.023439454 -0.072433375 -0.06981789 -0.06775077
0.023782948 0.081025794 0.022303237 0.06404114 -0.042764448 0.057083506 -0.07752774 0.06932595
-0.08586668 0.0776512 0.09074062 0.0069841947 0.054712076 0.05546641 0.06149264 0.048827242
-0.020612026 -0.020110046 -0.016398182 -0.01025305 0.09128984 -0.042257626 0.08584032 -0.017294588

lower_traingular2.sparse_mask f4 [99, 99]
00000000: 0000 803f 0000 0000 0000 0000 0000 0000
00000010: 0000 0000 0000 0000 0000 0000 0000 0000
00000020: 0000 0000 0000 0000 0000 0000 0000 0000
00000030: 0000 0000 0000 0000 0000 0000 0000 0000
00000040: 0000 0000 0000 0000 0000 0000 0000 0000
00000050: 0000 0000 0000 0000 0000 0000 0000 0000
00000060: 0000 0000 0000 0000 0000 0000 0000 0000
00000070: 0000 0000 0000 0000 0000 0000 0000 0000
00000080: 0000 0000 0000 0000 0000 0000 0000 0000
00000090: 0000 0000 0000 0000 0000 0000 0000 0000
000000a0: 0000 0000 0000 0000 0000 0000 0000 0000
000000b0: 0000 0000 0000 0000 0000 0000 0000 0000
000000c0: 0000 0000 0000 0000 0000 0000 0000 0000
000000d0: 0000 0000 0000 0000 0000 0000 0000 0000
000000e0: 0000 0000 0000 0000 0000 0000 0000 0000
000000f0: 0000 0000 0000 0000 0000 0000 0000 0000
00000100: 0000 0000 0000 0000 0000 0000 0000 0000
00000110: 0000 0000 0000 0000 0000 0000 0000 0000
00000120: 0000 0000 0000 0000 0000 0000 0000 0000
00000130: 0000 0000 0000 0000 0000 0000 0000 0000
00000140: 0000 0000 0000 0000 0000 0000 0000 0000
00000150: 0000 0000 0000 0000 0000 0000 0000 0000
00000160: 0000 0000 0000 0000 0000 0000 0000 0000
00000170: 0000 0000 0000 0000 0000 0000 0000 0000
00000180: 0000 0000 0000 0000 0000 0000 0000 803f
00000190: 0000 803f 0000 0000 0000 0000 0000 0000
000001a0: 0000 0000 0000 0000 0000 0000 0000 0000
000001b0: 0000 0000 0000 0000 0000 0000 0000 0000
000001c0: 0000 0000 0000 0000 0000 0000 0000 0000
000001d0: 0000 0000 0000 0000 0000 0000 0000 0000
000001e0: 0000 0000 0000 0000 0000 0000 0000 0000
000001f0: 0000 0000 0000 0000 0000 0000 0000 0000
00000200: 0000 0000 0000 0000 0000 0000 0000 0000
00000210: 0000 0000 0000 0000 0000 0000 0000 0000
00000220: 0000 0000 0000 0000 0000 0000 0000 0000
00000230: 0000 0000 0000 0000 0000 0000 0000 0000
00000240: 0000 0000 0000 0000 0000 0000 0000 0000
00000250: 0000 0000 0000 0000 0000 0000 0000 0000
00000260: 0000 0000 0000 0000 0000 0000 0000 0000
00000270: 0000 0000 0000 0000 0000 0000 0000 0000
00000280: 0000 0000 0000 0000 0000 0000 0000 0000
00000290: 0000 0000 0000 0000 0000 0000 0000 0000
000002a0: 0000 0000 0000 0000 0000 0000 0000 0000
000002b0: 0000 0000 0000 0000 0000 0000 0000 0000
000002c0: 0000 0000 0000 0000 0000 0000 0000 0000
000002d0: 0000 0000 0000 0000 0000 0000 0000 0000
000002e0: 0000 0000 0000 0000 0000 0000 0000 0000
000002f0: 0000 0000 0000 0000 0000 0000 0000 0000
00000300: 0000 0000 0000 0000 0000 0000 0000 0000
00000310: 0000 0000 0000 0000 0000 803f 0000 803f
00000320: 0000 803f 0000 0000 0000 0000 0000 0000
00000330: 0000 0000 0000 0000 0000 0000 0000 0000
00000340: 0000 0000 0000 0000 0000 0000 0000 0000
00000350: 0000 0000 0000 0000 0000 0000 0000 0000
00000360: 0000 0000 0000 0000 0000 0000 0000 0000
00000370: 0000 0000 0000 0000 0000 0000 0000 0000
00000380: 0000 0000 0000 0000 0000 0000 0000 0000
00000390: 0000 0000 0000 0000 0000 0000 0000 0000
000003a0: 0000 0000 0000 0000 0000 0000 0000 0000
000003b0: 0000 0000 0000 0000 0000 0000 0000 0000
000003c0: 0000 0000 0000 0000 0000 0000 0000 0000
000003d0: 0000 0000 0000 0000 0000 0000 0000 0000
000003e0: 0000 0000 0000 0000 0000 0000 0000 0000
000003f0: 0000 0000 0000 0000 0000 0000 0000 0000
1.0 0.0 0.0 0.0 0.0 0.0 0.0 0.0
0.0 0.0 0.0 0.0 0.0 0.0 0.0 0.0
0.0 0.0 0.0 0.0 0.0 0.0 0.0 0.0
0.0 0.0 0.0 0.0 0.0 0.0 0.0 0.0
0.0 0.0 0.0 0.0 0.0 0.0 0.0 0.0
0.0 0.0 0.0 0.0 0.0 0.0 0.0 0.0
0.0 0.0 0.0 0.0 0.0 0.0 0.0 0.0
0.0 0.0 0.0 0.0 0.0 0.0 0.0 0.0
0.0 0.0 0.0 0.0 0.0 0.0 0.0 0.0
0.0 0.0 0.0 0.0 0.0 0.0 0.0 0.0
0.0 0.0 0.0 0.0 0.0 0.0 0.0 0.0
0.0 0.0 0.0 0.0 0.0 0.0 0.0 0.0
0.0 0.0 0.0 1.0 1.0 0.0 0.0 0.0
0.0 0.0 0.0 0.0 0.0 0.0 0.0 0.0
0.0 0.0 0.0 0.0 0.0 0.0 0.0 0.0
0.0 0.0 0.0 0.0 0.0 0.0 0.0 0.0
0.0 0.0 0.0 0.0 0.0 0.0 0.0 0.0
0.0 0.0 0.0 0.0 0.0 0.0 0.0 0.0
0.0 0.0 0.0 0.0 0.0 0.0 0.0 0.0
0.0 0.0 0.0 0.0 0.0 0.0 0.0 0.0
0.0 0.0 0.0 0.0 0.0 0.0 0.0 0.0
0.0 0.0 0.0 0.0 0.0 0.0 0.0 0.0
0.0 0.0 0.0 0.0 0.0 0.0 0.0 0.0
0.0 0.0 0.0 0.0 0.0 0.0 0.0 0.0
0.0 0.0 0.0 0.0 0.0 0.0 1.0 1.0
1.0 0.0 0.0 0.0 0.0 0.0 0.0 0.0
0.0 0.0 0.0 0.0 0.0 0.0 0.0 0.0
0.0 0.0 0.0 0.0 0.0 0.0 0.0 0.0
0.0 0.0 0.0 0.0 0.0 0.0 0.0 0.0
0.0 0.0 0.0 0.0 0.0 0.0 0.0 0.0
0.0 0.0 0.0 0.0 0.0 0.0 0.0 0.0
0.0 0.0 0.0 0.0 0.0 0.0 0.0 0.0

upper_traingular3.weight f4 [99, 99]
00000000: da17 1cbd 8ff4 ba3d 4e00 c0bc 2e40 4dbc
00000010: 3e2e 94bd 37b0 b03d 089a 6d3d dfec 41bd
00000020: 5f9a ae3d 3ba3 26bc afe0 53bc 5c1d 1b3d
00000030: 630a a73d 2dbe a83d 2329 92bd 6d52 26bc
00000040: 9aa5 ae3d 37cc 683d a9b8 c13d 1557 a4bb
00000050: 5f29 9cbd bbaf c63d 77b3 94bc e49a c73d
00000060: 43d9 61bd b08f 993d 1f7f 98bd 361e 4139
00000070: fc28 9bbd 238a cdbd 9c95 c1ba 4ad3 31bc
00000080: 3223 c8bd 30ee a83d 6f2e 80bc c8a8 bbbd
00000090: 8edf 843c d56a b03d 418f 843d a857 ac3d
000000a0: 6c0c c1bc 65de a2bb fe86 b3bd 1f9f 47bd
000000b0: 3579 833b e211 853d 1ed9 253d 5acb 9c3c
000000c0: 97a9 b03d bfac 02bd 7cc6 c3bd fa3a 713d
000000d0: 39f4 c43d bc6c 7a3d d169 c8bd e290 4dbd
000000e0: 791e f9bb 300f 3b3d 52a1 b5bd 9372 833b
000000f0: 0d07 3dbd 1eea 563d ba33 8b3c 8f54 8b3d
00000100: 0342 82bd d7fe a9bc 8481 c43d cd25 263c
00000110: daec 233c d587 bc3d 6bc5 b13c bf0c 90bc
00000120: f533 983c 77d2 c4bc cb55 f83c 9a13 a8bd
00000130: 0eef a3bd 31d1 253d 0d35 7bbd e555 a4bd
00000140: a479 5c3d 7780 b9bd 5dc7 2fbd 5d7b ad3d
00000150: abe2 4d3d 4777 c83d d9e0 f33b 1529 5abd
00000160: ca8e 473d 805a 18bd 8e8d a43d 9ebd 97bc
00000170: 2228 b9bd de80 9dbd 4816 423d b39f c8bd
00000180: 8134 6bbd 7a1f 08ba f336 963d 6922 78bb
00000190: 945d 473d 2c7c 7e3d ff0a 08bd a131 96bb
000001a0: 9da5 16bd b3b4 023d 33e2 bebd d191 923d
000001b0: 949c b23d 790b 7a3d f392 23bd e769 9bbd
000001c0: 0be0 703c f25e 763b 0cbd 6c3d 6774 cbbd
000001d0: 94ad c13d a7fc 013c 2076 81bb 4479 4a3c
000001e0: 135a c7bd 09f6 693d 4279 a63d 5840 a13d
000001f0: 3d2c a8bd 1be5 a3bd c2f9 453d 975e 943b
00000200: 19a4 583c a5ba 8bbd 68b0 763c 7761 2c3d
00000210: 3b0b d23b 0bb3 cd3d 2193 9a3c d9a9 a7bc
00000220: d520 ccbd 4d82 9ebc 8b66 a5bd 7ea1 7fbd
00000230: 3e51 6a3d dd3c a7bd bf18 1bbd 957b 23bd
00000240: 28c6 00bd ab98 a83d f989 a2bb 6530 ca3d
00000250: 9e17 993d 432d 85bd 71e4 c7bd e38e 47bd
00000260: d7bc 05bd 4970 92bc b2d9 e8bb 066e 6abb
00000270: 226c 9abc 17ff ecbc 092a 5b3b af52 45bd
00000280: e1f6 95bd 4958 be3d 6bbf 91bd 7b99 c43b
00000290: c63e d03c 22aa c8bd b570 5a3c 3630 bf3c
000002a0: 34e8 c6bd c8d9 37bd 5594 b23d f0ea 873c
000002b0: d32c c23d 451f af3c 342b 693d c070 bbbd
000002c0: 0f59 26bb ae40 79bd 10f2 89bc 8f74 463c
000002d0: 28e4 38bc ec36 b0bd c929 6f3d 880a ae3d
000002e0: 4142 edbb 597b 2b3c b661 303d 6380 3f3d
000002f0: e994 a9bc ef20 79bd 0613 4b3d f764 6abd
00000300: f414 9fbd 28d2 7abd e3d1 273d 194e 893d
00000310: 5579 bb3d eb6c abbd 4a58 303b 0f9b 963d
00000320: c41f 96bc 2ac6 9d3d 4610 a5bd 07d8 823d
00000330: 3b81 c7bc 1f81 863d d848 aeba eeec 99bd
00000340: a378 2a3d ae02 113c 423a 3d3d d049 9f3d
00000350: 5bf1 103d fdbe 9b3d 65b4 2bbd e77a cc3d
00000360: 483c a1bd 3d9a 903d d558 03bd 1860 86bd
00000370: c440 c13d 76ef 2fbd f854 8bbd c8d8 453d
00000380: 4d8c babd 3e4b 203c 738a 77b8 628d 52ba
00000390: b018 e63c 02b1 6dba 9966 87bd bac3 2dbc
000003a0: c330 7fbd f473 9d3d 604e 363d b3be af3d
000003b0: e2fb 70bc 89aa 8ebd 6cf9 7ebd e3fd cabd
000003c0: 36db a83d 2dcd 92bc ad56 423c 9f01 3dbd
000003d0: 4bc6 893b 81c0 5abd 349d 1d3c 1e41 0b3d
000003e0: c416 813d 2ec1 a2bd d504 673d 10db 6cbd
000003f0: 4daf c43d b2ea 803d 0fdf dabc ddaf 90bc
-0.038108684 0.09128677 -0.023437645 -0.012527509 -0.072353825 0.0862736 0.058008224 -0.04734504
0.08525538 -0.010170753 -0.012931987 0.037869796 0.08156278 0.08239398 -0.071367525 -0.010151488
0.0852768 0.05683538 0.09459049 -0.005015264 -0.076250784 0.09701487 -0.018151982 0.0974634
-0.055138838 0.07498109 -0.074461214 0.00018417169 -0.075761765 -0.10036113 -0.0014769319 -0.010853598
-0.09772338 0.08248556 -0.015647141 -0.09163052 0.01621988 0.086141266 0.06472636 0.084151566
-0.023565494 -0.004970359 -0.08765982 -0.048735734 0.0040122517 0.064975515 0.040490262 0.019139934
0.08626097 -0.031903025 -0.09559342 0.058894135 0.09616894 0.061138853 -0.09785808 -0.050187
-0.0076025096 0.04566878 -0.0886866 0.004011461 -0.046149302 0.052469365 0.016992439 0.06803238
-0.06360247 -0.0207514 0.09595016 0.010140848 0.0100052 0.092055954 0.021700582 -0.017584203
0.018579463 -0.024026139 0.030314347 -0.08206864 -0.080045804 0.040482704 -0.06132989 -0.080241956
0.053826943 -0.09057706 -0.042914737 0.08470795 0.050264996 0.09788375 0.0074425754 -0.053261835
0.04872016 -0.037195683 0.08034812 -0.018523034 -0.09040858 -0.07690595 0.04738453 -0.09796085
-0.05742312 -0.00051926787 0.073346995 -0.0037862307 0.048673227 0.06213014 -0.03321361 -0.004583553
-0.036779035 0.03191061 -0.09320488 0.071567185 0.08721271 0.061046097 -0.039935064 -0.07588559
0.0147018535 0.0037593213 0.057797477 -0.09934311 0.094569355 0.007933772 -0.003950849 0.012358014
-0.09733977 0.057119403 0.08128597 0.07873601 -0.08211563 -0.08002683 0.04833389 0.0045278776
0.013222718 -0.06822709 0.015056707 0.042085137 0.00641003 0.10043915 0.018868985 -0.020466732
-0.099672 -0.019349242 -0.08076199 -0.06240987 0.057206385 -0.081659056 -0.037865397 -0.03991278
-0.031438977 0.08232244 -0.0049602953 0.09872512 0.07475208 -0.065027736 -0.097603686 -0.04872025
-0.032650795 -0.017875807 -0.0071060294 -0.0035771145 -0.01885039 -0.02893023 0.0033441803 -0.048174556
-0.07322479 0.09294183 -0.07116588 0.0059997416 0.025420558 -0.09798075 0.0133325355 0.023338418
-0.09712258 -0.044885427 0.08719698 0.01659152 0.09481206 0.021377215 0.056925967 -0.09152365
-0.0025382673 -0.0608527 -0.016839057 0.012112751 -0.011284865 -0.086042255 0.05838946 0.084981024
-0.007240564 0.01046642 0.043061934 0.0467533 -0.020700889 -0.060822424 0.04957869 -0.057225194
-0.07767668 -0.061235577 0.040971648 0.06704349 0.091540016 -0.08370384 0.0026908093 0.07353794
-0.018325694 0.077038124 -0.080597445 0.0638886 -0.024353614 0.06567597 -0.0013296856 -0.07515894
0.041618954 0.008850737 0.046198137 0.077777505 0.035386425 0.076047875 -0.041920085 0.09984379
-0.07872826 0.070606686 -0.03206714 -0.06561297 0.09436181 -0.042952977 -0.06803316 0.04830244
-0.091087915 0.009783564 -5.901833e-05 -0.0008031932 0.028087944 -0.0009067209 -0.06611366 -0.010605747
-0.062302362 0.07688132 0.044508338 0.08581295 -0.014708491 -0.06966121 -0.062249586 -0.09911706
0.08244936 -0.017920101 0.011861485 -0.046144124 0.0042045466 -0.053406242 0.00962 0.033997647
0.0630317 -0.07947002 0.056401093 -0.0578261 0.096037485 0.062947646 -0.02671769 -0.017661983
