shared/weights/model_weights_for_layer_size_99_for_dense_False.pth (torch, 639662 bytes, 24 tensors)

Upperlayer1.weight f4 [99, 99]
-0.3996094 -0.010484442 0.00096804765 0.020820362 -0.003168519 -0.0071859974 0.002594896 -0.010490572
-0.021237772 0.0017217381 0.018093059 -0.0025508448 -0.0065843393 -0.06641561 -0.019298298 -0.006418705
0.04454239 0.0094497455 -0.011351132 -0.01692 0.04187336 0.028025324 0.035710998 0.023198754
-0.0071797194 -0.03667701 0.03398749 0.05809499 0.023744814 0.008279811 -0.05144466 -0.06396311
-0.045190964 0.08651458 0.07890377 -0.049984403 0.05725341 -0.0072887833 -0.06513047 -0.0041757883
-0.05155103 -0.06347419 0.049671117 0.043615635 0.025193034 -0.0033120362 0.0480939 -0.037068844
0.0785807 -0.01961726 -0.060907148 0.0077800765 0.07412608 -0.02126401 0.012575993 0.0094645005
0.028432889 0.031304963 -0.059087954 -0.026682802 0.06003921 0.07615596 0.057406783 0.055647366
0.061528664 0.015942508 -0.013695285 0.06198222 -0.006274171 0.06165609 0.015286422 -0.080873296
0.011486179 0.013417677 0.07365538 0.062726304 0.051027372 0.034410752 0.040375024 -0.005597461
-0.0038108176 -0.022360617 0.027946314 0.037370887 0.030833187 -0.013438761 -0.055278473 -0.017013092
0.012216513 0.027655067 0.077762745 0.09062397 -0.022261815 -0.0056606024 -0.059088446 0.054371312
0.03370939 0.05870999 0.014522048 -0.008596009 0.036270157 0.004255379 -0.0042549064 -0.021865375
0.020046964 -0.030378014 0.05060915 -0.04437538 -0.108068444 -0.02699131 -0.037249412 0.035746835
0.07764779 -0.05213222 -0.09583491 -0.07706048 -0.12592329 0.007659801 0.017360646 0.0074854996
-0.067030735 -0.023764944 -0.092905566 0.01055246 0.030710934 -0.05827189 -0.074211344 -0.110716484
0.025788624 -0.01890625 -0.0006139917 0.017277343 0.01702159 -0.10039689 0.036671586 -0.09278405
0.08004548 -0.07050948 -0.09273125 0.06969894 0.04641109 0.056218352 -0.025893902 -0.070058756
-0.0605496 -0.042554177 -0.025857374 0.044640355 0.10238783 -0.02594462 0.038346842 -0.0924961
-0.072992876 -0.040136456 -0.07058684 -0.026851026 -0.0018215526 0.0023586932 0.01062584 0.019505516
0.061746456 -0.015132035 -0.009055525 -0.04174504 -0.059824664 0.0031669259 0.06186411 -0.039223436
-0.04109217 0.04717356 0.03275359 -0.03888192 0.06409093 -0.091434464 0.060302168 -0.054278474
-0.03270641 0.02706593 0.058637608 0.042883974 0.015025781 -0.0057909735 -0.037074342 0.01831291
0.064596355 -0.036077622 0.07079177 0.06640186 -0.04298618 -0.014889281 -0.052317094 -0.023098532
0.002039938 0.059825324 -0.010404366 -0.0409768 -0.071629085 -0.06575211 0.081736766 -0.005940244
-0.029147878 -0.055986077 -0.04003766 -0.049875926 -0.066573024 -0.06327986 -0.027196731 -0.015988756
-0.01200177 -0.10171106 0.039349254 0.0040478427 0.017308922 -0.043560367 -0.05113821 0.009650673
-0.06318543 -0.04609199 -0.012729347 -0.117499076 -0.046090737 0.011808755 0.017957738 0.036453925
0.05690338 -0.06338175 0.018150916 0.0273195 0.021597758 0.0751139 -0.08362859 -0.02765738
-0.11087079 0.034244567 0.017500764 -0.05751667 -0.056516543 -0.040088516 0.08100508 -0.017899051
0.00050288276 -0.027320137 0.0061922846 0.06259881 -0.057324942 0.06970457 -0.0650666 0.003691301
-0.03978037 0.039420445 -0.022111816 0.08287971 -0.0061577437 0.06717453 -0.04318881 0.019928453
00000000: 9a99 ccbe f0c6 2bbc 94c4 7d3a 778f aa3c
00000010: eda6 4fbb 8478 ebbb 210f 2a3b a6e0 2bbc
00000020: d6fa adbc f2ab e13a e537 943c 132c 27bb
00000030: 71c1 d7bb e804 88bd 7717 9ebc 0054 d2bb
00000040: 1572 363d 1bd3 1a3c 19fa 39bc d09b 8abc
00000050: 6683 2b3d 5d95 e53c b245 123d 500b be3c
00000060: da43 ebbb a23a 16bd 7736 0b3d 03f5 6d3d
00000070: 7c84 c23c 0ba8 073c a3b7 52bd 17ff 82bd
00000080: 291a 39bd 8e2e b13d 4d98 a13d 72bc 4cbd
00000090: 8d82 6a3d bfd6 eebb 2063 85bd 0dd5 88bb
000000a0: 2c27 53bd c2fe 81bd f173 4b3d 4fa6 323d
000000b0: 9f61 ce3c bf0e 59bb 1cfe 443d 80d5 17bd
000000c0: ebee a03d 60b4 a0bc c679 79bd 03f0 fe3b
000000d0: 6acf 973d dc31 aebc 8a0b 4e3c fe10 1b3c
000000e0: 17ec e83c a239 003d 3606 72bd e495 dabc
000000f0: adeb 753d a8f7 9b3d 6023 6b3d 7eee 633d
00000100: 7b05 7c3d dd99 823c 3062 60bc 11e1 7d3d
00000110: 9097 cdbb 198b 7c3d e773 7a3c e6a0 a5bd
00000120: 8730 3c3c d1d5 5b3c a2d8 963d a676 803d
00000130: 1402 513d 4af2 0c3d 4860 253d e86a b7bb
00000140: e9be 79bb 9d2d b7bc abef e43c 3712 193d
00000150: e195 fc3c 402e 5cbc ae6b 62bd 0a5f 8bbc
00000160: c527 483c e18c e23c 1342 9f3d 0f99 b93d
00000170: 695e b6bc 937c b9bb ba06 72bd 74b4 5e3d
00000180: db12 0a3d e379 703d e2ed 6d3c 46d6 0cbc
00000190: 0490 143d b570 8b3b be6c 8bbb 041f b3bc
000001a0: 8839 a43c 50db f8bc 8a4b 4f3d f5c2 35bd
000001b0: fd52 ddbd e11c ddbc d792 18bd 466b 123d
000001c0: ce05 9f3d 9888 55bd 1845 c4bd e3d1 9dbd
000001d0: 09f2 00be 11ff fa3b ea37 8e3c ec48 f53b
000001e0: 6947 89bd b3ae c2bc 4645 bebd 3ae4 2c3c
000001f0: 7f95 fb3c 81ae 6ebd 1efc 97bd 53bf e2bd
00000200: aa42 d33c 48e1 9abc 49f4 20ba 3789 8d3c
00000210: dd70 8b3c e29c cdbd f234 163d 9005 bebd
00000220: e2ee a33d 4667 90bd e2e9 bdbd 51be 8e3d
00000230: 8e19 3e3d 3745 663d 731f d4bc f77a 8fbd
00000240: db02 78bd 4a4d 2ebd d8d2 d3bc ced8 363d
00000250: b6b0 d13d d089 d4bc 9411 1d3d 986e bdbd
00000260: 4a7d 95bd 2066 24bd d58f 90bd aff6 dbbc
00000270: 2ac1 eeba 4e94 1a3b 0118 2e3c 08ca 9f3c
00000280: dae9 7c3d 5bec 77bc a05d 14bc d9fc 2abd
00000290: b50a 75bd 338c 4f3b 3965 7d3d c1a8 20bd
000002a0: 4350 28bd 1039 413d a128 063d a642 1fbd
000002b0: 1b42 833d fe41 bbbd 68ff 763d 1b53 5ebd
000002c0: 28f7 05bd 5fb9 dd3c fd2d 703d 1ba7 2f3d
000002d0: b12e 763c 35c2 bdbb 44db 17bd f504 963c
000002e0: 184b 843d 21c6 13bd 47fb 903d b3fd 873d
000002f0: 4712 30bd 2cf2 73bc 734a 56bd 2239 bdbc
00000300: 7bb0 053b 660b 753d 1377 2abc 4ad7 27bd
00000310: 45b2 92bd 0ba9 86bd 9b65 a73d 61a6 c2bb
00000320: 88c7 eebc a851 65bd 88fe 23bd b34a 4cbd
00000330: 7057 88bd df98 81bd aecb debc dafa 82bc
00000340: 12a3 44bc e34d d0bd af2c 213d c4a3 843b
00000350: 71cb 8d3c 5b6c 32bd 4d76 51bd db1d 1e3c
00000360: 5d67 81bd f4ca 3cbd c08e 50bc 5ba3 f0bd
00000370: a4c9 3cbd 8279 413c 1b1c 933c b650 153d
00000380: 8513 693d 4ace 81bd 3bb1 943c 25cd df3c
00000390: c8ed b03c 51d5 993d 7745 abbd bb91 e2bc
000003a0: 3a10 e3bd 0844 0c3d c35d 8f3c 9a96 6bbd
000003b0: e47d 67bd db33 24bd fee5 a53d 08a1 92bc
000003c0: e4d3 033a 7bce dfbc a6e8 ca3b ce33 803d
000003d0: 8fcd 6abd 45c1 8e3d a341 85bd c1e9 713b
000003e0: bef0 22bd 5577 213d d723 b5bc d6bc a93d
000003f0: e6c6 c9bb cd92 893d c0e6 30bd ff40 a33c

Upperlayer1.bias f4 [99]
0.06140619 0.05944671 0.08879031 0.13643488 -0.026937366 -0.08967797 0.066134684 0.014860095
-0.034170695 0.009061279 -0.1643165 0.033226993 0.045280136 -0.11662703 -0.097568296 -0.019280385
0.03320089 0.040677674 -0.02190162 0.1116609 0.11201921 0.08305352 0.06047063 0.13049524
0.017790288 0.13347116 0.118692294 -0.075681135 0.017696382 -0.018649947 0.12946874 0.022504129
0.09703493 -0.055852603 0.06862049 0.016903043 -0.046609554 0.12356578 0.0021331455 -0.044164196
0.018809315 -0.00797277 -0.055765443 0.10908607 0.06370288 -0.098886885 0.05657531 -0.025504883
-0.087789394 -0.04166515 -0.0954177 -0.029709017 -0.0464397 0.036730565 0.00013200937 -0.0866905
-0.030136533 0.008580896 0.14776088 0.0037033895 0.091667674 -0.039109133 0.033800557 0.028774729
0.005979736 0.07747223 -0.048270177 -0.0003174695 -0.013795996 0.1102583 -0.0006335916 -0.10590773
0.0064392057 0.04252548 0.13796614 0.061992336 -0.057736363 -0.07864612 -0.0146440305 -0.027601622
-0.019045288 -0.04637393 -0.041484285 -0.07786765 0.005344701 -0.1224213 -0.024288101 -0.03965398
-0.10915184 -0.034341183 -0.06125823 0.10378254 -0.042968355 -0.033413127 0.06774389 -0.0006311975
0.043025322 -0.04265357 0.01052536
00000000: 0f85 7b3d 657e 733d b2d7 b53d 96b5 0b3e
00000010: c0ab dcbc 15a9 b7bd 9f71 873d c277 733c
00000020: 92f6 0bbd c275 143c 9642 28be 0719 083d
00000030: aa77 393d 27da eebd e3d1 c7bd e6f1 9dbc
00000040: a8fd 073d a29d 263d 076b b3bc 78ae e43d
00000050: 546a e53d f717 aa3d 0db0 773d 8ba0 053e
00000060: f0bc 913c aaac 083e f214 f33d b6fe 9abd
00000070: 01f8 903c c6c7 98bc 7493 043e 945a b83c
00000080: 40ba c63d b3c5 64bd e688 8c3d 4078 8a3c
00000090: a9e9 3ebd 0e10 fd3d 3ecc 0b3b 84e5 34bd
000000a0: fe15 9a3c 39a0 02bc 4e6a 64bd 8468 df3d
000000b0: a876 823d 3585 cabd 83bb 673d 9eef d0bc
000000c0: edca b3bd 14a9 2abd 5b6a c3bd 5360 f3bc
000000d0: 8e37 3ebd ca72 163d ff6b 0a39 ca8a b1bd
000000e0: e4e0 f6bc e396 0c3c a14e 173e 91b4 723b
000000f0: 43bc bb3d e630 20bd 7472 0a3d fbb8 eb3c
00000100: a9f1 c33b c3a9 9e3d f3b6 45bd 0972 a6b9
00000110: 9a08 62bc 1bcf e13d 9d17 26ba 27e6 d8bd
00000120: f9ff d23b 332f 2e3d ff46 0d3e adeb 7d3d
00000130: f77c 6cbd 3811 a1bd 84ed 6fbc cc1c e2bc
00000140: dd04 9cbc 97f2 3dbd 6deb 29bd 1379 9fbd
00000150: 9a22 af3b 05b8 fabd d7f7 c6bc 366c 22bd
00000160: 008b dfbd 57a9 0cbd e9e9 7abd f18b d43d
00000170: 96ff 2fbd 34dc 08bd 4fbd 8a3d f276 25ba
00000180: 523b 303d 83b5 2ebd 8f72 2c3c

Upperlayer1.sparse_mask f4 [99, 99]
1.0 1.0 1.0 1.0 1.0 1.0 1.0 1.0
1.0 1.0 1.0 1.0 1.0 1.0 1.0 1.0
1.0 1.0 1.0 1.0 1.0 1.0 1.0 1.0
1.0 1.0 1.0 1.0 1.0 1.0 1.0 1.0
1.0 1.0 1.0 1.0 1.0 1.0 1.0 1.0
1.0 1.0 1.0 1.0 1.0 1.0 1.0 1.0
1.0 1.0 1.0 1.0 1.0 1.0 1.0 1.0
1.0 1.0 1.0 1.0 1.0 1.0 1.0 1.0
1.0 1.0 1.0 1.0 1.0 1.0 1.0 1.0
1.0 1.0 1.0 1.0 1.0 1.0 1.0 1.0
1.0 1.0 1.0 1.0 1.0 1.0 1.0 1.0
1.0 1.0 1.0 1.0 1.0 1.0 1.0 1.0
1.0 1.0 1.0 0.0 1.0 1.0 1.0 1.0
1.0 1.0 1.0 1.0 1.0 1.0 1.0 1.0
1.0 1.0 1.0 1.0 1.0 1.0 1.0 1.0
1.0 1.0 1.0 1.0 1.0 1.0 1.0 1.0
1.0 1.0 1.0 1.0 1.0 1.0 1.0 1.0
1.0 1.0 1.0 1.0 1.0 1.0 1.0 1.0
1.0 1.0 1.0 1.0 1.0 1.0 1.0 1.0
1.0 1.0 1.0 1.0 1.0 1.0 1.0 1.0
1.0 1.0 1.0 1.0 1.0 1.0 1.0 1.0
1.0 1.0 1.0 1.0 1.0 1.0 1.0 1.0
1.0 1.0 1.0 1.0 1.0 1.0 1.0 1.0
1.0 1.0 1.0 1.0 1.0 1.0 1.0 1.0
1.0 1.0 1.0 1.0 1.0 1.0 0.0 0.0
1.0 1.0 1.0 1.0 1.0 1.0 1.0 1.0
1.0 1.0 1.0 1.0 1.0 1.0 1.0 1.0
1.0 1.0 1.0 1.0 1.0 1.0 1.0 1.0
1.0 1.0 1.0 1.0 1.0 1.0 1.0 1.0
1.0 1.0 1.0 1.0 1.0 1.0 1.0 1.0
1.0 1.0 1.0 1.0 1.0 1.0 1.0 1.0
1.0 1.0 1.0 1.0 1.0 1.0 1.0 1.0
00000000: 0000 803f 0000 803f 0000 803f 0000 803f
00000010: 0000 803f 0000 803f 0000 803f 0000 803f
00000020: 0000 803f 0000 803f 0000 803f 0000 803f
00000030: 0000 803f 0000 803f 0000 803f 0000 803f
00000040: 0000 803f 0000 803f 0000 803f 0000 803f
00000050: 0000 803f 0000 803f 0000 803f 0000 803f
00000060: 0000 803f 0000 803f 0000 803f 0000 803f
00000070: 0000 803f 0000 803f 0000 803f 0000 803f
00000080: 0000 803f 0000 803f 0000 803f 0000 803f
00000090: 0000 803f 0000 803f 0000 803f 0000 803f
000000a0: 0000 803f 0000 803f 0000 803f 0000 803f
000000b0: 0000 803f 0000 803f 0000 803f 0000 803f
000000c0: 0000 803f 0000 803f 0000 803f 0000 803f
000000d0: 0000 803f 0000 803f 0000 803f 0000 803f
000000e0: 0000 803f 0000 803f 0000 803f 0000 803f
000000f0: 0000 803f 0000 803f 0000 803f 0000 803f
00000100: 0000 803f 0000 803f 0000 803f 0000 803f
00000110: 0000 803f 0000 803f 0000 803f 0000 803f
00000120: 0000 803f 0000 803f 0000 803f 0000 803f
00000130: 0000 803f 0000 803f 0000 803f 0000 803f
00000140: 0000 803f 0000 803f 0000 803f 0000 803f
00000150: 0000 803f 0000 803f 0000 803f 0000 803f
00000160: 0000 803f 0000 803f 0000 803f 0000 803f
00000170: 0000 803f 0000 803f 0000 803f 0000 803f
00000180: 0000 803f 0000 803f 0000 803f 0000 0000
00000190: 0000 803f 0000 803f 0000 803f 0000 803f
000001a0: 0000 803f 0000 803f 0000 803f 0000 803f
000001b0: 0000 803f 0000 803f 0000 803f 0000 803f
000001c0: 0000 803f 0000 803f 0000 803f 0000 803f
000001d0: 0000 803f 0000 803f 0000 803f 0000 803f
000001e0: 0000 803f 0000 803f 0000 803f 0000 803f
000001f0: 0000 803f 0000 803f 0000 803f 0000 803f
00000200: 0000 803f 0000 803f 0000 803f 0000 803f
00000210: 0000 803f 0000 803f 0000 803f 0000 803f
00000220: 0000 803f 0000 803f 0000 803f 0000 803f
00000230: 0000 803f 0000 803f 0000 803f 0000 803f
00000240: 0000 803f 0000 803f 0000 803f 0000 803f
00000250: 0000 803f 0000 803f 0000 803f 0000 803f
00000260: 0000 803f 0000 803f 0000 803f 0000 803f
00000270: 0000 803f 0000 803f 0000 803f 0000 803f
00000280: 0000 803f 0000 803f 0000 803f 0000 803f
00000290: 0000 803f 0000 803f 0000 803f 0000 803f
000002a0: 0000 803f 0000 803f 0000 803f 0000 803f
000002b0: 0000 803f 0000 803f 0000 803f 0000 803f
000002c0: 0000 803f 0000 803f 0000 803f 0000 803f
000002d0: 0000 803f 0000 803f 0000 803f 0000 803f
000002e0: 0000 803f 0000 803f 0000 803f 0000 803f
000002f0: 0000 803f 0000 803f 0000 803f 0000 803f
00000300: 0000 803f 0000 803f 0000 803f 0000 803f
00000310: 0000 803f 0000 803f 0000 0000 0000 0000
00000320: 0000 803f 0000 803f 0000 803f 0000 803f
00000330: 0000 803f 0000 803f 0000 803f 0000 803f
00000340: 0000 803f 0000 803f 0000 803f 0000 803f
00000350: 0000 803f 0000 803f 0000 803f 0000 803f
00000360: 0000 803f 0000 803f 0000 803f 0000 803f
00000370: 0000 803f 0000 803f 0000 803f 0000 803f
00000380: 0000 803f 0000 803f 0000 803f 0000 803f
00000390: 0000 803f 0000 803f 0000 803f 0000 803f
000003a0: 0000 803f 0000 803f 0000 803f 0000 803f
000003b0: 0000 803f 0000 803f 0000 803f 0000 803f
000003c0: 0000 803f 0000 803f 0000 803f 0000 803f
000003d0: 0000 803f 0000 803f 0000 803f 0000 803f
000003e0: 0000 803f 0000 803f 0000 803f 0000 803f
000003f0: 0000 803f 0000 803f 0000 803f 0000 803f

Lowerlayer1.weight f4 [99, 99]
-0.06672425 -0.07730687 -0.014594372 -0.057173774 0.08957265 0.06986189 0.013281987 0.034921154
0.04494495 -0.07933294 -0.010175773 0.06762936 0.047192942 0.07252842 -0.09939317 -0.0863956
-0.09739721 -0.06381167 -0.010868657 -0.047455624 -0.03896245 0.07367047 -0.039816502 -0.08476563
-0.0009153712 0.07865319 -0.09321209 -0.051795267 0.017224593 0.0026005805 -0.09529814 0.08954363
-0.08274065 -0.023744239 -0.037949383 0.019122861 -0.07559045 0.08846913 -0.02452105 0.040486693
-0.08211679 -0.03724259 -0.015605736 -0.095897526 -0.06702706 0.09356809 -0.007570149 0.055277158
0.05651604 -0.06446515 0.09418362 0.07178116 -0.003106753 -0.07730036 -0.02916845 -0.071467385
-0.061050434 -0.004398291 -0.08077182 -0.067351416 0.0051232367 0.0668848 0.052750394 0.015782204
0.025991846 0.07809183 -0.094046436 0.0642962 0.06437488 0.052855898 -0.08319576 0.08478515
-7.117903e-05 -0.035322003 0.094661675 -0.045452416 -0.043452907 -0.068604924 -0.09980601 -0.051035747
-0.0969729 0.095491365 0.04615751 0.012083386 0.06322095 -0.055526208 -0.023382556 0.030739635
-0.06934727 -0.06390853 -0.091422826 -0.077565536 -0.062252067 0.048983894 0.0608738 -0.052057784
0.07701919 0.07370776 -0.017760275 -0.02472903 0.03034118 -0.010228214 -0.023791552 -0.07661968
-0.0940717 -0.022831563 0.020242149 0.0734487 -0.09479856 -0.02533868 0.042508125 -0.048829544
0.063689545 -0.06616654 0.039200787 -0.089235544 0.09104024 0.059236802 -0.015000803 -0.00829192
-0.021422815 0.035641294 0.08658044 -0.08606698 0.0537287 0.060039107 -0.05833352 0.010275946
-0.0881495 0.0115707675 -0.020192498 0.089316264 -0.087932676 -0.06974344 -0.034883607 -0.0818011
0.09116106 -0.07466632 0.0014151939 -0.051287334 -0.08475092 -0.0010668228 -0.099616915 -0.041897755
-0.030820278 0.07030006 0.0015157742 0.03280657 0.060287785 -0.06397969 -0.0781633 0.076896064
0.06430621 0.05782174 -0.049167633 -0.029327651 -0.0453062 0.087160416 -0.011471565 -0.022808583
0.0041150246 -0.052902106 0.09100891 -0.090662 -0.07139604 0.046613913 0.07667517 -0.0073784413
0.054931134 0.08089938 0.015832666 0.058281966 -0.08774636 -0.021792764 0.09785229 0.06939314
-0.038890168 -0.07046585 0.03515494 -0.09347208 0.09359496 0.025050752 -0.049560346 0.07110996
-0.017368846 0.013093203 0.08197467 0.07719449 0.019792322 0.09909956 0.03516747 0.05215587
0.059722953 0.097881585 -0.03678423 -0.0942565 0.058262914 -0.015831625 -0.07880028 0.10428954
-0.0076605915 0.05006705 0.0463657 -0.09008264 0.07042764 0.051887773 -0.037858773 -0.012336496
0.009229863 0.04796182 0.09954019 0.07888558 0.086955145 0.018989692 0.08306501 -0.07674223
-0.0748635 -0.030348755 0.07487383 -0.09824528 -0.08385008 0.04781484 0.042766158 0.0038600215
-0.013639584 0.0031518496 0.0996638 -0.001536693 -0.003282622 0.0913655 -0.09321811 -0.027224882
0.075258866 0.03335852 -0.013377284 -0.042646375 -0.06364354 -0.052903377 0.053507183 -0.06995371
-0.026523143 0.017494788 0.012119652 0.029610751 -0.0054818033 -0.02739179 0.093058236 -0.030341638
0.025085941 -0.084035955 0.0054527256 0.0977347 -0.012415067 -0.08022331 -0.023691054 0.0884766
00000000: b9a6 88bd 1053 9ebd 3c1d 6fbc 0c2f 6abd
00000010: de71 b73d c013 8f3d b19c 593c 7c09 0f3d
00000020: 3218 383d 4f79 a2bd 49b8 26bc 4381 8a3d
00000030: 634d 413d c889 943d a58e cbbd 2df0 b0bd
00000040: 3078 c7bd b1af 82bd 7412 32bc d460 42bd
00000050: 1797 1fbd 8be0 963d a116 23bd 9a99 adbd
00000060: 85f5 6fba ec14 a13d fbe5 bebd 4627 54bd
00000070: 971a 8d3c 806e 2a3b ac2b c3bd a762 b73d
00000080: ee73 a9bd 4783 c2bc d070 1bbd 8ca7 9c3c
00000090: 2acf 9abd 4e2f b53d 5ee0 c8bc 60d5 253d
000000a0: d92c a8bd b08b 18bd 33af 7fbc ec65 c4bd
000000b0: 7c45 89bd a0a0 bf3d 030f f8bb 4d6a 623d
000000c0: 5d7d 673d 4e06 84bd 57e3 c03d 0002 933d
000000d0: ab9a 4bbb a74f 9ebd acf2 eebc 7e5d 92bd
000000e0: 0510 7abd 8a1f 90bb b26b a5bd 8aef 89bd
000000f0: d3e0 a73b e6fa 883d cc10 583d ae49 813c
00000100: daec d43c 9cee 9f3d 6b9b c0bd baad 833d
00000110: fad6 833d 6d7f 583d 8a62 aabd d6a3 ad3d
00000120: f345 95b8 cead 10bd fbdd c13d 502c 3abd
00000130: adfb 31bd bd80 8cbd 1867 ccbd dc0a 51bd
00000140: ba99 c6bd fa90 c33d a80f 3d3d 65f9 453c
00000150: fc79 813d 736f 63bd c68c bfbc b0d1 fb3c
00000160: f105 8ebd 7ae2 82bd e43b bbbd aeda 9ebd
00000170: 06fc 7ebd 56a3 483d ce56 793d 8b3a 55bd
00000180: 3dbc 9d3d 18f4 963d ff7d 91bc 8994 cabc
00000190: 118e f83c 3d94 27bc 80e6 c2bc c7ea 9cbd
000001a0: aaa8 c0bd 4209 bbbc ddd2 a53c 466c 963d
000001b0: bf25 c2bd 1093 cfbc 001d 2e3d 7d01 48bd
000001c0: aa6f 823d 5382 87bd 0191 203d 20c1 b6bd
000001d0: 4e73 ba3d 4aa2 723d eec5 75bc d5da 07bc
000001e0: e67e afbc 9bfc 113d 1651 b13d e343 b0bd
000001f0: a012 5c3d 91eb 753d 21ef 6ebd 715c 283c
00000200: ba87 b4bd 5193 3d3c bd6a a5bc 72eb b63d
00000210: 0c16 b4bd a6d5 8ebd 1de2 0ebd 5687 a7bd
00000220: a6b2 ba3d a8ea 98bd 077e b93a ab12 52bd
00000230: e491 adbd a2d4 8bba f403 ccbd fb9c 2bbd
00000240: cf7a fcbc 7af9 8f3d f1ac c63a 2f60 063d
00000250: 53f0 763d c907 83bd 1514 a0bd af7b 9d3d
00000260: f9b2 833d 7dd6 6c3d 0064 49bd 8b40 f0bc
00000270: fe92 39bd 2981 b23d 3bf3 3bbc 11d9 babc
00000280: 54d7 863b e1af 58bd e162 ba3d 00ad b9bd
00000290: 1638 92bd 3bee 3e3d df07 9d3d dac6 f1bb
000002a0: 78ff 603d 93ae a53d 82b3 813c 12b9 6e3d
000002b0: 5db4 b3bd bd86 b2bc c866 c83d fe1d 8e3d
000002c0: 4c4b 1fbd 6650 90bd a0fe 0f3d 4a6e bfbd
000002d0: b7ae bf3d 3c37 cd3c caff 4abd 19a2 913d
000002e0: 1c49 8ebc e084 563c 56e2 a73d 2518 9e3d
000002f0: 8223 a23c b6f4 ca3d c40b 103d 65a1 553d
00000300: 0ea0 743d 2476 c83d 10ab 16bd 8d09 c1bd
00000310: 18a5 6e3d 53b1 81bc 0b62 a1bd c195 d53d
00000320: b305 fbbb 1b13 4d3d f6e9 3d3d 3f7d b8bd
00000330: 5e3c 903d 4688 543d cd11 1bbd 041f 4abc
00000340: da38 173c 9d73 443d badb cb3d c38e a13d
00000350: 8a15 b23d 4590 9b3c fd1d aa3d 082b 9dbd
00000360: 0952 99bd f49d f8bc 7357 993d d234 c9bd
00000370: 97b9 abbd 7ed9 433d 912b 2f3d 6af8 7c3b
00000380: 9078 5fbc 438f 4e3b 891c cc3d dc6a c9ba
00000390: 4221 57bb d61d bb3d 23e9 bebd b706 dfbc
000003a0: 5221 9a3d f2a2 083d 652c 5bbc f7ad 2ebd
000003b0: 8b57 82bd 36b1 58bd 592a 5b3d e443 8fbd
000003c0: 1047 d9bc 3b51 8f3c 8191 463c 3f92 f23c
000003d0: b3a0 b3bb bf64 e0bc 5195 be3d 078f f8bc
000003e0: 0881 cd3c 0b1b acbd c7ac b23b 2129 c83d
000003f0: 9168 4bbc 1e4c a4bd be13 c2bc 3833 b53d

Lowerlayer1.bias f4 [99]
0.05320871 -0.031028815 0.02035263 0.05280219 0.0526683 -0.0746899 0.013912967 -0.0014697874
-0.062191345 0.05402285 -0.028547524 -0.0007305993 0.16219515 0.11245257 0.08827129 0.009175986
0.15230754 0.05380684 -0.16501547 0.05992751 0.039936658 0.075021625 0.0954669 0.013569784
-0.101892345 0.09762092 0.09175458 0.0056585604 0.061385415 0.094763875 -0.08808574 0.061423603
0.015795391 -0.0065041394 0.011383593 0.12271026 0.017656246 -0.060814682 0.073433265 0.015424371
0.047600906 -0.0817375 0.06986971 0.044519704 -0.085194595 0.034968812 -0.16118735 -0.061644513
0.037380934 -0.043232422 -0.013160431 -0.089319006 -0.075407386 -0.010515834 0.0030370743 0.039810155
-0.029116062 -0.07686932 0.041931376 0.08209957 -0.15922281 0.011944704 -0.096849345 0.022224085
0.06827866 -0.13540107 -0.09445859 0.0058878637 0.074885584 0.085824415 -0.09620172 0.046925247
-0.114018165 -0.042205535 0.011524732 -0.107255906 -0.001829652 -0.0168787 -0.09205442 -0.04054187
-0.083397575 -0.04289805 -0.0956596 -0.08284723 -0.086817764 -0.064866595 -0.010491888 0.05880887
0.08912472 0.02253013 -0.082553044 -0.0433131 -0.0149748 -0.023236759 0.034576204 0.07112619
-0.06700093 -0.051608365 -0.029104697
00000000: 60f1 593d 2430 febc 8fba a63c 1c47 583d
00000010: b7ba 573d 05f7 98bd 37f3 633c e2a5 c0ba
00000020: 5abc 7ebd 1047 5d3d 7fdc e9bc b085 3fba
00000030: 7c16 263e 884d e63d 94c7 b43d e056 163c
00000040: 82f6 1b3e 9064 5c3d d1f9 28be 8c76 753d
00000050: 9f94 233d f0a4 993d 2684 c33d cd53 5e3c
00000060: efac d0bd 7aed c73d d3e9 bb3d 726b b93b
00000070: 466f 7b3d 9013 c23d 4c66 b4bd 5197 7b3d
00000080: 5665 813c ad20 d5bb 4082 3a3c 844f fb3d
00000090: d5a3 903c d118 79bd 2e64 963d 80b6 7c3c
000000a0: 2bf9 423d fe65 a7bd da17 8f3d 4b5a 363d
000000b0: 817a aebd 753b 0f3d 4c0e 25be f57e 7cbd
000000c0: c01c 193d 7b14 31bd d99e 57bc e2ec b6bd
000000d0: 306f 9abd 9b4a 2cbc a709 473b f90f 233d
000000e0: cf84 eebc a96d 9dbd 3cc0 2b3d d223 a83d
000000f0: 4e0b 23be b8b3 433c f358 c6bd 490f b63c
00000100: afd5 8b3d 94a6 0abe 8173 c1bd fbee c03b
00000110: 9d5d 993d b6c4 af3d 6805 c5bd b034 403d
00000120: 5b82 e9bd b6df 2cbd 3bd2 3c3c fca8 dbbd
00000130: efd0 efba 3345 8abc 0787 bcbd 3b0f 26bd
00000140: 59cc aabd deb5 2fbd 2ee9 c3bd cfab a9bd
00000150: 83cd b1bd c7d8 84bd 2be6 2bbc 92e1 703d
00000160: 0587 b63d 1b91 b83c 9211 a9bd 1469 31bd
00000170: dd58 75bc 045b bebc c79f 0d3d 9caa 913d
00000180: c937 89bd 4b63 53bd f96c eebc

Lowerlayer1.sparse_mask f4 [99, 99]
1.0 0.0 0.0 0.0 0.0 0.0 0.0 0.0
0.0 0.0 0.0 0.0 0.0 0.0 0.0 0.0
0.0 0.0 0.0 0.0 0.0 0.0 0.0 0.0
0.0 0.0 0.0 0.0 0.0 0.0 0.0 0.0
0.0 0.0 0.0 0.0 0.0 0.0 0.0 0.0
0.0 0.0 0.0 0.0 0.0 0.0 0.0 0.0
0.0 0.0 0.0 0.0 0.0 0.0 0.0 0.0
0.0 0.0 0.0 0.0 0.0 0.0 0.0 0.0
0.0 0.0 0.0 0.0 0.0 0.0 0.0 0.0
0.0 0.0 0.0 0.0 0.0 0.0 0.0 0.0
0.0 0.0 0.0 0.0 0.0 0.0 0.0 0.0
0.0 0.0 0.0 0.0 0.0 0.0 0.0 0.0
0.0 0.0 0.0 1.0 1.0 0.0 0.0 0.0
0.0 0.0 0.0 0.0 0.0 0.0 0.0 0.0
0.0 0.0 0.0 0.0 0.0 0.0 0.0 0.0
0.0 0.0 0.0 0.0 0.0 0.0 0.0 0.0
0.0 0.0 0.0 0.0 0.0 0.0 0.0 0.0
0.0 0.0 0.0 0.0 0.0 0.0 0.0 0.0
0.0 0.0 0.0 0.0 0.0 0.0 0.0 0.0
0.0 0.0 0.0 0.0 0.0 0.0 0.0 0.0
0.0 0.0 0.0 0.0 0.0 0.0 0.0 0.0
0.0 0.0 0.0 0.0 0.0 0.0 0.0 0.0
0.0 0.0 0.0 0.0 0.0 0.0 0.0 0.0
0.0 0.0 0.0 0.0 0.0 0.0 0.0 0.0
0.0 0.0 0.0 0.0 0.0 0.0 1.0 1.0
1.0 0.0 0.0 0.0 0.0 0.0 0.0 0.0
0.0 0.0 0.0 0.0 0.0 0.0 0.0 0.0
0.0 0.0 0.0 0.0 0.0 0.0 0.0 0.0
0.0 0.0 0.0 0.0 0.0 0.0 0.0 0.0
0.0 0.0 0.0 0.0 0.0 0.0 0.0 0.0
0.0 0.0 0.0 0.0 0.0 0.0 0.0 0.0
0.0 0.0 0.0 0.0 0.0 0.0 0.0 0.0
00000000: 0000 803f 0000 0000 0000 0000 0000 0000
00000010: 0000 0000 0000 0000 0000 0000 0000 0000
00000020: 0000 0000 0000 0000 0000 0000 0000 0000
00000030: 0000 0000 0000 0000 0000 0000 0000 0000
00000040: 0000 0000 0000 0000 0000 0000 0000 0000
00000050: 0000 0000 0000 0000 0000 0000 0000 0000
00000060: 0000 0000 0000 0000 0000 0000 0000 0000
00000070: 0000 0000 0000 0000 0000 0000 0000 0000
00000080: 0000 0000 0000 0000 0000 0000 0000 0000
00000090: 0000 0000 0000 0000 0000 0000 0000 0000
000000a0: 0000 0000 0000 0000 0000 0000 0000 0000
000000b0: 0000 0000 0000 0000 0000 0000 0000 0000
000000c0: 0000 0000 0000 0000 0000 0000 0000 0000
000000d0: 0000 0000 0000 0000 0000 0000 0000 0000
000000e0: 0000 0000 0000 0000 0000 0000 0000 0000
000000f0: 0000 0000 0000 0000 0000 0000 0000 0000
00000100: 0000 0000 0000 0000 0000 0000 0000 0000
00000110: 0000 0000 0000 0000 0000 0000 0000 0000
00000120: 0000 0000 0000 0000 0000 0000 0000 0000
00000130: 0000 0000 0000 0000 0000 0000 0000 0000
00000140: 0000 0000 0000 0000 0000 0000 0000 0000
00000150: 0000 0000 0000 0000 0000 0000 0000 0000
00000160: 0000 0000 0000 0000 0000 0000 0000 0000
00000170: 0000 0000 0000 0000 0000 0000 0000 0000
00000180: 0000 0000 0000 0000 0000 0000 0000 803f
00000190: 0000 803f 0000 0000 0000 0000 0000 0000
000001a0: 0000 0000 0000 0000 0000 0000 0000 0000
000001b0: 0000 0000 0000 0000 0000 0000 0000 0000
000001c0: 0000 0000 0000 0000 0000 0000 0000 0000
000001d0: 0000 0000 0000 0000 0000 0000 0000 0000
000001e0: 0000 0000 0000 0000 0000 0000 0000 0000
000001f0: 0000 0000 0000 0000 0000 0000 0000 0000
00000200: 0000 0000 0000 0000 0000 0000 0000 0000
00000210: 0000 0000 0000 0000 0000 0000 0000 0000
00000220: 0000 0000 0000 0000 0000 0000 0000 0000
00000230: 0000 0000 0000 0000 0000 0000 0000 0000
00000240: 0000 0000 0000 0000 0000 0000 0000 0000
00000250: 0000 0000 0000 0000 0000 0000 0000 0000
00000260: 0000 0000 0000 0000 0000 0000 0000 0000
00000270: 0000 0000 0000 0000 0000 0000 0000 0000
00000280: 0000 0000 0000 0000 0000 0000 0000 0000
00000290: 0000 0000 0000 0000 0000 0000 0000 0000
000002a0: 0000 0000 0000 0000 0000 0000 0000 0000
000002b0: 0000 0000 0000 0000 0000 0000 0000 0000
000002c0: 0000 0000 0000 0000 0000 0000 0000 0000
000002d0: 0000 0000 0000 0000 0000 0000 0000 0000
000002e0: 0000 0000 0000 0000 0000 0000 0000 0000
000002f0: 0000 0000 0000 0000 0000 0000 0000 0000
00000300: 0000 0000 0000 0000 0000 0000 0000 0000
00000310: 0000 0000 0000 0000 0000 803f 0000 803f
00000320: 0000 803f 0000 0000 0000 0000 0000 0000
00000330: 0000 0000 0000 0000 0000 0000 0000 0000
00000340: 0000 0000 0000 0000 0000 0000 0000 0000
00000350: 0000 0000 0000 0000 0000 0000 0000 0000
00000360: 0000 0000 0000 0000 0000 0000 0000 0000
00000370: 0000 0000 0000 0000 0000 0000 0000 0000
00000380: 0000 0000 0000 0000 0000 0000 0000 0000
00000390: 0000 0000 0000 0000 0000 0000 0000 0000
000003a0: 0000 0000 0000 0000 0000 0000 0000 0000
000003b0: 0000 0000 0000 0000 0000 0000 0000 0000
000003c0: 0000 0000 0000 0000 0000 0000 0000 0000
000003d0: 0000 0000 0000 0000 0000 0000 0000 0000
000003e0: 0000 0000 0000 0000 0000 0000 0000 0000
000003f0: 0000 0000 0000 0000 0000 0000 0000 0000

Upperlayer2.weight f4 [99, 99]
-0.00016276025 -0.029776335 -0.0058584698 -0.026274009 -0.006701046 0.0080422275 0.0723754 0.03152848
-0.0071531134 0.06766907 0.008772059 -0.0024397203 -0.10546379 -0.0024872907 0.0027354727 0.05083448
-0.009802191 -0.012628551 -0.019124487 0.017472286 0.020860283 -0.030853843 0.037675694 0.007729313
-0.009467051 0.05146228 0.0785658 -0.07985647 -0.006933031 0.035467338 0.028258279 0.08926666
0.0029013236 -0.060634814 0.049720734 0.06462807 0.018997539 0.04982819 -0.04199853 0.08881819
0.07454701 0.023187183 0.004993662 0.08932678 -0.03787507 -0.019686481 0.047915634 -0.054725125
0.03782569 -0.039845407 -0.023544068 0.084882796 0.041717485 -0.07550482 -0.094856694 0.016342755
0.08288615 -0.03311355 0.011240844 -0.020161027 -0.024456609 0.098390095 -0.03015052 -0.049643915
-0.073242314 0.00022720713 0.028410587 -0.015003886 0.09480374 -0.036365412 0.08727243 -0.02012134
0.00060865766 -0.027678547 -0.026539467 0.096113905 0.080292374 -0.011139196 -0.045991063 0.049353316
0.060861915 -0.050376274 -0.065591894 0.046742488 0.07778836 0.094611615 -0.00016554163 -0.07715601
0.08711256 -0.0043877773 0.02576422 0.019503905 0.048783563 0.069887675 0.0016429072 0.086040474
-0.073098965 -0.045333996 -0.01169689 0.06233602 -0.09882345 0.02058079 -0.0956538 0.017404903
0.015830554 0.082697615 -0.048425697 0.03819179 -0.014044438 -0.07689889 0.023556452 0.026157515
-0.010374788 0.028907089 0.037359625 0.010409526 0.009968334 -0.07822172 0.018705353 0.016185537
-0.05640706 0.0725732 0.09495458 0.00080518826 -0.007794446 -0.069958724 0.071127795 -0.0029665905
0.008818152 -0.042732358 0.09420083 0.041532904 0.0049841083 -0.07961345 0.044842113 -0.04484419
0.015062392 0.028175924 -0.09743452 0.03440127 -0.053051516 0.07127624 0.08723864 -0.08222281
0.07851286 -0.059370827 0.034276932 0.005688031 0.052674007 -0.06336788 0.04405734 -0.02891057
0.026690401 0.027274087 0.048031986 0.0057448167 0.05727737 -0.037133016 -0.05821005 -0.027299145
0.09069711 -0.010913495 0.06331982 0.07412408 0.013927162 -0.00083074725 0.04845246 0.014312298
-0.08555027 -0.04023725 0.038636286 0.031155033 0.00451995 -0.07328839 0.02339658 -0.07579357
0.0115984855 0.09468156 -0.012895484 -0.044094317 0.031121248 0.06132254 -0.079237506 0.04462799
0.015124968 0.03244 -0.07884087 0.07500943 0.088157766 0.10555862 -0.052569926 -0.026710717
0.056841087 -0.04165168 -0.006857893 0.039114915 0.021818077 -0.05673758 0.07075658 7.816394e-05
-0.0025814357 0.08069708 0.047211237 -0.0074453577 -0.079799816 0.001284799 -0.016928665 -0.023591265
-0.04230446 0.034919225 -0.042343147 -0.024822343 0.042192046 0.01307232 -0.0146318 0.0946819
0.06377506 -0.049740925 -0.061481602 -0.08431246 0.03621302 0.059932016 -0.0015688948 0.061445463
-0.058774002 -0.08228252 0.019426288 -0.05913832 -0.045522552 -0.022189382 0.05059778 0.025043536
0.029257149 -0.04001604 0.06685833 0.02936063 0.066080645 -0.030888561 0.06923108 -0.019003041
-0.03416321 -0.02162646 -0.015538195 0.007737164 0.034485787 -0.015157118 -0.037383728 0.01208018
-0.06705388 0.0046177623 -0.07140652 0.021445416 -0.017299017 0.029052535 0.012089134 0.08840853
00000000: 9faa 2ab9 80ed f3bc 68f8 bfbb 973c d7bc
00000010: 7394 dbbb 8cc3 033c 8e39 943d 0224 013d
00000020: aa64 eabb 1596 8a3d afb8 0f3c b7e3 1fbb
00000030: 66fd d7bd d001 23bb 9e45 333b d137 503d
00000040: 5e99 20bc fbe7 4ebc f5aa 9cbc 0a22 8f3c
00000050: 2fe3 aa3c 33c1 fcbc d451 1a3d 2d46 fd3b
00000060: b11b 1bbc 1dca 523d 1be7 a03d ca8b a3bd
00000070: 7b2e e3bb 3346 113d e87d e73c 70d1 b63d
00000080: 2224 3e3b 365c 78bd f8a7 4b3d b95b 843d
00000090: baa0 9b3c a518 4c3d a706 2cbd 50e6 b53d
000000a0: 1aac 983d 0cf3 bd3c dfa1 a33b f5f0 b63d
000000b0: e422 1bbd 8b45 a1bc 2f43 443d 7427 60bd
000000c0: 1cef 1a3d f034 23bd 7ddf c0bc 08d7 ad3d
000000d0: f4df 2a3d 45a2 9abd 3a44 c2bd 3ee1 853c
000000e0: 37c0 a93d 13a2 07bd 842b 383c bd28 a5bc
000000f0: 3a59 c8bc bf80 c93d 39fe f6bc 6b57 4bbd
00000100: 1100 96bd 733e 6e39 52bd e83c dcd2 75bc
00000110: 7728 c23d e6f3 14bd e3bb b23d 82d5 a4bc
00000120: 538e 1f3a 1fbe e2bc 4c69 d9bc 5ed7 c43d
00000130: 5470 a43d 2d81 36bc 2061 3cbd b426 4a3d
00000140: 584a 793d 5a57 4ebd 0b55 86bd 0d75 3f3d
00000150: 814f 9f3d bcc3 c13d 3e95 2db9 f803 9ebd
00000160: 1268 b23d 58c7 8fbb 7c0f d33c a7c6 9f3c
00000170: 46d1 473d 4521 8f3d d156 d73a fd35 b03d
00000180: e9b4 95bd 24b0 39bd 50a4 3fbc 0e54 7f3d
00000190: f363 cabd 0b99 a83c 24e6 c3bd ba94 8e3c
000001a0: 14af 813c 5e5d a93d 065a 46bd ff6e 1c3d
000001b0: a41a 66bc 2a7d 9dbd 76f9 c03c 4948 d63c
000001c0: 04fb 29bc 8fce ec3c 6806 193d b78c 2a3c
000001d0: 3952 233c b632 a0bd f83b 993c 8897 843c
000001e0: 170b 67bd 42a1 943d 8c77 c23d 4513 533a
000001f0: 8d68 ffbb 8546 8fbd 73ab 913d 216b 42bb
00000200: 037a 103c 2008 2fbd 5dec c03d 681e 2a3d
00000210: bb51 a33b 600c a3bd 5dac 373d 8bae 37bd
00000220: 40c8 763c 32d1 e63c c08b c7bd 59e8 0c3d
00000230: 8c4c 59bd 47f9 913d 2caa b23d 6f64 a8bd
00000240: 5acb a03d d32e 73bd f865 0c3d aa62 ba3b
00000250: b3c0 573d 05c7 81bd 7875 343d dcd5 ecbc
00000260: d4a5 da3c e86d df3c 30bd 443d 043f bc3b
00000270: ad9b 6a3d ca18 18bd a96d 6ebd 75a2 dfbc
00000280: 68bf b93d 84ce 32bc d2ad 813d 5ece 973d
00000290: c02e 643c 81c6 59ba 1676 463d 217e 6a3c
000002a0: fb34 afbd d1cf 24bd 1541 1e3d d738 ff3c
000002b0: 171c 943b 3918 96bd 2faa bf3c a939 9bbd
000002c0: 9307 3e3c 68e8 c13d 9547 53bc 3e9c 34bd
000002d0: fdf1 fe3c 582d 7b3d 4647 a2bd d7cb 363d
000002e0: b7ce 773c cedf 043d 5277 a1bd 8b9e 993d
000002f0: 0f8c b43d 1e2f d83d 9053 57bd 6fd0 dabc
00000300: 33d2 683d f49a 2abd 2db8 e0bb f636 203d
00000310: d3bb b23c aa65 68bd d3e8 903d f2eb a338
00000320: 4e2d 29bb 8344 a53d 9260 413d 30f8 f3bb
00000330: 166e a3bd b366 a83a fcad 8abc 7842 c1bc
00000340: 7147 2dbd 7607 0f3d 0270 2dbd 3a58 cbbc
00000350: 91d1 2c3d 492d 563c 38ba 6fbc 96e8 c13d
00000360: 809c 823d 24bd 4bbd 22d4 7bbd 03ac acbd
00000370: 1b54 143d 467b 753d 60a3 cdba 3dae 7b3d
00000380: 02bd 70bd bd83 a8bd e123 9f3c 063b 72bd
00000390: db75 3abd 82c6 b5bc 9e3f 4f3d 1a28 cd3c
000003a0: b0ac ef3c dce7 23bd 05ed 883d b485 f03c
000003b0: 4a55 873d 020a fdbc 06c9 8d3d 44ac 9bbc
000003c0: b9ee 0bbd f929 b1bc ea93 7ebc 0988 fd3b
000003d0: f840 0d3d 9055 78bc ae1f 19bd f3eb 453c
000003e0: 8b53 89bd 9950 973b 953d 92bd 4cae af3c
000003f0: abb6 8dbc 95ff ed3c 8111 463c 880f b53d

Upperlayer2.bias f4 [99]
0.014502213 0.12581845 -0.10806454 0.045277588 -0.04479842 0.0991241 0.017022625 -0.04317437
-0.019422377 0.07675101 -0.11442955 -0.05925536 -0.03186708 -0.09423999 -0.07010551 -0.101645604
0.098358415 0.011434361 -0.030916678 0.014112282 -0.039531015 0.04279592 -0.060024768 0.0068619805
0.089766875 0.07939903 0.03756715 0.040753994 -0.027146962 -0.038557746 -0.054393068 -0.100576594
-0.042835597 -0.04232488 0.0959561 -0.0024784044 -0.042463515 -0.010058129 0.060565572 -0.00460962
-0.0061343866 -0.15823342 -0.12416804 -0.13034402 -0.04561998 0.011361683 -0.04489126 0.040849816
0.06122208 0.07493114 -0.036868002 0.08233204 0.03886885 -0.10736476 0.09829519 -0.104298994
0.029840598 0.065815344 0.023338135 -0.08362791 0.009573651 0.07864472 -0.09203306 -0.05562898
0.12737851 0.061494634 -0.07283483 0.0648759 -0.11599971 -0.026178082 -0.11999396 0.075150356
-0.0066592614 -0.019981967 -0.052885626 -0.053868294 -0.007260994 -0.003449011 0.002493076 -0.058952507
0.07707616 -0.11582439 -0.047158573 0.06956984 0.079828314 -0.088533 -0.07794841 0.09344648
-0.10293717 0.0045914496 0.07032055 -0.022597084 0.05538973 0.039602388 -0.070534356 -0.0991823
-0.0013548341 0.069055155 -0.03216028
00000000: b19a 6d3c 8dd6 003e f150 ddbd fe74 393d
00000010: 8c7e 37bd 9301 cb3d 0873 8b3c 9cd7 30bd
00000020: ad1b 9fbc a22f 9d3d 0a5a eabd c0b5 72bd
00000030: 0e87 02bd e500 c1bd 7a93 8fbd 922b d0bd
00000040: 2370 c93d 3057 3b3c f944 fdbc 3337 673c
00000050: 46eb 21bd c64a 2f3d 88dc 75bd 77da e03b
00000060: b2d7 b73d f59b a23d 03e0 193d a9ed 263d
00000070: 4e63 debc baee 1dbd 44cb 5ebd 1afb cdbd
00000080: 6174 2fbd da5c 2dbd a284 c43d ba6c 22bb
00000090: 39ee 2dbd daca 24bc 9b13 783d 4c0c 97bb
000000a0: f702 c9bb f107 22be d04b febd e778 05be
000000b0: 04dc 3abd 5a26 3a3c e6df 37bd 2352 273d
000000c0: 01c4 7a3d 7f75 993d e702 17bd b39d a83d
000000d0: f134 1f3d 0ee2 dbbd fd4e c93d b69a d5bd
000000e0: 4574 f43c 32ca 863d 9e2f bf3c 1c45 abbd
000000f0: cdda 1c3c 7c10 a13d d47b bcbd 37db 63bd
00000100: 836f 023e cce1 7b3d 6d2a 95bd a8dd 843d
00000110: 4291 edbd 6b73 d6bc 65bf f5bd 6ee8 993d
00000120: ef35 dabb 39b1 a3bc 999e 58bd 00a5 5cbd
00000130: a2ed edbb cd08 62bb e062 233b 2f78 71bd
00000140: 1bda 9d3d 5635 edbd 5929 41bd a27a 8e3d
00000150: 077d a33d ca50 b5bd 6aa3 9fbd de60 bf3d
00000160: b9d0 d2bd df73 963b 3804 903d 851d b9bc
00000170: 57e0 623d 1d36 223d 5174 90bd 1720 cbbd
00000180: b094 b1ba ca6c 8d3d 7fba 03bd

Upperlayer2.sparse_mask f4 [99, 99]
1.0 1.0 1.0 1.0 1.0 1.0 1.0 1.0
1.0 1.0 1.0 1.0 1.0 1.0 1.0 1.0
1.0 1.0 1.0 1.0 1.0 1.0 1.0 1.0
1.0 1.0 1.0 1.0 1.0 1.0 1.0 1.0
1.0 1.0 1.0 1.0 1.0 1.0 1.0 1.0
1.0 1.0 1.0 1.0 1.0 1.0 1.0 1.0
1.0 1.0 1.0 1.0 1.0 1.0 1.0 1.0
1.0 1.0 1.0 1.0 1.0 1.0 1.0 1.0
1.0 1.0 1.0 1.0 1.0 1.0 1.0 1.0
1.0 1.0 1.0 1.0 1.0 1.0 1.0 1.0
1.0 1.0 1.0 1.0 1.0 1.0 1.0 1.0
1.0 1.0 1.0 1.0 1.0 1.0 1.0 1.0
1.0 1.0 1.0 0.0 1.0 1.0 1.0 1.0
1.0 1.0 1.0 1.0 1.0 1.0 1.0 1.0
1.0 1.0 1.0 1.0 1.0 1.0 1.0 1.0
1.0 1.0 1.0 1.0 1.0 1.0 1.0 1.0
1.0 1.0 1.0 1.0 1.0 1.0 1.0 1.0
1.0 1.0 1.0 1.0 1.0 1.0 1.0 1.0
1.0 1.0 1.0 1.0 1.0 1.0 1.0 1.0
1.0 1.0 1.0 1.0 1.0 1.0 1.0 1.0
1.0 1.0 1.0 1.0 1.0 1.0 1.0 1.0
1.0 1.0 1.0 1.0 1.0 1.0 1.0 1.0
1.0 1.0 1.0 1.0 1.0 1.0 1.0 1.0
1.0 1.0 1.0 1.0 1.0 1.0 1.0 1.0
1.0 1.0 1.0 1.0 1.0 1.0 0.0 0.0
1.0 1.0 1.0 1.0 1.0 1.0 1.0 1.0
1.0 1.0 1.0 1.0 1.0 1.0 1.0 1.0
1.0 1.0 1.0 1.0 1.0 1.0 1.0 1.0
1.0 1.0 1.0 1.0 1.0 1.0 1.0 1.0
1.0 1.0 1.0 1.0 1.0 1.0 1.0 1.0
1.0 1.0 1.0 1.0 1.0 1.0 1.0 1.0
1.0 1.0 1.0 1.0 1.0 1.0 1.0 1.0
00000000: 0000 803f 0000 803f 0000 803f 0000 803f
00000010: 0000 803f 0000 803f 0000 803f 0000 803f
00000020: 0000 803f 0000 803f 0000 803f 0000 803f
00000030: 0000 803f 0000 803f 0000 803f 0000 803f
00000040: 0000 803f 0000 803f 0000 803f 0000 803f
00000050: 0000 803f 0000 803f 0000 803f 0000 803f
00000060: 0000 803f 0000 803f 0000 803f 0000 803f
00000070: 0000 803f 0000 803f 0000 803f 0000 803f
00000080: 0000 803f 0000 803f 0000 803f 0000 803f
00000090: 0000 803f 0000 803f 0000 803f 0000 803f
000000a0: 0000 803f 0000 803f 0000 803f 0000 803f
000000b0: 0000 803f 0000 803f 0000 803f 0000 803f
000000c0: 0000 803f 0000 803f 0000 803f 0000 803f
000000d0: 0000 803f 0000 803f 0000 803f 0000 803f
000000e0: 0000 803f 0000 803f 0000 803f 0000 803f
000000f0: 0000 803f 0000 803f 0000 803f 0000 803f
00000100: 0000 803f 0000 803f 0000 803f 0000 803f
00000110: 0000 803f 0000 803f 0000 803f 0000 803f
00000120: 0000 803f 0000 803f 0000 803f 0000 803f
00000130: 0000 803f 0000 803f 0000 803f 0000 803f
00000140: 0000 803f 0000 803f 0000 803f 0000 803f
00000150: 0000 803f 0000 803f 0000 803f 0000 803f
00000160: 0000 803f 0000 803f 0000 803f 0000 803f
00000170: 0000 803f 0000 803f 0000 803f 0000 803f
00000180: 0000 803f 0000 803f 0000 803f 0000 0000
00000190: 0000 803f 0000 803f 0000 803f 0000 803f
000001a0: 0000 803f 0000 803f 0000 803f 0000 803f
000001b0: 0000 803f 0000 803f 0000 803f 0000 803f
000001c0: 0000 803f 0000 803f 0000 803f 0000 803f
000001d0: 0000 803f 0000 803f 0000 803f 0000 803f
000001e0: 0000 803f 0000 803f 0000 803f 0000 803f
000001f0: 0000 803f 0000 803f 0000 803f 0000 803f
00000200: 0000 803f 0000 803f 0000 803f 0000 803f
00000210: 0000 803f 0000 803f 0000 803f 0000 803f
00000220: 0000 803f 0000 803f 0000 803f 0000 803f
00000230: 0000 803f 0000 803f 0000 803f 0000 803f
00000240: 0000 803f 0000 803f 0000 803f 0000 803f
00000250: 0000 803f 0000 803f 0000 803f 0000 803f
00000260: 0000 803f 0000 803f 0000 803f 0000 803f
00000270: 0000 803f 0000 803f 0000 803f 0000 803f
00000280: 0000 803f 0000 803f 0000 803f 0000 803f
00000290: 0000 803f 0000 803f 0000 803f 0000 803f
000002a0: 0000 803f 0000 803f 0000 803f 0000 803f
000002b0: 0000 803f 0000 803f 0000 803f 0000 803f
000002c0: 0000 803f 0000 803f 0000 803f 0000 803f
000002d0: 0000 803f 0000 803f 0000 803f 0000 803f
000002e0: 0000 803f 0000 803f 0000 803f 0000 803f
000002f0: 0000 803f 0000 803f 0000 803f 0000 803f
00000300: 0000 803f 0000 803f 0000 803f 0000 803f
00000310: 0000 803f 0000 803f 0000 0000 0000 0000
00000320: 0000 803f 0000 803f 0000 803f 0000 803f
00000330: 0000 803f 0000 803f 0000 803f 0000 803f
00000340: 0000 803f 0000 803f 0000 803f 0000 803f
00000350: 0000 803f 0000 803f 0000 803f 0000 803f
00000360: 0000 803f 0000 803f 0000 803f 0000 803f
00000370: 0000 803f 0000 803f 0000 803f 0000 803f
00000380: 0000 803f 0000 803f 0000 803f 0000 803f
00000390: 0000 803f 0000 803f 0000 803f 0000 803f
000003a0: 0000 803f 0000 803f 0000 803f 0000 803f
000003b0: 0000 803f 0000 803f 0000 803f 0000 803f
000003c0: 0000 803f 0000 803f 0000 803f 0000 803f
000003d0: 0000 803f 0000 803f 0000 803f 0000 803f
000003e0: 0000 803f 0000 803f 0000 803f 0000 803f
000003f0: 0000 803f 0000 803f 0000 803f 0000 803f

Lowerlayer2.weight f4 [99, 99]
0.043129273 -0.033371367 0.06377296 -0.045246188 0.07225161 0.057423793 0.0034338338 -0.06824596
0.07271533 0.044020593 -0.0330967 -0.029618358 -0.0068760547 0.07145552 0.009051526 0.034241185
0.03762294 -0.09663172 0.07552087 -0.044364136 0.088724494 -0.056452602 0.03222632 -0.0018842614
0.039139226 0.060268447 -0.049006023 0.0795379 0.049512137 0.031219378 0.049333222 -0.0007988321
0.066392034 0.017676612 0.08844436 0.049556155 -0.03365044 0.037894785 0.08688888 -0.03137471
-0.04733209 -0.06404746 0.039889596 0.04361477 0.07027977 0.022355007 -0.010098916 0.04367845
-0.028484154 -0.0951335 -0.005944401 -0.081330396 -0.012394125 -0.052438192 0.09453095 -0.0376391
-0.08331586 -0.07905179 0.051130682 -0.050977997 0.04157932 0.07453574 -0.08588806 -0.006953224
-0.05538252 0.016713593 0.036420852 0.0006368013 -0.015944041 -0.033580266 -0.021803606 -0.099668935
0.064101964 0.0628403 -0.0066177924 -0.003775268 0.07369247 -0.04082282 0.006672737 0.09944261
0.051874835 0.0063235154 -0.039525326 -0.03157701 0.029916469 0.054585293 0.003578636 0.06391152
0.055087656 -0.03513106 0.08921541 -0.03685691 0.03316262 0.05497369 -0.07502889 0.068242416
0.046015125 0.04152809 0.072527215 -0.0027464344 -0.0010632683 -0.043196816 0.05774233 0.05988181
0.09952939 -0.07689827 0.03233421 -0.09120287 -0.021362802 0.027394412 -0.03887331 0.04370174
0.090903744 0.0007652015 -0.0854783 0.027174741 -0.042331357 -0.062388532 -0.01267164 0.009340854
-0.007173003 0.046136685 -0.059620444 -0.00073542877 0.07030867 -0.016200807 0.016365988 -0.06343347
0.09219231 0.040296532 -0.019907111 0.08822365 0.020898478 0.062072605 -0.023011241 0.078253895
0.09734003 -0.0245874 -0.048385564 -0.025560735 -0.077287145 0.06270773 -0.08586363 0.03082373
-0.009993914 0.017945992 -0.012805324 0.041691154 0.03633818 -0.094130576 -0.031935662 0.061888948
0.07099891 0.07933236 0.0735786 0.079827346 0.06950158 -0.065495215 0.046515178 0.006504572
-0.050154917 -0.056788977 -0.033776097 -0.06909666 -0.024901506 -0.045290276 -0.07639047 0.061343297
0.024721395 -0.006548027 0.09960686 0.049875185 0.097661555 0.020623587 0.012752679 -0.03168841
0.0034551 0.02942102 -0.046432797 0.07288076 -0.09004868 -0.05587527 0.08867281 -0.097662956
0.049089506 -0.09869937 -0.012131585 -0.076573156 -0.012576019 0.06423618 0.085500866 -0.056075282
-0.08416549 0.096794106 0.07788471 0.00042931462 0.024717908 0.06231886 0.016134035 -0.0021525
0.016739875 0.026983513 0.071057215 0.012252006 -0.09564057 -0.099243216 -0.055694334 0.067765
-0.010476149 -0.06599483 0.05025932 0.085833795 0.09467465 -0.015578922 -0.022850685 -0.09492132
0.0093498165 -0.008397472 -0.04544289 -0.05479388 0.018560916 0.047162533 -0.062387466 0.08837442
-0.05012434 -0.09552773 0.06661886 -0.06490407 -0.005414051 -0.07985013 0.029333917 0.09868661
-0.075375654 -0.057355728 -0.028840566 0.0013976657 -0.06227452 -0.0012994695 -0.04955457 0.024911977
0.046541378 0.017336532 -0.0305529 0.05107109 0.05533759 0.07242746 -0.07020205 -0.09633686
0.0144389905 -0.050901618 -0.013958206 0.08070901 0.09783398 -0.06961654 -0.010114155 0.09780975
00000000: 52a8 303d 6ab0 08bd 669b 823d 1154 39bd
00000010: a7f8 933d 3635 6b3d 2c0a 613b 8ac4 8bbd
00000020: c6eb 943d f04e 343d 6890 07bd 33a2 f2bc
00000030: 8750 e1bb 4657 923d da4c 143c 7c40 0c3d
00000040: 831a 1a3d dae6 c5bd b0aa 9a3d 2bb7 35bd
00000050: 30b5 b53d d83a 67bd bfff 033d 52f9 f6ba
00000060: 7450 203d 0cdc 763d 8aba 48bd c4e4 a23d
00000070: 3dcd 4a3d c8bf ff3c a211 4a3d b768 51ba
00000080: 8cf8 873d 8bce 903c 5122 b53d 65fb 4a3d
00000090: 0bd5 09bd 9037 1b3d ccf2 b13d c582 00bd
000000a0: 4bdf 41bd 512b 83bd 4663 233d 67a5 323d
000000b0: d7ee 8f3d d921 b73c ec75 25bc 2de8 323d
000000c0: 9a57 e9bc 5ad5 c2bd 40c9 c2bb 8d90 a6bd
000000d0: ba10 4bbc 6ec9 56bd 7199 c13d 752b 1abd
000000e0: 81a1 aabd e8e5 a1bd 686e 513d 4ece 50bd
000000f0: 144f 2a3d 32a6 983d 14e6 afbd dfd7 e3bb
00000100: c8d8 62bd f2ea 883c 082e 153d 03ef 263a
00000110: 149d 82bc 768b 09bd 7a9d b2bc 3a1f ccbd
00000120: e447 833d 6ab2 803d 11da d8bb 7d6a 77bb
00000130: 14ec 963d d435 27bd faa6 da3b 91a8 cb3d
00000140: b57a 543d 7e35 cf3b 4fe5 21bd e556 01bd
00000150: 6213 f53c d494 5f3d 8d87 6a3b 0be4 823d
00000160: 98a3 613d 96e5 0fbd 92b6 b63d 45f7 16bd
00000170: 87d5 073d 182c 613d bfa8 99bd aec2 8b3d
00000180: 5b7a 3c3d 5c19 2a3d 2689 943d 86fd 33bb
00000190: 5d5d 8bba 25ef 30bd 3983 6c3d a146 753d
000001a0: 11d6 cb3d d77c 9dbd e070 043d 92c8 babd
000001b0: 0b01 afbc 3f6a e03c 9f39 1fbd 9900 333d
000001c0: be2b ba3d ce97 483a 3f0f afbd 909d de3c
000001d0: a563 2dbd 1e8b 7fbd b69c 4fbc 620a 193c
000001e0: 830b ebbb d2f9 3c3d 9134 74bd cac9 40ba
000001f0: fefd 8f3d 8eb7 84bc f711 863c 68e9 81bd
00000200: 52cf bc3d fa0d 253d 3d14 a3bc 9aae b43d
00000210: 4933 ab3c d83f 7e3d 1282 bcbc 9443 a03d
00000220: 365a c73d 846b c9bc f12f 46bd bf64 d1bc
00000230: b948 9ebd e96c 803d 45d9 afbd 0c82 fc3c
00000240: 83bd 23bc 7903 933c 6ccd 51bc 58c4 2a3d
00000250: 58d7 143d 88c7 c0bd f8ce 02bd 447f 7d3d
00000260: e067 913d 0179 a23d 61b0 963d 857c a33d
00000270: d856 8e3d 5b22 86bd b386 3e3d 4e24 d53b
00000280: 3e6f 4dbd 8f9b 68bd ce58 0abd 8d82 8dbd
00000290: 3efe cbbc 4c82 39bd 9b72 9cbd 1c43 7b3d
000002a0: 8684 ca3c d590 d6bb aefe cb3d ec49 4c3d
000002b0: c802 c83d ccf2 a83c 9df0 503c b5cb 01bd
000002c0: f66e 623b 5a04 f13c 5130 3ebd 8242 953d
000002d0: 716b b8bd 78dd 64bd 179a b53d 8403 c8bd
000002e0: 1412 493d e522 cabd 8ec3 46bc 63d2 9cbd
000002f0: a60b 4ebc 428e 833d 141b af3d 32af 65bd
00000300: f55e acbd fd3b c63d 0582 9f3d a215 e139
00000310: 367d ca3c 1042 7f3d 862b 843c f510 0dbb
00000320: 1022 893c 870c dd3c 7286 913d a3bc 483c
00000330: 34df c3bd 0740 cbbd be1f 64bd 60c8 8a3d
00000340: 27a4 2bbc 4c28 87bd b7dc 4d3d a1c9 af3d
00000350: c8e4 c13d bc3e 7fbc 5c31 bbbc 1c66 c2bd
00000360: f92f 193c 8d95 09bc 5322 3abd 8c6f 60bd
00000370: 100d 983c 802d 413d 008a 7fbd a6fd b43d
00000380: 2e4f 4dbd 0ba4 c3bd 786f 883d 6dec 84bd
00000390: 5a68 b1bb 7788 a3bd af4d f03c 351c ca3d
000003a0: 8d5e 9abd d7ed 6abd 0d43 ecbc e131 b73a
000003b0: 9113 7fbd f652 aaba bcf9 4abd 3414 cc3c
000003c0: 2ca2 3e3d 5805 8e3c 134a fabc eb2f 513d
000003d0: aba9 623d d954 943d 18c6 8fbd 424c c5bd
000003e0: 8491 6c3c 377e 50bd f6b0 64bc c44a a53d
000003f0: 2f5d c83d 1e93 8ebd d7b5 25bc 7a50 c83d

Lowerlayer2.bias f4 [99]
0.13364829 0.16367598 -0.03647792 0.0047609983 -0.064659834 -0.120518506 -0.027139999 0.1079159
-0.089380935 -0.11265842 -0.0057158615 -0.023494905 -0.0054384433 -0.1114632 0.034432497 0.100730345
0.071049325 -0.05985561 -0.039300982 0.032076523 0.05304854 0.008495189 -0.010366082 0.042884298
-0.009238038 0.032488298 0.02939992 -0.09058588 -0.10658294 -0.06950836 -0.04135134 0.029195992
0.07222392 0.024044055 0.047652412 -0.036807016 -0.057968993 0.0025156196 0.046613574 0.07741362
0.0708914 0.07771248 0.049028803 -0.057198323 -0.044927835 -0.08968179 -0.096081 -0.049449187
-0.05906459 -0.08381065 -0.03717401 -0.104824714 -0.01634359 -0.1203159 -0.037167676 -0.018524494
0.020235566 0.011554395 -0.09145984 0.06267771 -0.052124083 -0.057737112 -0.07430938 -0.07596376
-0.082836516 -0.08382799 -0.038425878 -0.014974904 -0.0482386 -0.10667394 -0.078413665 0.05350917
0.07924273 0.027986608 -0.03240407 -0.040912487 0.039113875 -0.10084521 0.07992644 0.092684485
-0.06879983 0.011807308 0.03219578 -0.08387018 -0.031899307 -0.019217601 0.04211343 -0.102643624
-0.086515434 -0.07552409 -0.00048107473 0.04461018 0.035060987 -0.05463867 0.020285388 -0.04043648
0.064468816 -0.01147282 0.0064320345
00000000: 19db 083e ad9a 273e df69 15bd 2602 9c3b
00000010: 606c 84bd 68d2 f6bd b454 debc 0303 dd3d
00000020: 5a0d b7bd 75b9 e6bd 1f4c bbbb 6378 c0bc
00000030: f834 b2bb d146 e4bd 1709 0d3d b64b ce3d
00000040: 4f82 913d 282b 75bd 11fa 20bd ac62 033d
00000050: 6d49 593d 682f 0b3c 80d6 29bc 72a7 2f3d
00000060: 245b 17bc 7312 053d 1ad8 f03c 1785 b9bd
00000070: 2848 dabd 665a 8ebd 0660 29bd 6f2c ef3c
00000080: 22ea 933d 0af8 c43c 2d2f 433d f4c2 16bd
00000090: e570 6dbd 18dd 243b e0ed 3e3d 088b 9e3d
000000a0: 832f 913d b927 9f3d 6dd2 483d ca48 6abd
000000b0: 4006 38bd 16ab b7bd 1ec6 c4bd 3b8b 4abd
000000c0: b6ed 71bd eba4 abbd c643 18bd 57ae d6bd
000000d0: fee2 85bc 2f68 f6bd 223d 18bd aec0 97bc
000000e0: 0fc5 a53c a54e 3d3c 4c4f bbbd 2c5d 803d
000000f0: 1080 55bd c07d 6cbd 842f 98bd e392 9bbd
00000100: 31a6 a9bd 02ae abbd 7464 1dbd 4d59 75bc
00000110: d795 45bd de77 dabd 5897 a0bd 6e2c 5b3d
00000120: 034a a23d 2c44 e53c 21ba 04bd da93 27bd
00000130: df35 203d ef87 cebd 79b0 a33d 5dd1 bd3d
00000140: ede6 8cbd 7073 413c b9df 033d 21c4 abbd
00000150: d9a8 02bd 3b6e 9dbc 227f 2c3d d236 d2bd
00000160: 012f b1bd 60ac 9abd c238 fcb9 2ab9 363d
00000170: 1c9c 0f3d cccc 5fbd 8b2d a63c b9a0 25bd
00000180: 3a08 843d 7ff8 3bbc d1c3 d23b
