shared/weights/model_weights_for_layer_size_99_for_dense_True.pth (torch, 41538 bytes, 2 tensors)

layer.weight f4 [99, 99]
000000 a7 41 22 3d 41 8c 9e bd 96 51 a3 bc c3 a1 76 3d
       0.039613392 -0.07741595 -0.019936364 0.06021286
000010 ac 6e 89 3c 38 58 10 bc 14 7f 38 ba 99 e4 c1 bb
       0.016776405 -0.0088100955 -0.0007037979 -0.0059171435
000020 66 63 96 3d 61 0a 37 3d 0d dd 8e bd 54 96 b7 bc
       0.073431775 0.044687632 -0.06975756 -0.02241055
000030 98 6b f5 bc c4 6b e8 bc 2b 76 be bd cb 99 c2 3d
       -0.029958531 -0.0283717 -0.092998825 0.0950199
000040 ef 24 2b 3d 89 62 9e bd 47 d2 b7 3d be 9c e5 3c
       0.04178327 -0.07733638 0.08975654 0.028028842
000050 a2 d6 98 bd 59 cc 84 3d 36 35 72 3d e6 64 fa bc
       -0.07462813 0.06484289 0.059132777 -0.03056569
000060 fc 52 81 3c 6e a1 62 bc 0f f3 73 bd bb 7a 1d bc
       0.01578664 -0.013832433 -0.05955797 -0.009611781
000070 b1 75 13 bd 57 d7 48 3d 92 27 93 bd 91 8c e2 3b
       -0.03600091 0.04903349 -0.07185282 0.0069137295
000080 51 2d 6e bc 58 9a b2 3c 5d ac c3 3c 2b 7b 88 3d
       -0.014537171 0.021802112 0.0238859 0.066641174
000090 55 e1 a2 bc 74 f6 8c bc b8 36 df 3b 4c 2f 44 3e
       -0.019882837 -0.017207362 0.006811943 0.19158667
0000a0 fe 02 8d 3d 7f 2e 70 3d 93 04 1d bc 65 3a 29 3d
       0.06885336 0.058638092 -0.00958361 0.041315455
0000b0 28 4b af bd b5 75 4c 3d d7 e8 6c bd ed 6f 0c bd
       -0.08559257 0.04991694 -0.05783924 -0.03428643
0000c0 26 45 92 bd d4 85 f4 bd 7c 47 14 3c b6 70 60 bd
       -0.07142095 -0.11939588 0.009050246 -0.05479499
0000d0 fb 94 74 3d 69 22 a1 bd fd 2b b0 bd fc 16 08 bd
       0.05971239 -0.07867891 -0.0860214 -0.033225045
0000e0 9a 62 0a 3d c5 26 a6 3c 41 fa 6b bd 62 1d 47 bd
       0.03378544 0.020282159 -0.057611708 -0.048612006
0000f0 6a 77 14 3c 07 49 8b 3c 8b 50 09 3d 74 9a f5 bc
       0.009061674 0.017002596 0.033524077 -0.029980876
000100 5b 0b bf 3c aa e9 78 3c cc f9 94 bc 3e f8 a8 3d
       0.023320844 0.015192429 -0.018185519 0.082504734
000110 86 5b 89 bb 02 bb 90 3c fe 95 be bd 01 3a af bb
       -0.0041918186 0.017667297 -0.093059525 -0.005347491
000120 e9 64 b9 bd b8 42 61 3d 96 88 5f 3b 99 af 8d bc
       -0.0905245 0.05499527 0.0034108511 -0.017295646
000130 be 7b f8 3b 3b 9a 8e 3d 13 01 68 3d 3d 4c b8 bd
       0.0075831106 0.06963011 0.05664165 -0.08998916
000140 43 12 2b bd ef a7 b6 bd b0 db fe bc 82 02 b4 bd
       -0.041765463 -0.089187495 -0.031110615 -0.08789541
000150 b3 41 00 bd 59 ca ab bd 46 53 85 3c b8 aa 90 bd
       -0.031312656 -0.08388204 0.01627506 -0.07063812
000160 91 0d a0 3d b4 bc 6a bd 2e 6e 63 3c 8d b8 98 bd
       0.078150876 -0.057308868 0.013881249 -0.07457075
000170 30 e0 a7 bd 2f df 90 3d 8c e0 bb bd 1d 0a 6b 3d
       -0.08197057 0.07073819 -0.09173688 0.05738269
000180 5c 47 5f bd 27 35 7a 3d dd 47 1d bd ef e9 98 3d
       -0.054511413 0.061085846 -0.038398612 0.07466494
000190 50 32 a4 3d 7d ca 90 bd 38 9a 73 3d 67 03 6e 3c
       0.08017409 -0.070698716 0.059473246 0.014527178
0001a0 d7 f4 89 bd 3d a6 e6 3c 13 4b 3c 3d 6d b9 62 3b
       -0.067361526 0.02815544 0.045970034 0.0034595386
0001b0 be 19 9a 3d 5a fa 83 bd 93 3d b0 bd a9 e5 62 3b
       0.07524441 -0.06444235 -0.08605494 0.0034621751
0001c0 39 28 64 bd cc 85 de bd 4c 87 2a 3c f9 90 72 bd
       -0.05570242 -0.108653635 0.010408234 -0.059220288
0001d0 85 a2 98 3d 0e a9 0e bc ac 8f 33 3d 7b 14 a3 bc
       0.07452873 -0.008707298 0.043838188 -0.019907227
0001e0 db f5 75 bd 7e fe 30 bd d9 6f a8 bd c3 97 8a 3d
       -0.06004892 -0.043211453 -0.08224458 0.067672275
0001f0 25 dd 28 3c 2c d9 a0 bd ca 49 40 3d b8 73 2d 3d
       0.010306631 -0.07853922 0.04694537 0.042346686
000200 b7 5e aa 3a e0 5b 90 3d 2c c5 50 3d 69 4b 8a 3d
       0.0012998198 0.07048774 0.050969288 0.067526646
000210 44 1d b5 3d 9c 1a c0 bb e9 0c 31 3d f9 ac 54 bd
       0.088434726 -0.005862547 0.043225203 -0.051922772
000220 5c eb 87 3c d0 f0 64 3d 0b a8 21 3e 3c cf 5b 3d
       0.01659172 0.05589372 0.1578676 0.05366443
000230 83 d4 64 3d 37 51 50 bd 82 8a 29 3d de 47 d5 bd
       0.05586673 -0.050858703 0.041391857 -0.10414098
000240 17 9a 06 3d 2a 25 53 bd 3e d9 1d bd 19 61 98 3c
       0.032861795 -0.051549114 -0.038537256 0.018600987
000250 41 60 ed bd 6b 23 86 3d 67 93 85 bd c7 7d ca bd
       -0.115906246 0.06549724 -0.065222554 -0.098872714
000260 c8 65 22 3d e7 df 17 bd 24 55 ee 3a 7d 86 01 3c
       0.039647847 -0.037078764 0.0018183333 0.0079056
000270 d7 aa ca bd c3 c0 5b bd 4c 08 3e 3d 6a a7 9d bb
       -0.09895866 -0.05365063 0.04639463 -0.004811217
000280 32 cb 28 3c 2f 60 85 bb a9 1f 42 bd 6e 41 47 3d
       0.010302352 -0.004070304 -0.047393475 0.048646383
000290 89 75 72 bb 30 a6 be bd db 86 4c 3d 9f c3 92 3d
       -0.0036996326 -0.093090415 0.049933296 0.07166218
0002a0 b2 7b e2 3b 4a b3 99 3c e3 50 d8 bd 6b 14 4f bd
       0.0069117183 0.01876225 -0.10562303 -0.05055658
0002b0 f9 a0 69 3c 3d 58 93 bd b4 c8 a1 ba f7 bf e1 3c
       0.01425957 -0.071945645 -0.0012343139 0.027557356
0002c0 f1 73 ca bd bd 9b e7 bc 83 04 1d 3d a0 6b 13 3d
       -0.09885395 -0.028272504 0.03833438 0.03599131
0002d0 59 fd 95 bd 9f 9f 01 3c cb 5b 5f 3d 4b 43 9b bd
       -0.07323713 0.007911592 0.0545309 -0.075811945
0002e0 05 aa a5 bc 7b 26 e2 3b 07 fd a5 bd 53 49 bc bd
       -0.020222673 0.00690156 -0.08104902 -0.09193673
0002f0 d1 dd a2 3c a1 99 95 bd 72 3a 68 bc a8 b2 c6 bd
       0.01988116 -0.07304693 -0.014174091 -0.09702045
000300 35 63 9d 3d 03 cb 7e bd a3 20 b9 bc 18 f2 94 bd
       0.07684938 -0.062205326 -0.02259857 -0.07272738
000310 db 25 86 3d f1 0d b5 3d cb 3c 2c bd 66 5f 68 3d
       0.06550189 0.0884055 -0.042050164 0.056731604
000320 42 85 8a bd bd e4 cb 3c b6 a7 5d 3d 86 56 54 bc
       -0.06763698 0.024889344 0.05411502 -0.012960082
000330 2f 7e 13 3d 14 03 13 bd c2 c5 88 3b 4e ec 82 bd
       0.03600901 -0.035891607 0.004173965 -0.06392728
000340 89 8f 58 bd fb 5f 6e 3d af 72 82 bd df 08 bb 39
       -0.05287126 0.058197003 -0.063695304 0.0003567403
000350 ad ca 5b 3d 2e f1 44 bc 0f f1 c8 bd 1d 8b 2f 3d
       0.053660084 -0.012020392 -0.09811603 0.04285728
000360 74 d0 bd 3c bc d1 bf bc 1c cf 58 3d 66 3d 32 bd
       0.023170687 -0.023415439 0.05293189 -0.043515585
000370 32 53 c2 bc 3f 73 87 3d a3 8b 03 3c 76 72 c8 3b
       -0.023721311 0.06613778 0.008028897 0.0061171604
000380 a7 be 1a 3d 13 cf 9d 3d c1 1d 43 bd 36 22 b2 3d
       0.037779476 0.07705512 -0.047635797 0.086979315
000390 4b 77 7a bd 11 0c ae bd c7 71 a4 bd 30 cd ca bd
       -0.061148923 -0.08498395 -0.08029514 -0.09902418
0003a0 f8 04 c5 bb 9c 1d 7a bb e1 8c c4 bc fe 1e af 3c
       -0.006012555 -0.0038164621 -0.023992958 0.021377083
0003b0 31 2f f1 bc 53 ed f1 3d 2f ee c9 bd 52 40 be bc
       -0.029441448 0.11812844 -0.09859883 -0.02322403
0003c0 dd bb a2 bc 29 32 48 3d b8 86 02 3c fe 9b bc bc
       -0.01986497 0.04887596 0.00796669 -0.023023602
0003d0 4e 8a ef 3c da 99 5d 3d 4e af bc 3d fe 6b 42 bd
       0.029240754 0.054101802 0.09213124 -0.04746627
0003e0 5b 0e 9b 3d 36 3f 83 3d f8 65 95 bd c2 dd b2 bc
       0.075710975 0.06408541 -0.072948396 -0.021834258
0003f0 b4 8b 98 3d 3d 03 0d bd 99 2f 1b 3c d7 4b b4 bd
       0.07448521 -0.034426916 0.009471797 -0.08803528

layer.bias f4 [99]
000000 22 a3 bb bc cc c0 37 3c 07 74 1f bd 94 e3 06 bd
       -0.022904936 0.0112154 -0.03892901 -0.03293188
000010 70 7c b3 3d ae ba d4 bb 06 54 cf bc 49 8c a7 bd
       0.08763969 -0.0064919805 -0.02530862 -0.08181054
000020 4c 9b 41 3c 8c 3a 22 bd 04 04 c5 bc 71 2d 48 3d
       0.011816811 -0.039606616 -0.024049766 0.04887146
000030 57 4e 38 3d 8d e3 ce 3d 21 48 ba 3a 7f be 1b ba
       0.044996586 0.101019956 0.001421217 -0.0005941167
000040 dd 0c b9 3c c6 25 10 bd 1b 67 3a 3d ab 06 72 bd
       0.022589142 -0.035192274 0.045508485 -0.05908839
000050 81 9e 85 bd 52 07 59 bd fa 32 29 bd 0b 61 b9 bc
       -0.06524373 -0.052985497 -0.04130838 -0.022629282
000060 17 f2 8a bd 32 df 0a bd 1c 31 02 3d a7 66 fb bb
       -0.06784456 -0.033904262 0.031785116 -0.007672149
000070 95 cb 88 3d 43 97 31 3d 96 50 8a 3d 61 94 ff bc
       0.06679455 0.043357145 0.06753652 -0.031198682
000080 74 19 83 3d 71 7d da 3d 11 3a 96 3d e3 59 0a bd
       0.06401339 0.10668457 0.07335294 -0.03377713
000090 49 1c e7 3d f3 99 57 bd 16 3a a9 bc c6 06 b6 3d
       0.11284692 -0.05263705 -0.02065758 0.08888011
0000a0 eb 69 5b 3d e5 fd ce 3c c0 89 97 3d 67 90 ae 3d
       0.053567808 0.02526755 0.073993206 0.08523636
0000b0 69 8e cf 3d 2a 82 07 bd ad df c7 3d 51 b9 87 3d
       0.101345845 -0.03308312 0.0975946 0.06627143
0000c0 c4 cc 38 bd 8a 99 98 bd fc b5 29 bd d3 a7 ac 3c
       -0.045117155 -0.0745116 -0.04143332 0.021076119
0000d0 69 a4 9d 3d 9d 06 14 bd 41 46 8a bd 54 5b 64 3d
       0.076973744 -0.03613912 -0.06751681 0.05575116
0000e0 21 71 4a 3d 89 c8 32 3c 3a d2 19 bd 4d de 39 bd
       0.049424294 0.010912069 -0.037554003 -0.04537802
0000f0 fc f4 97 bd 74 f3 99 bd 40 73 ae 3d 1c 98 56 bd
       -0.07419774 -0.07517138 0.08518076 -0.052391157
000100 3a a5 c0 bc 7d 44 da 3c 11 95 65 bd 82 cd 55 bd
       -0.023516286 0.026643986 -0.056050364 -0.05219794
000110 0c e5 4f 3d 1c db a9 bd a4 7d 48 3d fc 96 b4 3d
       0.050755545 -0.08293745 0.048947945 0.088178605
000120 74 de 2f bd ee 25 a8 3d 38 6a 92 3a d0 a8 93 bd
       -0.042936757 0.082103595 0.0011170572 -0.07209933
000130 4f ab 84 3d 61 ac 11 3d 96 7f 77 bd 91 9f 0e 3d
       0.06477987 0.035564784 -0.06042441 0.034820143
000140 da fc 5d bc 1c 18 ec bb 87 05 42 3d e5 58 04 bd
       -0.013549054 -0.0072050225 0.047368553 -0.03231134
000150 fb 24 a1 bc 17 38 a3 3d f4 9a 4d bc e9 d1 c7 3d
       -0.019670954 0.07969683 -0.012549151 0.09756834
000160 34 38 bd bd df 7c 77 bd 37 ef 81 bb 07 d3 aa bd
       -0.092392355 -0.06042182 -0.003965284 -0.083410315
000170 4a 83 8b bd c3 6d 33 bd b8 aa 08 3d f3 8e 80 bd
       -0.06812151 -0.04380585 0.033365935 -0.062772654
000180 7e e0 ed bd 8e 8c 05 3d 9e 0d 87 bd
       -0.11615084 0.032604747 -0.06594394
