shared/weights/model_weights_for_layer_size_49_for_dense_False.pth (torch, 160198 bytes, 16 tensors)

upper_traingular1.weight f4 [49, 49]
00000000: 9c31 cbbc d328 c63d de38 97bd f27c 06be
00000010: 1a13 873d 8e51 d3bd 9841 f0bd c742 99bd
00000020: cb41 08be 73bb 2bbd 4eeb 37bd c57e 263d
00000030: 9e2b e33d 13f4 963c 80c6 863c 70e2 a1bd
00000040: aeb8 babc 9c8f 06be 8519 46bd 9c40 14bd
00000050: dcde 3bbd 0049 143c 015a 34bd 0a07 103d
00000060: aa95 483d 8a7b e4bc 6357 00be 2c8c e63d
00000070: 5109 e13d 95fd d3bd deb0 a2bd a56e e83d
00000080: e7c3 a83d 7cee cabd a552 39bd 2580 f2bb
00000090: e315 f9bd d81e e13d ee42 abbc ca38 d0bd
000000a0: 8a67 cbbd ccc4 0f3e 85bf af3d f6ce 0cbe
000000b0: 7a18 dbbd cc54 033e a573 c5bc a5b4 eb3c
000000c0: fe18 bbbd 9c77 fb3c 5a9b a8bd 6c7a b8bd
000000d0: 57e9 9c3d f866 113e 2a88 fa3d 3771 d93d
000000e0: 4a2d d8bd f011 963d b319 893d d3ab a5bd
000000f0: 3328 583d eb3c 05be 1c8d c6bd a120 54bd
00000100: 2884 e1bd c1f4 afbd 4ae0 81bd eeee 6b3c
00000110: 37e4 8e3d 370b c73c 8a24 88bd 1d03 073e
00000120: 50c7 a83d 0c25 f5bd 252e f73b fef1 a73d
00000130: 0511 26bd ec6b b1bd 1ca7 8bbd e13d 70bd
00000140: 1169 c33d fac8 edbd 819f 3ebc 5373 663d
00000150: 87b0 b2bd be61 8abd d167 f1bd 46e6 02be
00000160: 5ce4 80bd d3db 483d 6e74 87bb b146 b23d
00000170: a531 ccbc ca14 8b3d 6c01 d2bd b366 b4bd
00000180: 93c8 c13a 0e52 82bd 651a ce3c 9c1c b8bc
00000190: 43a0 bbbd 8ef2 bebd ca22 523c 137f 953c
000001a0: 37e0 043d 01af fc3b 0d69 0abe 8eb7 a7bd
000001b0: eeb5 853c 2e47 ea3c 01c1 7ebc 4a0e 91bd
000001c0: 3cf6 2d3d e5db 9bbd 4196 65bd 07c4 11be
000001d0: 4b0f 083e dc0f b7bc a5f1 55bd 4c21 c43d
000001e0: 6a7c 9e3d d390 6dbd 810a c3bd 0166 57bd
000001f0: dcc0 9d3c 67c1 ab3d 5a07 ae3d 06d0 023e
00000200: 1171 dc3d 8c63 da3d a56f 573c bc33 193d
00000210: fc2f 98bd 1a64 923d c101 4e3d 5c91 96bd
00000220: 4f02 11be 7eef 98bd 731c 163d b3c7 183d
00000230: e503 9ebd 3792 3a3d b32d 72bd cabb af3d
00000240: 2c61 94bd 6ef5 543b b8ed 6f3b be0f 01be
00000250: 7c8c b4bd ce4f 0ebe 0cb4 e33d e4f1 01be
00000260: 7e46 d7bd 817b 703c 9339 83bc 1506 07be
00000270: a542 cfbc a0d7 a13d 7391 84bd b745 123b
00000280: 3821 ee3c 03fd e4bd dce7 e2bb dcab 9fbd
00000290: 076c a93d 33ff 41bd f301 80bd ea15 c03d
000002a0: e886 003e 1c49 c73d 5dd2 00be 019c 5fbb
000002b0: 7c60 cc3d 1875 033e 5cfe 93bc 95a2 093e
000002c0: 400a 183d 8509 f4bd ae74 bd3c fc32 53bd
000002d0: aeec fa3d 2efd bdbc 9c0a ec3d 0543 4c3d
000002e0: fd4f 023e ca5e 0dbe 7317 643d eb84 053e
000002f0: ecb7 063e d388 cc3c 4520 923d 9505 d33d
00000300: 6e50 9cbc 9107 be3d bc9a 473d ce54 dfbd
00000310: 8ab3 083d 0100 3ab8 dcf9 f23d ec8e 0e3e
00000320: 933f 113c f8e2 ef3c c3eb bfbd e385 f4bd
00000330: 4e3d 7a3d d42b 02be dc90 61bb b7d5 2cbb
00000340: 6e63 34ba 3774 1cbd dcb2 093b 01a0 bc3d
00000350: 7767 8b3d d51c fabd 3363 5a3d 81eb f73c
00000360: 1c7f fabd 3ed5 c2bd 00cc 83bd 5cfc d3bc
00000370: 5c4c c3bc 4a09 963d dc37 17bd e1ad dd3d
00000380: 6520 82bd 1b7e 05be 3c81 4abd ee61 763c
00000390: 1cec 96bd 3af4 c8bd e5a4 02bd 6176 533d
000003a0: 8050 873c fc71 aabd 01fa 743d cc35 07be
000003b0: 00fd 9dbc 026a 083e 0563 5b3d e784 8d3d
000003c0: dc76 533b 2196 b23d 374b cf3c 0c47 973d
000003d0: d374 883c 1c7e 333d ea9c 003e 6b0c 0abe
000003e0: e32a ef3d d3ff fc3c 5697 09be 41b0 2f3d
000003f0: 93ca 4f3c 4c45 e9bd da6f a53d aec6 edbc
-0.024803929 0.09675755 -0.073838934 -0.131336 0.0659544 -0.1031829 -0.11731261 -0.0748344
-0.13306348 -0.041926812 -0.04490214 0.04064824 0.11092304 0.01842693 0.016452074 -0.07904518
-0.02279314 -0.1314072 -0.04836418 -0.03619443 -0.045866832 0.009050608 -0.044031147 0.035162963
0.048970856 -0.02789094 -0.12533335 0.112572044 0.10988105 -0.10351101 -0.07943891 0.11349229
0.082404904 -0.099087685 -0.04524483 -0.00740053 -0.12162378 0.10992211 -0.020905938 -0.10167082
-0.09931858 0.14039916 0.08581451 -0.13750824 -0.10698028 0.12825316 -0.024102995 0.028772661
-0.09135626 0.030696683 -0.08232756 -0.09007725 0.076616935 0.14199436 0.122330025 0.10617297
-0.10555513 0.0732764 0.06694355 -0.080894135 0.052772712 -0.1301152 -0.09694883 -0.05178893
-0.11011535 -0.08591605 -0.06341608 0.014400227 0.06977122 0.02429734 -0.06647594 0.13184781
0.08241141 -0.11969957 0.0075433427 0.08200453 -0.040543575 -0.086631626 -0.06818983 -0.058652762
0.09541524 -0.11610599 -0.011634708 0.056262325 -0.08725076 -0.06756924 -0.117873795 -0.12783155
-0.06293556 0.049037766 -0.0041337525 0.087048896 -0.024926016 0.067910746 -0.102541775 -0.08808651
0.0014784507 -0.06363307 0.02515907 -0.02247458 -0.09161427 -0.093236074 0.012825677 0.01824907
0.03244039 0.007711292 -0.13516636 -0.08189307 0.016322102 0.028598394 -0.015548945 -0.070828035
0.042471156 -0.07610301 -0.056051496 -0.14234935 0.13287084 -0.02234643 -0.052232403 0.095766634
0.07738574 -0.057999443 -0.09523488 -0.052587513 0.019257002 0.08386498 0.08497496 0.12774667
0.10763753 0.10663518 0.013149177 0.037402853 -0.07431027 0.07147999 0.05029464 -0.07351944
-0.14161037 -0.074675545 0.036648225 0.037299823 -0.077155866 0.045549598 -0.059125613 0.0858074
-0.072450966 0.003249492 0.0036610197 -0.12603661 -0.08815858 -0.1389763 0.111183256 -0.1268993
-0.10511492 0.014677883 -0.016018664 -0.13185914 -0.025300333 0.07902455 -0.06473055 0.0022319385
0.029068574 -0.11181071 -0.0069246124 -0.077964514 0.08272558 -0.047362518 -0.06250372 0.0937918
0.12551463 0.097307414 -0.12580247 -0.0034120085 0.099793404 0.12837636 -0.018065624 0.13440926
0.03711915 -0.11915878 0.023126926 -0.051562294 0.12252174 -0.023192015 0.11525461 0.049868602
0.12725826 -0.1380569 0.055686425 0.13038985 0.13156098 0.024967587 0.07135061 0.10303799
-0.01908132 0.09278787 0.04873155 -0.10904847 0.033374347 -4.434586e-05 0.11864063 0.13921708
0.008865255 0.029283032 -0.0937114 -0.11939599 0.06109362 -0.12712032 -0.0034418618 -0.00263725
-0.0006881271 -0.03819677 0.002101115 0.09210206 0.06806844 -0.122125305 0.05331726 0.030263664
-0.122312754 -0.09513329 -0.06435394 -0.02587717 -0.023840122 0.073259905 -0.036918506 0.108241804
-0.06353835 -0.13036387 -0.049439654 0.015037997 -0.07369253 -0.098122075 -0.031895537 0.051626567
0.016517878 -0.08322522 0.059808735 -0.13204116 -0.019285679 0.13321689 0.05356123 0.06910115
0.003226689 0.08720041 0.02530442 0.07386598 0.016657269 0.04382144 0.12559858 -0.134813
0.11678102 0.030883705 -0.13436636 0.0428927 0.012682575 -0.113901705 0.080779746 -0.029025402

upper_traingular1.sparse_mask f4 [49, 49]
00000000: 0000 803f 0000 803f 0000 803f 0000 803f
00000010: 0000 803f 0000 803f 0000 803f 0000 803f
00000020: 0000 803f 0000 803f 0000 803f 0000 803f
00000030: 0000 803f 0000 803f 0000 803f 0000 803f
00000040: 0000 803f 0000 803f 0000 803f 0000 803f
00000050: 0000 803f 0000 803f 0000 803f 0000 803f
00000060: 0000 803f 0000 803f 0000 803f 0000 803f
00000070: 0000 803f 0000 803f 0000 803f 0000 803f
00000080: 0000 803f 0000 803f 0000 803f 0000 803f
00000090: 0000 803f 0000 803f 0000 803f 0000 803f
000000a0: 0000 803f 0000 803f 0000 803f 0000 803f
000000b0: 0000 803f 0000 803f 0000 803f 0000 803f
000000c0: 0000 803f 0000 0000 0000 803f 0000 803f
000000d0: 0000 803f 0000 803f 0000 803f 0000 803f
000000e0: 0000 803f 0000 803f 0000 803f 0000 803f
000000f0: 0000 803f 0000 803f 0000 803f 0000 803f
00000100: 0000 803f 0000 803f 0000 803f 0000 803f
00000110: 0000 803f 0000 803f 0000 803f 0000 803f
00000120: 0000 803f 0000 803f 0000 803f 0000 803f
00000130: 0000 803f 0000 803f 0000 803f 0000 803f
00000140: 0000 803f 0000 803f 0000 803f 0000 803f
00000150: 0000 803f 0000 803f 0000 803f 0000 803f
00000160: 0000 803f 0000 803f 0000 803f 0000 803f
00000170: 0000 803f 0000 803f 0000 803f 0000 803f
00000180: 0000 803f 0000 803f 0000 0000 0000 0000
00000190: 0000 803f 0000 803f 0000 803f 0000 803f
000001a0: 0000 803f 0000 803f 0000 803f 0000 803f
000001b0: 0000 803f 0000 803f 0000 803f 0000 803f
000001c0: 0000 803f 0000 803f 0000 803f 0000 803f
000001d0: 0000 803f 0000 803f 0000 803f 0000 803f
000001e0: 0000 803f 0000 803f 0000 803f 0000 803f
000001f0: 0000 803f 0000 803f 0000 803f 0000 803f
00000200: 0000 803f 0000 803f 0000 803f 0000 803f
00000210: 0000 803f 0000 803f 0000 803f 0000 803f
00000220: 0000 803f 0000 803f 0000 803f 0000 803f
00000230: 0000 803f 0000 803f 0000 803f 0000 803f
00000240: 0000 803f 0000 803f 0000 803f 0000 0000
00000250: 0000 0000 0000 0000 0000 803f 0000 803f
00000260: 0000 803f 0000 803f 0000 803f 0000 803f
00000270: 0000 803f 0000 803f 0000 803f 0000 803f
00000280: 0000 803f 0000 803f 0000 803f 0000 803f
00000290: 0000 803f 0000 803f 0000 803f 0000 803f
000002a0: 0000 803f 0000 803f 0000 803f 0000 803f
000002b0: 0000 803f 0000 803f 0000 803f 0000 803f
000002c0: 0000 803f 0000 803f 0000 803f 0000 803f
000002d0: 0000 803f 0000 803f 0000 803f 0000 803f
000002e0: 0000 803f 0000 803f 0000 803f 0000 803f
000002f0: 0000 803f 0000 803f 0000 803f 0000 803f
00000300: 0000 803f 0000 803f 0000 803f 0000 803f
00000310: 0000 0000 0000 0000 0000 0000 0000 0000
00000320: 0000 803f 0000 803f 0000 803f 0000 803f
00000330: 0000 803f 0000 803f 0000 803f 0000 803f
00000340: 0000 803f 0000 803f 0000 803f 0000 803f
00000350: 0000 803f 0000 803f 0000 803f 0000 803f
00000360: 0000 803f 0000 803f 0000 803f 0000 803f
00000370: 0000 803f 0000 803f 0000 803f 0000 803f
00000380: 0000 803f 0000 803f 0000 803f 0000 803f
00000390: 0000 803f 0000 803f 0000 803f 0000 803f
000003a0: 0000 803f 0000 803f 0000 803f 0000 803f
000003b0: 0000 803f 0000 803f 0000 803f 0000 803f
000003c0: 0000 803f 0000 803f 0000 803f 0000 803f
000003d0: 0000 803f 0000 0000 0000 0000 0000 0000
000003e0: 0000 0000 0000 0000 0000 803f 0000 803f
000003f0: 0000 803f 0000 803f 0000 803f 0000 803f
1.0 1.0 1.0 1.0 1.0 1.0 1.0 1.0
1.0 1.0 1.0 1.0 1.0 1.0 1.0 1.0
1.0 1.0 1.0 1.0 1.0 1.0 1.0 1.0
1.0 1.0 1.0 1.0 1.0 1.0 1.0 1.0
1.0 1.0 1.0 1.0 1.0 1.0 1.0 1.0
1.0 1.0 1.0 1.0 1.0 1.0 1.0 1.0
1.0 0.0 1.0 1.0 1.0 1.0 1.0 1.0
1.0 1.0 1.0 1.0 1.0 1.0 1.0 1.0
1.0 1.0 1.0 1.0 1.0 1.0 1.0 1.0
1.0 1.0 1.0 1.0 1.0 1.0 1.0 1.0
1.0 1.0 1.0 1.0 1.0 1.0 1.0 1.0
1.0 1.0 1.0 1.0 1.0 1.0 1.0 1.0
1.0 1.0 0.0 0.0 1.0 1.0 1.0 1.0
1.0 1.0 1.0 1.0 1.0 1.0 1.0 1.0
1.0 1.0 1.0 1.0 1.0 1.0 1.0 1.0
1.0 1.0 1.0 1.0 1.0 1.0 1.0 1.0
1.0 1.0 1.0 1.0 1.0 1.0 1.0 1.0
1.0 1.0 1.0 1.0 1.0 1.0 1.0 1.0
1.0 1.0 1.0 0.0 0.0 0.0 1.0 1.0
1.0 1.0 1.0 1.0 1.0 1.0 1.0 1.0
1.0 1.0 1.0 1.0 1.0 1.0 1.0 1.0
1.0 1.0 1.0 1.0 1.0 1.0 1.0 1.0
1.0 1.0 1.0 1.0 1.0 1.0 1.0 1.0
1.0 1.0 1.0 1.0 1.0 1.0 1.0 1.0
1.0 1.0 1.0 1.0 0.0 0.0 0.0 0.0
1.0 1.0 1.0 1.0 1.0 1.0 1.0 1.0
1.0 1.0 1.0 1.0 1.0 1.0 1.0 1.0
1.0 1.0 1.0 1.0 1.0 1.0 1.0 1.0
1.0 1.0 1.0 1.0 1.0 1.0 1.0 1.0
1.0 1.0 1.0 1.0 1.0 1.0 1.0 1.0
1.0 1.0 1.0 1.0 1.0 0.0 0.0 0.0
0.0 0.0 1.0 1.0 1.0 1.0 1.0 1.0

lower_traingular1.weight f4 [49, 49]
00000000: febd d23d 01a3 f13b 9b24 02be f7a2 823c
00000010: 457c 0dbe 015b fe3d 9edf 0a3e 8565 d43d
00000020: 9c8d ca3d 575a a13d 93ba 1b3c 0eaa 3f3d
00000030: 5197 d13d d334 3b3d dcda f73b 0517 17bd
00000040: 2e25 48bd 3e83 0d3e f75f 27bd bacb e7bd
00000050: 6507 a6bc eab9 3abd 93df d23c 639a c93d
00000060: b795 bbbc 3ef7 c23d ca97 d9bd 8ae1 d8bc
00000070: 5c98 f83c 77e2 2b3d f783 d1bd a78a a03d
00000080: e183 bc3d bc8d 61bd 3794 0e3c dc16 a13b
00000090: 25c1 703c 2aa8 f7bd dbb3 0b3e c11e af3c
000000a0: 93d0 d0bd 8cef f8bd 9828 e23d 0590 2e3d
000000b0: a552 b2bd 9cde 1bbd f5cb dcbd 60dc 15bd
000000c0: 8e2a aa3d 788d ecbd 7a73 0c3e e747 00be
000000d0: 214f c6bd fe57 ba3d e107 b1bd 5309 dc3d
000000e0: 27b9 9e3d 202e 023d e7f3 9d3d aa50 ebbd
000000f0: 2ed8 d13d 85a0 9d3d a38a c2bd b88f efbc
00000100: 1a5d 01be 60a4 a7bd e34c 883d 73da b7bd
00000110: 13a1 d5bd 4352 d63d 2009 9c3d c28a 023e
00000120: e535 e93d 7c57 103d aec2 083d 3579 bebd
00000130: 3087 0f3e d822 f03d fe35 803d 7ce0 dbbd
00000140: e5d1 0cbe d344 113e bc2e c03d 2e63 513d
00000150: e17f 383d ccde 983d a79e bc3d 8c43 f03d
00000160: 67f4 103e dcb6 10bc ac28 b23d 4a8b 68bc
00000170: 5ca3 393d a3c3 c13d 7e81 8e3d 0a79 283d
00000180: d351 653d 6586 a6bd 53d5 833c fec7 ac3d
00000190: 8393 853d 00b6 223b aaae abbd 73da 703d
000001a0: 938a cfbc 6e08 e63c 059d a43d 4aae 55bd
000001b0: 250b 11bd 65d9 a33c 752c c0bd a54f 273c
000001c0: 721d 0fbe b3f2 763d 8e0d 363d dc73 f0bb
000001d0: 5cc1 dcbc 8e13 1fbd 6246 12be fe9c 8b3d
000001e0: 8a9e 943d c065 a23d 939f 0c3e 014f 2f3d
000001f0: a8f0 f43d 4ab2 103b 5348 0ebd 1b4b 00be
00000200: d5ea 0b3e ce85 dbbd b710 dabd 6cab a0bd
00000210: 5c0f 98bc aef9 b03c 8a42 1d3d d5f3 fcbd
00000220: 57ee 01be ae9c b5bd b7f1 22bc 6c8f d83d
00000230: b7c9 403b 27ea 9bbd 1eb1 b8bd 370e 50bd
00000240: d388 ff3d 33dd 053e 01d2 cf3d 5746 4f3d
00000250: b30c 0cbe d3ed 373d 6aa5 063d 172a 51bd
00000260: c549 7abd a3e3 d9bd c5c4 86bd 6a74 c93d
00000270: 9794 44bd f719 00be 1ee6 09be bab3 e93d
00000280: 6a76 2c3d 41b8 523d ceb0 0a3e 4a99 d13b
00000290: dc64 c9bd 2384 023e 03bf b23d 68ef ebbd
000002a0: 0341 ed3d 1ca5 7bbd 1c91 a3bd bc0e f63d
000002b0: b7df 8a3d d3df 02bd 21e0 6e3d 35b4 9bbd
000002c0: 2c61 cc3d 5502 12be bc69 033e 737e 89bd
000002d0: 2e96 05bd 6573 323d 0ecb 163d 7534 d0bd
000002e0: 8a0a ff3c 4a78 b13b 4aa2 b4bc a59f 6b3c
000002f0: 00b0 8ebb b711 b1ba c57e 603d 7234 0ebe
00000300: 5ac7 e1bd 8ed1 f4bd 9f8b 093e 7707 ac3c
00000310: cee7 dd3d 2e6d c73c 2c39 983d 0cf0 e2bd
00000320: 2339 903d 71df f9bd 3709 3c3c 221b 09be
00000330: bc01 1e3d 171f 3c3d 9844 643d c0f5 a3bc
00000340: f318 573d d1f9 da3d 9c5a ba3d 15d0 0b3e
00000350: 4534 45bd a334 c53d 8c23 8d3d c0e5 91bc
00000360: 1e01 0abe 6568 c13c 05c7 993d dab5 fabd
00000370: 17e6 0d3d 5c0c c3bc 4a57 6f3c 003c aaba
00000380: 45ff 1abd ca64 5abc 5c73 093c 8ad3 5ebd
00000390: 5550 c63d 1135 ffbd 0a98 0cbd 3c7a fc3d
000003a0: 5aca af3d 73b5 523d e5c7 853d a5f5 bf3c
000003b0: ceb8 673d 6cbf c9bd 5aa6 bc3d 0094 a0ba
000003c0: f018 9cbd aac1 e73d 3cc8 08bd aa37 823d
000003d0: 0103 eebb 1807 70bd b842 77bd 25b5 bd3c
000003e0: 5847 0dbe 5c00 e6bd 6591 ad3c 017e e2bd
000003f0: 65b2 aabc dcad f3bc af46 033e 4538 d23d
0.102901444 0.007374168 -0.12709276 0.015946848 -0.13816936 0.12419701 0.13561866 0.10370926
0.09890291 0.07878559 0.009504932 0.046793036 0.102339394 0.045704674 0.007563932 -0.036887188
-0.048863582 0.13819596 -0.040863004 -0.11318155 -0.020267198 -0.045587458 0.025741374 0.098439
-0.022898538 0.09519814 -0.106246546 -0.026474733 0.030346088 0.04196402 -0.102302484 0.07838946
0.092048414 -0.05506681 0.008702329 0.004916055 0.014694487 -0.120926216 0.13642828 0.02137697
-0.101960324 -0.12155065 0.11042899 0.042617816 -0.087071694 -0.038054094 -0.10781089 -0.03658712
0.08308898 -0.115504205 0.13715926 -0.12527429 -0.096830614 0.090988144 -0.08644081 0.10743966
0.07750159 0.03178227 0.07712536 -0.11489995 0.10246311 0.07696632 -0.09499099 -0.029243335
-0.12633172 -0.08185649 0.0665529 -0.08977213 -0.10431113 0.10464909 0.07618928 0.12748244
0.11387233 0.03523968 0.033388786 -0.09300462 0.14016414 0.11725396 0.06260298 -0.10736176
-0.13751943 0.1418641 0.09383914 0.051119976 0.04504383 0.0746437 0.09209948 0.117316335
0.14155732 -0.00883266 0.08699164 -0.014193365 0.045321807 0.09461143 0.069582924 0.041131057
0.055986237 -0.081311025 0.016092932 0.08436583 0.06522276 0.0024827719 -0.08382924 0.05880208
-0.025334632 0.028080191 0.080377616 -0.052168168 -0.03541102 0.020001123 -0.093834795 0.01021186
-0.13976076 0.06029005 0.04444652 -0.0073380303 -0.02694767 -0.03883701 -0.14284661 0.06817053
0.072568014 0.079295635 0.13732748 0.042799953 0.11959964 0.0022078925 -0.034736942 -0.1252865
0.136638 -0.107188806 -0.10647719 -0.07845196 -0.018562011 0.021603432 0.038393535 -0.12351195
-0.12688576 -0.08867775 -0.009945325 0.105742306 0.0029417106 -0.076130204 -0.090181574 -0.050794806
0.12477269 0.13072662 0.10147477 0.05060419 -0.1367672 0.04490454 0.032872595 -0.05106553
-0.06110551 -0.106391214 -0.065804996 0.09836657 -0.04799327 -0.12509905 -0.13466689 0.11411233
0.042105116 0.05144525 0.13544008 0.0063964473 -0.098336905 0.12745719 0.08727839 -0.115202725
0.115846656 -0.061436757 -0.07986662 0.12014529 0.067809515 -0.031951737 0.058319215 -0.07602731
0.099794716 -0.14258702 0.12833303 -0.067135714 -0.032613926 0.04356708 0.03681474 -0.101662554
0.031132955 0.005415951 -0.022050042 0.014381324 -0.004354477 -0.0013509308 0.054808397 -0.13887194
-0.110243514 -0.11954032 0.13432167 0.020999653 0.10835229 0.024344053 0.0743278 -0.110809416
0.07042148 -0.12200821 0.011476806 -0.13389257 0.038575873 0.045928087 0.05572948 -0.020014644
0.052514028 0.1069218 0.090993136 0.13653596 -0.04814555 0.0962918 0.06891546 -0.017809749
-0.13476989 0.02360935 0.07508663 -0.12241717 0.03464326 -0.023809604 0.014608214 -0.0012987852
-0.0378411 -0.013329694 0.00838932 -0.054400958 0.09683291 -0.124612935 -0.034324683 0.12328002
0.085835174 0.051442575 0.065322675 0.023432562 0.056572728 -0.09850964 0.092114165 -0.0012251139
-0.07621944 0.11316235 -0.033394083 0.06358273 -0.0072635417 -0.058600515 -0.060366362 0.023157666
-0.13796747 -0.11230537 0.021187494 -0.110591896 -0.020837018 -0.029745989 0.12819932 0.10264639

lower_traingular1.sparse_mask f4 [49, 49]
00000000: 0000 803f 0000 0000 0000 0000 0000 0000
00000010: 0000 0000 0000 0000 0000 0000 0000 0000
00000020: 0000 0000 0000 0000 0000 0000 0000 0000
00000030: 0000 0000 0000 0000 0000 0000 0000 0000
00000040: 0000 0000 0000 0000 0000 0000 0000 0000
00000050: 0000 0000 0000 0000 0000 0000 0000 0000
00000060: 0000 0000 0000 0000 0000 0000 0000 0000
00000070: 0000 0000 0000 0000 0000 0000 0000 0000
00000080: 0000 0000 0000 0000 0000 0000 0000 0000
00000090: 0000 0000 0000 0000 0000 0000 0000 0000
000000a0: 0000 0000 0000 0000 0000 0000 0000 0000
000000b0: 0000 0000 0000 0000 0000 0000 0000 0000
000000c0: 0000 0000 0000 803f 0000 803f 0000 0000
000000d0: 0000 0000 0000 0000 0000 0000 0000 0000
000000e0: 0000 0000 0000 0000 0000 0000 0000 0000
000000f0: 0000 0000 0000 0000 0000 0000 0000 0000
00000100: 0000 0000 0000 0000 0000 0000 0000 0000
00000110: 0000 0000 0000 0000 0000 0000 0000 0000
00000120: 0000 0000 0000 0000 0000 0000 0000 0000
00000130: 0000 0000 0000 0000 0000 0000 0000 0000
00000140: 0000 0000 0000 0000 0000 0000 0000 0000
00000150: 0000 0000 0000 0000 0000 0000 0000 0000
00000160: 0000 0000 0000 0000 0000 0000 0000 0000
00000170: 0000 0000 0000 0000 0000 0000 0000 0000
00000180: 0000 0000 0000 0000 0000 803f 0000 803f
00000190: 0000 803f 0000 0000 0000 0000 0000 0000
000001a0: 0000 0000 0000 0000 0000 0000 0000 0000
000001b0: 0000 0000 0000 0000 0000 0000 0000 0000
000001c0: 0000 0000 0000 0000 0000 0000 0000 0000
000001d0: 0000 0000 0000 0000 0000 0000 0000 0000
000001e0: 0000 0000 0000 0000 0000 0000 0000 0000
000001f0: 0000 0000 0000 0000 0000 0000 0000 0000
00000200: 0000 0000 0000 0000 0000 0000 0000 0000
00000210: 0000 0000 0000 0000 0000 0000 0000 0000
00000220: 0000 0000 0000 0000 0000 0000 0000 0000
00000230: 0000 0000 0000 0000 0000 0000 0000 0000
00000240: 0000 0000 0000 0000 0000 0000 0000 803f
00000250: 0000 803f 0000 803f 0000 803f 0000 0000
00000260: 0000 0000 0000 0000 0000 0000 0000 0000
00000270: 0000 0000 0000 0000 0000 0000 0000 0000
00000280: 0000 0000 0000 0000 0000 0000 0000 0000
00000290: 0000 0000 0000 0000 0000 0000 0000 0000
000002a0: 0000 0000 0000 0000 0000 0000 0000 0000
000002b0: 0000 0000 0000 0000 0000 0000 0000 0000
000002c0: 0000 0000 0000 0000 0000 0000 0000 0000
000002d0: 0000 0000 0000 0000 0000 0000 0000 0000
000002e0: 0000 0000 0000 0000 0000 0000 0000 0000
000002f0: 0000 0000 0000 0000 0000 0000 0000 0000
00000300: 0000 0000 0000 0000 0000 0000 0000 0000
00000310: 0000 803f 0000 803f 0000 803f 0000 803f
00000320: 0000 803f 0000 0000 0000 0000 0000 0000
00000330: 0000 0000 0000 0000 0000 0000 0000 0000
00000340: 0000 0000 0000 0000 0000 0000 0000 0000
00000350: 0000 0000 0000 0000 0000 0000 0000 0000
00000360: 0000 0000 0000 0000 0000 0000 0000 0000
00000370: 0000 0000 0000 0000 0000 0000 0000 0000
00000380: 0000 0000 0000 0000 0000 0000 0000 0000
00000390: 0000 0000 0000 0000 0000 0000 0000 0000
000003a0: 0000 0000 0000 0000 0000 0000 0000 0000
000003b0: 0000 0000 0000 0000 0000 0000 0000 0000
000003c0: 0000 0000 0000 0000 0000 0000 0000 0000
000003d0: 0000 0000 0000 803f 0000 803f 0000 803f
000003e0: 0000 803f 0000 803f 0000 803f 0000 0000
000003f0: 0000 0000 0000 0000 0000 0000 0000 0000
1.0 0.0 0.0 0.0 0.0 0.0 0.0 0.0
0.0 0.0 0.0 0.0 0.0 0.0 0.0 0.0
0.0 0.0 0.0 0.0 0.0 0.0 0.0 0.0
0.0 0.0 0.0 0.0 0.0 0.0 0.0 0.0
0.0 0.0 0.0 0.0 0.0 0.0 0.0 0.0
0.0 0.0 0.0 0.0 0.0 0.0 0.0 0.0
0.0 1.0 1.0 0.0 0.0 0.0 0.0 0.0
0.0 0.0 0.0 0.0 0.0 0.0 0.0 0.0
0.0 0.0 0.0 0.0 0.0 0.0 0.0 0.0
0.0 0.0 0.0 0.0 0.0 0.0 0.0 0.0
0.0 0.0 0.0 0.0 0.0 0.0 0.0 0.0
0.0 0.0 0.0 0.0 0.0 0.0 0.0 0.0
0.0 0.0 1.0 1.0 1.0 0.0 0.0 0.0
0.0 0.0 0.0 0.0 0.0 0.0 0.0 0.0
0.0 0.0 0.0 0.0 0.0 0.0 0.0 0.0
0.0 0.0 0.0 0.0 0.0 0.0 0.0 0.0
0.0 0.0 0.0 0.0 0.0 0.0 0.0 0.0
0.0 0.0 0.0 0.0 0.0 0.0 0.0 0.0
0.0 0.0 0.0 1.0 1.0 1.0 1.0 0.0
0.0 0.0 0.0 0.0 0.0 0.0 0.0 0.0
0.0 0.0 0.0 0.0 0.0 0.0 0.0 0.0
0.0 0.0 0.0 0.0 0.0 0.0 0.0 0.0
0.0 0.0 0.0 0.0 0.0 0.0 0.0 0.0
0.0 0.0 0.0 0.0 0.0 0.0 0.0 0.0
0.0 0.0 0.0 0.0 1.0 1.0 1.0 1.0
1.0 0.0 0.0 0.0 0.0 0.0 0.0 0.0
0.0 0.0 0.0 0.0 0.0 0.0 0.0 0.0
0.0 0.0 0.0 0.0 0.0 0.0 0.0 0.0
0.0 0.0 0.0 0.0 0.0 0.0 0.0 0.0
0.0 0.0 0.0 0.0 0.0 0.0 0.0 0.0
0.0 0.0 0.0 0.0 0.0 1.0 1.0 1.0
1.0 1.0 1.0 0.0 0.0 0.0 0.0 0.0

upper_traingular2.weight f4 [49, 49]
00000000: f7fb 8a3c 4529 8a3d a147 563d 6e27 bd3d
00000010: 4a77 f6bc 0a15 d7bd da1e e2bd 6eed 193b
00000020: 1c5f 2a3d 75f1 bbbd 4e64 35bd 1a96 e23d
00000030: c329 8b3d a591 c73d 379e 8fbc 7a1e 113e
00000040: b83c e53d dc91 04bc a511 7a3d 932a e9bb
00000050: 0199 44bc 0833 09be 22a3 083e b741 a2bd
00000060: 9344 8b3a d72b d13d 053b 5d3d b84b ff3d
00000070: 4af9 8a3d 4ac0 2f3d ca77 8a3d aed1 74bd
00000080: 5c97 a43d fc0b 9ebd fc79 803d 81f5 e6bd
00000090: 6e2b 33ba 8594 343d 0ac4 0f3d d116 f33d
000000a0: 13ab 23bd c327 983d 8a75 223d 2f71 0f3e
000000b0: 786b 5cbd ec03 ddbd a063 073d d396 e23c
000000c0: 5844 03be 5e59 e1bd b3fb 0f3d 935c 75bd
000000d0: b0bb 9c3d 60bf 1f3d a5c4 01be 6e22 41bc
000000e0: 930a 09bc 25cc 35bc 8c5e 0b3e c51c da3d
000000f0: 80cd 11bd cac4 fcbd c580 8a3d 539e 9ebd
00000100: c53d 0f3d 93e2 3fbd 9b9a 003e 4a52 783b
00000110: 6e86 363c 1e76 a63d 4e5e 38bd 3c9e 443d
00000120: dc70 09bb c8fe e33d b783 90bc 8167 63bd
00000130: acc1 a53d 704c a6bd 2ac5 c2bd c524 7f3d
00000140: e172 f6bd 837c 9c3d 3761 06bc ca0d f83c
00000150: 1c1d 8cbd d775 85bd 3157 f2bd fa39 9a3d
00000160: d862 edbd 57f2 2f3d 8aa0 01be dc3f a5bb
00000170: 8534 18bd 97e9 d7bd 98b0 0d3e bcd6 d1bd
00000180: 3a94 0d3e c5ae 873d 257f 13bc 7ae5 86bd
00000190: 660a 0d3e 6593 2f3d b38a 573d b7d9 20bc
000001a0: 9ae2 a83d e750 92bd aaca 0ebd 316b b5bd
000001b0: 65cb bbbc 9301 a8bc c5bf 393d 523d 0a3e
000001c0: c5c8 15bd 3c1c da3d e10c 413d 5aec f33d
000001d0: dac6 b9bd 80ae 8d3c 6eb3 5abc f066 09be
000001e0: c1d3 fabc 2c6b c2bd 35a9 8fbd 0442 033e
000001f0: 53d3 bf3c 259d 9fbb a00f 03bd 2531 d83b
00000200: 407f 03bd f588 b9bd 5a7f aebd e567 11be
00000210: 57c0 363d 25b7 283d b8c9 083e ee96 a6bc
00000220: ea39 5dbd 9580 f03d 50aa 9a3d 4efd 5ebd
00000230: d7af 103d 15b8 0c3e 4c09 f4bd eeb0 583d
00000240: 0038 073e 3ead d9bd b36e 93bd bcbd 9f3d
00000250: 6ab7 01be 57ca a8bd 85dd 4a3d 0aee 63bd
00000260: 3c2f b7bd 4c7b fcbd 21e4 49bd 845a 08be
00000270: ae37 15bd 9343 053e 732f ae3d d89f 7c3d
00000280: 7201 0f3e c742 c83d 93c8 743c 21ca afbd
00000290: 7ad6 ccbd 1721 1a3d 8a61 db3c 9d52 05be
000002a0: 81e7 7b3d f779 353d 01d7 2a3d b31a 27bd
000002b0: b7fa bb3d d8ac ea3d 35c5 0dbe 4189 ed3d
000002c0: 93ee 6e3d 6eb2 c73c 6e7a 1abd ea82 f6bd
000002d0: 258f 493d 6a63 c63d 75bc a7bd 253b f33d
000002e0: c5e5 8d3d 7cdc 513d 26db 10be cacc 9c3c
000002f0: 71fb d1bd 34b1 08be dc63 df3d 25cb 43bd
00000300: 018c c2bd fc97 5c3d b186 e4bd 5cd3 62bd
00000310: 66e5 043e 3c6a 03be 6573 243d ae6d f13d
00000320: 253e 7b3c 25eb 4bbb 380b 74bd b552 efbd
00000330: fd38 113e e1f4 34bd 7370 fd3d 251e 393d
00000340: 8c20 a23d 21af 533d 1c56 923c 5c7b 5f3d
00000350: d7f7 c33d fb0f 0e3e 1c89 56bd f395 2c3d
00000360: 9061 0e3e c374 953d 8155 ebbd 65bb 0e3d
00000370: 2595 4c3b 1892 fcbd ca2b 0d3c c0b9 17bd
00000380: aeaa 403d 0564 463d 5ca9 6cbd ca33 363d
00000390: ecf9 8cbd 774f 983c 6f89 003e a1b6 e23d
000003a0: b706 a4bb c5cf 5e3d 4a7c 65bc a54f febc
000003b0: 8048 8abc 5535 bdbd dc0b ec3b 1011 a33d
000003c0: a5a2 43bc a570 0a3e 9343 8ebc 83e1 af3d
000003d0: cae4 a0bd b3cb 89bd c1b0 52bd 2a5d debd
000003e0: 00a7 07bc 2e3b 853c eed7 30bc 8e9b 9f3d
000003f0: d54a e53d 8ea3 893d dd84 03be 9325 2f3c
0.01696585 0.06746153 0.052314404 0.09236036 -0.030086178 -0.1050206 -0.11041041 0.0023487466
0.04159461 -0.09176914 -0.04428511 0.11063786 0.06795075 0.09744576 -0.017531497 0.14171782
0.11193222 -0.008091416 0.061051983 -0.007115671 -0.01199937 -0.13398373 0.1334348 -0.0792269
0.0010625295 0.1021344 0.054011364 0.12465614 0.06785829 0.04290799 0.06761129 -0.05977028
0.08036682 -0.077171296 0.06273267 -0.11277295 -0.00068347796 0.04408695 0.035099067 0.11869586
-0.03995807 0.07429459 0.039662875 0.1400802 -0.053813428 -0.10791764 0.033053994 0.02765981
-0.1281904 -0.110033736 0.03515215 -0.05990274 0.07652986 0.03900087 -0.1267267 -0.011787994
-0.0083643375 -0.011096035 0.13610286 0.106500186 -0.03559637 -0.12342222 0.06762842 -0.07745042
0.034971017 -0.046846937 0.12558977 0.0037890845 0.011140449 0.08127998 -0.04501181 0.048002467
-0.002097181 0.1113258 -0.017640932 -0.05551863 0.080935806 -0.08120048 -0.09510262 0.062290926
-0.1203363 0.07640936 -0.008201889 0.030280013 -0.0684149 -0.06516617 -0.11833037 0.075305894
-0.115911186 0.042955723 -0.12658897 -0.005043013 -0.03715946 -0.105426006 0.13836896 -0.102460355
0.13826075 0.066251315 -0.009002482 -0.06586738 0.13773498 0.042865176 0.05262251 -0.009817532
0.08246346 -0.07144337 -0.034861244 -0.08858336 -0.022924135 -0.020508563 0.0453489 0.13499954
-0.036568422 0.106499165 0.047131423 0.11910315 -0.09071131 0.017295122 -0.013348443 -0.13418174
-0.03061855 -0.09493098 -0.070146956 0.12818152 0.023416197 -0.004871028 -0.031997323 0.0065976554
-0.032103777 -0.090593256 -0.08520384 -0.14199789 0.044617023 0.041190285 0.133582 -0.02033564
-0.05401031 0.11743275 0.07552016 -0.05444079 0.035323944 0.13742097 -0.11915836 0.05290311
0.13204956 -0.106287464 -0.071988486 0.07799861 -0.12667623 -0.08241718 0.049527664 -0.055646934
-0.08944556 -0.123282045 -0.049289826 -0.13315779 -0.036430053 0.13014059 0.08505144 0.061675876
0.13965395 0.09778362 0.014940399 -0.08583475 -0.10001846 0.037629213 0.026779909 -0.13019796
0.061500076 0.044305768 0.04170895 -0.040796947 0.091786794 0.114587486 -0.1384476 0.11598445
0.05833299 0.024377074 -0.037714414 -0.120366886 0.04920878 0.096869305 -0.08190242 0.11876515
0.06928591 0.05123566 -0.14146098 0.01914062 -0.10253037 -0.13348848 0.109077185 -0.047801156
-0.0949936 0.05385588 -0.11158503 -0.05537735 0.12978134 -0.12833494 0.04014911 0.11788498
0.015334641 -0.00311155 -0.05958101 -0.11685697 0.14181896 -0.044178847 0.123749636 0.045194764
0.07916364 0.051680688 0.017863326 0.054561004 0.09568756 0.13873284 -0.05237685 0.04213519
0.13904405 0.07297661 -0.11490918 0.034846682 0.0031216827 -0.12332553 0.008616397 -0.03704238
0.047037773 0.04843523 -0.0577787 0.044482984 -0.06883606 0.01859258 0.12552427 0.1106999
-0.0050056833 0.054397363 -0.014006684 -0.031043837 -0.016880274 -0.09238688 0.007203562 0.07962239
-0.011940633 0.13519533 -0.017366206 0.08587935 -0.07856138 -0.06728306 -0.051438097 -0.108576134
-0.008279562 0.01626357 -0.010793669 0.077933416 0.11195914 0.06720649 -0.12843652 0.010690111

upper_traingular2.sparse_mask f4 [49, 49]
00000000: 0000 803f 0000 803f 0000 803f 0000 803f
00000010: 0000 803f 0000 803f 0000 803f 0000 803f
00000020: 0000 803f 0000 803f 0000 803f 0000 803f
00000030: 0000 803f 0000 803f 0000 803f 0000 803f
00000040: 0000 803f 0000 803f 0000 803f 0000 803f
00000050: 0000 803f 0000 803f 0000 803f 0000 803f
00000060: 0000 803f 0000 803f 0000 803f 0000 803f
00000070: 0000 803f 0000 803f 0000 803f 0000 803f
00000080: 0000 803f 0000 803f 0000 803f 0000 803f
00000090: 0000 803f 0000 803f 0000 803f 0000 803f
000000a0: 0000 803f 0000 803f 0000 803f 0000 803f
000000b0: 0000 803f 0000 803f 0000 803f 0000 803f
000000c0: 0000 803f 0000 0000 0000 803f 0000 803f
000000d0: 0000 803f 0000 803f 0000 803f 0000 803f
000000e0: 0000 803f 0000 803f 0000 803f 0000 803f
000000f0: 0000 803f 0000 803f 0000 803f 0000 803f
00000100: 0000 803f 0000 803f 0000 803f 0000 803f
00000110: 0000 803f 0000 803f 0000 803f 0000 803f
00000120: 0000 803f 0000 803f 0000 803f 0000 803f
00000130: 0000 803f 0000 803f 0000 803f 0000 803f
00000140: 0000 803f 0000 803f 0000 803f 0000 803f
00000150: 0000 803f 0000 803f 0000 803f 0000 803f
00000160: 0000 803f 0000 803f 0000 803f 0000 803f
00000170: 0000 803f 0000 803f 0000 803f 0000 803f
00000180: 0000 803f 0000 803f 0000 0000 0000 0000
00000190: 0000 803f 0000 803f 0000 803f 0000 803f
000001a0: 0000 803f 0000 803f 0000 803f 0000 803f
000001b0: 0000 803f 0000 803f 0000 803f 0000 803f
000001c0: 0000 803f 0000 803f 0000 803f 0000 803f
000001d0: 0000 803f 0000 803f 0000 803f 0000 803f
000001e0: 0000 803f 0000 803f 0000 803f 0000 803f
000001f0: 0000 803f 0000 803f 0000 803f 0000 803f
00000200: 0000 803f 0000 803f 0000 803f 0000 803f
00000210: 0000 803f 0000 803f 0000 803f 0000 803f
00000220: 0000 803f 0000 803f 0000 803f 0000 803f
00000230: 0000 803f 0000 803f 0000 803f 0000 803f
00000240: 0000 803f 0000 803f 0000 803f 0000 0000
00000250: 0000 0000 0000 0000 0000 803f 0000 803f
00000260: 0000 803f 0000 803f 0000 803f 0000 803f
00000270: 0000 803f 0000 803f 0000 803f 0000 803f
00000280: 0000 803f 0000 803f 0000 803f 0000 803f
00000290: 0000 803f 0000 803f 0000 803f 0000 803f
000002a0: 0000 803f 0000 803f 0000 803f 0000 803f
000002b0: 0000 803f 0000 803f 0000 803f 0000 803f
000002c0: 0000 803f 0000 803f 0000 803f 0000 803f
000002d0: 0000 803f 0000 803f 0000 803f 0000 803f
000002e0: 0000 803f 0000 803f 0000 803f 0000 803f
000002f0: 0000 803f 0000 803f 0000 803f 0000 803f
00000300: 0000 803f 0000 803f 0000 803f 0000 803f
00000310: 0000 0000 0000 0000 0000 0000 0000 0000
00000320: 0000 803f 0000 803f 0000 803f 0000 803f
00000330: 0000 803f 0000 803f 0000 803f 0000 803f
00000340: 0000 803f 0000 803f 0000 803f 0000 803f
00000350: 0000 803f 0000 803f 0000 803f 0000 803f
00000360: 0000 803f 0000 803f 0000 803f 0000 803f
00000370: 0000 803f 0000 803f 0000 803f 0000 803f
00000380: 0000 803f 0000 803f 0000 803f 0000 803f
00000390: 0000 803f 0000 803f 0000 803f 0000 803f
000003a0: 0000 803f 0000 803f 0000 803f 0000 803f
000003b0: 0000 803f 0000 803f 0000 803f 0000 803f
000003c0: 0000 803f 0000 803f 0000 803f 0000 803f
000003d0: 0000 803f 0000 0000 0000 0000 0000 0000
000003e0: 0000 0000 0000 0000 0000 803f 0000 803f
000003f0: 0000 803f 0000 803f 0000 803f 0000 803f
1.0 1.0 1.0 1.0 1.0 1.0 1.0 1.0
1.0 1.0 1.0 1.0 1.0 1.0 1.0 1.0
1.0 1.0 1.0 1.0 1.0 1.0 1.0 1.0
1.0 1.0 1.0 1.0 1.0 1.0 1.0 1.0
1.0 1.0 1.0 1.0 1.0 1.0 1.0 1.0
1.0 1.0 1.0 1.0 1.0 1.0 1.0 1.0
1.0 0.0 1.0 1.0 1.0 1.0 1.0 1.0
1.0 1.0 1.0 1.0 1.0 1.0 1.0 1.0
1.0 1.0 1.0 1.0 1.0 1.0 1.0 1.0
1.0 1.0 1.0 1.0 1.0 1.0 1.0 1.0
1.0 1.0 1.0 1.0 1.0 1.0 1.0 1.0
1.0 1.0 1.0 1.0 1.0 1.0 1.0 1.0
1.0 1.0 0.0 0.0 1.0 1.0 1.0 1.0
1.0 1.0 1.0 1.0 1.0 1.0 1.0 1.0
1.0 1.0 1.0 1.0 1.0 1.0 1.0 1.0
1.0 1.0 1.0 1.0 1.0 1.0 1.0 1.0
1.0 1.0 1.0 1.0 1.0 1.0 1.0 1.0
1.0 1.0 1.0 1.0 1.0 1.0 1.0 1.0
1.0 1.0 1.0 0.0 0.0 0.0 1.0 1.0
1.0 1.0 1.0 1.0 1.0 1.0 1.0 1.0
1.0 1.0 1.0 1.0 1.0 1.0 1.0 1.0
1.0 1.0 1.0 1.0 1.0 1.0 1.0 1.0
1.0 1.0 1.0 1.0 1.0 1.0 1.0 1.0
1.0 1.0 1.0 1.0 1.0 1.0 1.0 1.0
1.0 1.0 1.0 1.0 0.0 0.0 0.0 0.0
1.0 1.0 1.0 1.0 1.0 1.0 1.0 1.0
1.0 1.0 1.0 1.0 1.0 1.0 1.0 1.0
1.0 1.0 1.0 1.0 1.0 1.0 1.0 1.0
1.0 1.0 1.0 1.0 1.0 1.0 1.0 1.0
1.0 1.0 1.0 1.0 1.0 1.0 1.0 1.0
1.0 1.0 1.0 1.0 1.0 0.0 0.0 0.0
0.0 0.0 1.0 1.0 1.0 1.0 1.0 1.0

lower_traingular2.weight f4 [49, 49]
00000000: 8e17 a3bd 2855 05be d5af bebd 4ee9 8dbd
00000010: eef8 01be b37f 823d 7da5 053e aca8 f03d
00000020: 7130 ffbd 806e 9ebc 17dc 2dbd c150 f7bd
00000030: 2d3f 013e 18be e93d 9a83 0cbe 8e53 153d
00000040: 8564 c43d c3cc 93bd dda0 053e eac2 10be
00000050: a5a6 1e3c 5385 f53c 41ab cdbc 2505 79bd
00000060: 537f 76bd 9aa3 10be 839b 8cbd 0373 09be
00000070: a85a f03d e52d 6b3d a5ad 8f3c 1c28 053d
00000080: 5c9a cc3c 0055 1dbc eebd 0c3d 0064 9b3c
00000090: 53a3 aabc 186e db3d 184a dcbd 1c0b 323d
000000a0: ee02 8dbc 0779 073e ae28 d23c 32a1 03be
000000b0: 37e9 0dbd 2cec e23d 736b ed3d 3141 b0bd
000000c0: 3c60 8f3d 0a2f a53c 8189 363c 910b bebd
000000d0: 8d8f 003e 6229 10be 775b 263d 938b eabb
000000e0: 85c8 a8bd 6e90 823d d3d4 3dbd 6e89 533c
000000f0: 4a41 15bc 0ec1 323d 0a05 933c db49 08be
00000100: 4a69 303c 41b3 35bd c56f f7bd 9c92 ed3c
00000110: fc3a 083d eebf 0b3c b5bf a2bd a3b6 8b3d
00000120: 5c86 753d f0c5 113e 4e91 f33d 5af3 06be
00000130: 2e13 063e ce9a 1e3d 6aee a33d dcc3 c73b
00000140: 5cd3 2ebd c78d 9bbd 7e2a 80bd f784 80bd
00000150: 5c1d 8cbc 17b4 163d 8e43 f1bd 458e 83bd
00000160: 3ac7 ddbd b33b 7e3d d7c7 42bd 65f7 4d3d
00000170: a5b3 0fbd 9c34 1cbd cc68 bf3d 9317 233d
00000180: db59 093e d8a0 5dbd 017f d23b 989e 5cbd
00000190: dc41 76bd 4e1b e83d 25d5 e83d eef5 a6bc
000001a0: aeca ac3c e56e 1c3d feab e53d 6507 033d
000001b0: 5029 0fbe 78be febd f5ba 97bd 45fe 10bd
000001c0: 38fb 00be 9cd2 983d 535c 0abd 5344 353d
000001d0: 6c52 ec3d 7c2c 14bd 2359 9e3d 214b 443d
000001e0: 453a ab3d 5a8f 9b3d 4ad8 ed3c aaa3 423d
000001f0: 22cd 00be 1c4a 04bd 5ea4 c53d c399 d73d
00000200: 8cf2 ef3d 53f3 a1bc d3be 493d 9ca7 cd3d
00000210: 6ac8 b4bd f349 0c3d 6753 b23d c566 0abd
00000220: 93e4 6dba 0040 92bb c126 63bd 7c5a c43d
00000230: bbaf 00be 6edb 6a37 730c 72bd cc91 8abd
00000240: cae8 a33c ac85 c83d faf9 e13d f7e9 933d
00000250: 9ee4 9abd 2197 4f3d c847 f93d c890 ecbd
00000260: 1cb0 f2bd f799 1bbd 378e 4b3d 8ab2 763d
00000270: f1fa cfbd b1be ee3d ca3f f2bc 0e6d 293d
00000280: 4a2c 05bc dcd6 613c 2c29 bb3d 933a 623c
00000290: 5cca b03d 251b 233d ca75 723c 311d d3bd
000002a0: 15c2 b0bd 13b6 b83c 6e18 ae3d 6ef3 c03d
000002b0: ac52 b83d 93f4 e3bc 65a8 b4bd 8a84 8cbd
000002c0: 6324 f8bd c16c 49bd 3ce4 6fbd aee8 47bd
000002d0: 3824 6cbd c0ed 83bc 75a2 853d 2a37 853d
000002e0: 251a 8bbc c58d ad3d a89e ddbd 1e88 983d
000002f0: dc08 593d cca2 933d f43e 03be a22e 0b3e
00000300: 400d 10bd 6a1f a1bd 33ec 72bd 2e00 ab3d
00000310: 416e 463d 8eec 13bd b79d dabb 4aba c7bb
00000320: 878f dabd 25dd a3ba ca6e 43bc 00a0 0339
00000330: f227 0cbe 655c aa3c 6590 0c3e 8ad9 0dbe
00000340: a184 5d3d 3afd 00be d1ed b73d 418c 6c3d
00000350: 9e21 ac3d 67b6 d4bd b760 a33c 2589 053b
00000360: 377e a63d ac5d abbd 456f d1bd 6ed1 a0bd
00000370: 134c 2b3d 8e0b e2bd b8b4 fcbc 9827 f7bd
00000380: 571c 80bd f32a 08bd 37f3 d0bc 71d9 e23d
00000390: 70ae 0b3e 6c09 02be 2e6d 013d e13f 4cbd
000003a0: 73f1 ac3d 937a 3abd eea1 d23d 6e55 293c
000003b0: de25 a73d a597 88bc d58f c63d ca26 ecbd
000003c0: f3d0 38bd 8836 093e c5c4 d4bd 0aba c3bd
000003d0: 95b2 99bd 6a6b 65bd 9556 ce3d 83a5 9abd
000003e0: 4ac0 863b 2ed8 cabc 2a1b ea3d c370 10be
000003f0: 60d1 03be dc38 073e b873 e2bd c742 9a3d
-0.07963477 -0.13020766 -0.09310881 -0.06929265 -0.12692615 0.06372013 0.1305141 0.117509216
-0.12460411 -0.0193398 -0.042446222 -0.120759495 0.12621756 0.11413211 -0.13722077 0.036456637
0.09589485 -0.072167896 0.13049646 -0.14136854 0.009683286 0.0299708 -0.025106074 -0.06079592
-0.06018002 -0.14124909 -0.06865599 -0.1342278 0.11736041 0.057416815 0.017538855 0.032508954
0.024975948 -0.009602785 0.03436082 0.018968582 -0.020829832 0.10714358 -0.1075632 0.043467626
-0.017213311 0.13229762 0.025654163 -0.1285446 -0.03464624 0.110802025 0.1159276 -0.08606184
0.07000777 0.020164032 0.011141182 -0.0927955 0.1255476 -0.14078286 0.04061457 -0.007157752
-0.08241371 0.06375204 -0.046345543 0.012911184 -0.009109804 0.043641143 0.017946739 -0.13309424
0.01076729 -0.044360403 -0.12081865 0.029000573 0.033259377 0.008529646 -0.079467215 0.068219446
0.05994259 0.14235663 0.11892949 -0.13178769 0.13093254 0.038721852 0.08004458 0.0060963463
-0.042682037 -0.07595401 -0.06258105 -0.06275361 -0.017103843 0.03679284 -0.11780463 -0.0642362
-0.10829015 0.062068652 -0.047553863 0.050284762 -0.03508343 -0.03813611 0.0934616 0.039817404
0.13413183 -0.05410847 0.0064238315 -0.053862184 -0.060121402 0.11333333 0.11368779 -0.02038094
0.021092739 0.038191695 0.112144455 0.031989474 -0.13980603 -0.12438673 -0.07408706 -0.03539874
-0.12595832 0.074620456 -0.033779453 0.044254612 0.11539158 -0.036175236 0.07731845 0.04792321
0.083607234 0.075957015 0.029033799 0.047519363 -0.12578252 -0.03229724 0.09650491 0.105273746
0.11716184 -0.019769346 0.04925425 0.100417346 -0.088272884 0.03425021 0.08707314 -0.033789415
-0.0009074893 -0.004463196 -0.05545688 0.09587571 -0.12567036 1.3998577e-05 -0.059093904 -0.0676609
0.020008463 0.09791121 0.11034007 0.0722236 -0.075631365 0.050681237 0.12171894 -0.11551052
-0.118499964 -0.03798863 0.049696174 0.060228862 -0.10155285 0.11657465 -0.029571433 0.04136377
-0.008128235 0.013784137 0.09138712 0.0138079105 0.08632347 0.03982081 0.014798591 -0.10308302
-0.08630768 0.022547757 0.08500753 0.094214305 0.090001434 -0.027826583 -0.08821181 -0.06861217
-0.12116315 -0.04917598 -0.05856727 -0.048805885 -0.05765173 -0.016104579 0.06525127 0.06504662
-0.01698024 0.08474306 -0.10821277 0.07447837 0.052986965 0.072087854 -0.12816983 0.13592008
-0.035168886 -0.0786732 -0.05930729 0.08349644 0.04844499 -0.036114268 -0.006671633 -0.0060952054
-0.10671907 -0.0012501819 -0.01192827 0.00012552738 -0.13687113 0.02079601 0.13726957 -0.13852516
0.054081563 -0.12596598 0.08980907 0.057750944 0.084048495 -0.10386353 0.019943578 0.0020375934
0.08129542 -0.08367476 -0.10226301 -0.078524455 0.041820597 -0.1103736 -0.030847892 -0.12068099
-0.062554054 -0.033244085 -0.025506599 0.1107663 0.13640761 -0.12698907 0.031598262 -0.049865607
0.0844449 -0.045527052 0.10284792 0.010335309 0.081615195 -0.016673872 0.096954025 -0.11530836
-0.045121145 0.13399708 -0.10389093 -0.095569685 -0.07504765 -0.05601064 0.10075108 -0.075511
0.004112278 -0.024761286 0.114309624 -0.14105515 -0.12872839 0.13205284 -0.11057228 0.07532268

lower_traingular2.sparse_mask f4 [49, 49]
00000000: 0000 803f 0000 0000 0000 0000 0000 0000
00000010: 0000 0000 0000 0000 0000 0000 0000 0000
00000020: 0000 0000 0000 0000 0000 0000 0000 0000
00000030: 0000 0000 0000 0000 0000 0000 0000 0000
00000040: 0000 0000 0000 0000 0000 0000 0000 0000
00000050: 0000 0000 0000 0000 0000 0000 0000 0000
00000060: 0000 0000 0000 0000 0000 0000 0000 0000
00000070: 0000 0000 0000 0000 0000 0000 0000 0000
00000080: 0000 0000 0000 0000 0000 0000 0000 0000
00000090: 0000 0000 0000 0000 0000 0000 0000 0000
000000a0: 0000 0000 0000 0000 0000 0000 0000 0000
000000b0: 0000 0000 0000 0000 0000 0000 0000 0000
000000c0: 0000 0000 0000 803f 0000 803f 0000 0000
000000d0: 0000 0000 0000 0000 0000 0000 0000 0000
000000e0: 0000 0000 0000 0000 0000 0000 0000 0000
000000f0: 0000 0000 0000 0000 0000 0000 0000 0000
00000100: 0000 0000 0000 0000 0000 0000 0000 0000
00000110: 0000 0000 0000 0000 0000 0000 0000 0000
00000120: 0000 0000 0000 0000 0000 0000 0000 0000
00000130: 0000 0000 0000 0000 0000 0000 0000 0000
00000140: 0000 0000 0000 0000 0000 0000 0000 0000
00000150: 0000 0000 0000 0000 0000 0000 0000 0000
00000160: 0000 0000 0000 0000 0000 0000 0000 0000
00000170: 0000 0000 0000 0000 0000 0000 0000 0000
00000180: 0000 0000 0000 0000 0000 803f 0000 803f
00000190: 0000 803f 0000 0000 0000 0000 0000 0000
000001a0: 0000 0000 0000 0000 0000 0000 0000 0000
000001b0: 0000 0000 0000 0000 0000 0000 0000 0000
000001c0: 0000 0000 0000 0000 0000 0000 0000 0000
000001d0: 0000 0000 0000 0000 0000 0000 0000 0000
000001e0: 0000 0000 0000 0000 0000 0000 0000 0000
000001f0: 0000 0000 0000 0000 0000 0000 0000 0000
00000200: 0000 0000 0000 0000 0000 0000 0000 0000
00000210: 0000 0000 0000 0000 0000 0000 0000 0000
00000220: 0000 0000 0000 0000 0000 0000 0000 0000
00000230: 0000 0000 0000 0000 0000 0000 0000 0000
00000240: 0000 0000 0000 0000 0000 0000 0000 803f
00000250: 0000 803f 0000 803f 0000 803f 0000 0000
00000260: 0000 0000 0000 0000 0000 0000 0000 0000
00000270: 0000 0000 0000 0000 0000 0000 0000 0000
00000280: 0000 0000 0000 0000 0000 0000 0000 0000
00000290: 0000 0000 0000 0000 0000 0000 0000 0000
000002a0: 0000 0000 0000 0000 0000 0000 0000 0000
000002b0: 0000 0000 0000 0000 0000 0000 0000 0000
000002c0: 0000 0000 0000 0000 0000 0000 0000 0000
000002d0: 0000 0000 0000 0000 0000 0000 0000 0000
000002e0: 0000 0000 0000 0000 0000 0000 0000 0000
000002f0: 0000 0000 0000 0000 0000 0000 0000 0000
00000300: 0000 0000 0000 0000 0000 0000 0000 0000
00000310: 0000 803f 0000 803f 0000 803f 0000 803f
00000320: 0000 803f 0000 0000 0000 0000 0000 0000
00000330: 0000 0000 0000 0000 0000 0000 0000 0000
00000340: 0000 0000 0000 0000 0000 0000 0000 0000
00000350: 0000 0000 0000 0000 0000 0000 0000 0000
00000360: 0000 0000 0000 0000 0000 0000 0000 0000
00000370: 0000 0000 0000 0000 0000 0000 0000 0000
00000380: 0000 0000 0000 0000 0000 0000 0000 0000
00000390: 0000 0000 0000 0000 0000 0000 0000 0000
000003a0: 0000 0000 0000 0000 0000 0000 0000 0000
000003b0: 0000 0000 0000 0000 0000 0000 0000 0000
000003c0: 0000 0000 0000 0000 0000 0000 0000 0000
000003d0: 0000 0000 0000 803f 0000 803f 0000 803f
000003e0: 0000 803f 0000 803f 0000 803f 0000 0000
000003f0: 0000 0000 0000 0000 0000 0000 0000 0000
1.0 0.0 0.0 0.0 0.0 0.0 0.0 0.0
0.0 0.0 0.0 0.0 0.0 0.0 0.0 0.0
0.0 0.0 0.0 0.0 0.0 0.0 0.0 0.0
0.0 0.0 0.0 0.0 0.0 0.0 0.0 0.0
0.0 0.0 0.0 0.0 0.0 0.0 0.0 0.0
0.0 0.0 0.0 0.0 0.0 0.0 0.0 0.0
0.0 1.0 1.0 0.0 0.0 0.0 0.0 0.0
0.0 0.0 0.0 0.0 0.0 0.0 0.0 0.0
0.0 0.0 0.0 0.0 0.0 0.0 0.0 0.0
0.0 0.0 0.0 0.0 0.0 0.0 0.0 0.0
0.0 0.0 0.0 0.0 0.0 0.0 0.0 0.0
0.0 0.0 0.0 0.0 0.0 0.0 0.0 0.0
0.0 0.0 1.0 1.0 1.0 0.0 0.0 0.0
0.0 0.0 0.0 0.0 0.0 0.0 0.0 0.0
0.0 0.0 0.0 0.0 0.0 0.0 0.0 0.0
0.0 0.0 0.0 0.0 0.0 0.0 0.0 0.0
0.0 0.0 0.0 0.0 0.0 0.0 0.0 0.0
0.0 0.0 0.0 0.0 0.0 0.0 0.0 0.0
0.0 0.0 0.0 1.0 1.0 1.0 1.0 0.0
0.0 0.0 0.0 0.0 0.0 0.0 0.0 0.0
0.0 0.0 0.0 0.0 0.0 0.0 0.0 0.0
0.0 0.0 0.0 0.0 0.0 0.0 0.0 0.0
0.0 0.0 0.0 0.0 0.0 0.0 0.0 0.0
0.0 0.0 0.0 0.0 0.0 0.0 0.0 0.0
0.0 0.0 0.0 0.0 1.0 1.0 1.0 1.0
1.0 0.0 0.0 0.0 0.0 0.0 0.0 0.0
0.0 0.0 0.0 0.0 0.0 0.0 0.0 0.0
0.0 0.0 0.0 0.0 0.0 0.0 0.0 0.0
0.0 0.0 0.0 0.0 0.0 0.0 0.0 0.0
0.0 0.0 0.0 0.0 0.0 0.0 0.0 0.0
0.0 0.0 0.0 0.0 0.0 1.0 1.0 1.0
1.0 1.0 1.0 0.0 0.0 0.0 0.0 0.0

upper_traingular3.weight f4 [49, 49]
00000000: 2e51 e8bc d310 dd3d 7e7b d43d 3caa fb3d
00000010: ca58 b63c 65ab a43c 4aa6 d43d 1376 843d
00000020: 41e9 4c3d 506a 91bd 2549 06b9 d196 f33d
00000030: 7c1c b9bd fe02 e93d 2589 37bd 86e0 07be
00000040: aeb9 693d 5c42 b23c 3e55 96bd 23ee da3d
00000050: d33f 7abd ea39 bdbd 4af5 e03d 0e09 66bd
00000060: f525 083e d70b 483d e100 5c3d f78c b5bd
00000070: eea8 863d 1573 c9bd 8ac9 eabd 263b 0e3e
00000080: dc60 6fbd a1ad f2bd 7736 a5bc 3084 853d
00000090: 3357 49bd 653a 82bc 0502 16bd 556f aa3d
000000a0: 10ff 9dbd a8a6 08be cb47 02be 4c39 093e
000000b0: dcf6 21ba 93c4 c53a dce8 143b 6525 42bd
000000c0: e5f5 ecbd 8023 9fbd 4ad5 253c 47d1 cdbd
000000d0: ecd5 c5bd bc3c 863d caad b73c 3c2a 063e
000000e0: d189 e73d cb9e 08be 6554 053e aae8 65bd
000000f0: 0ec5 0a3d e35b 8fbd 8520 43bd 5536 b4bd
00000100: 4ed3 bfbd 4561 b1bd 2a3e 7b3d 557d ff3d
00000110: 731d 863d a50c 70bd b390 a5bd 9c3b 443d
00000120: fa9e cb3d c3f6 89bd 2018 9f3d 333b bc3d
00000130: d398 af3d 8544 953d f38d f6bd f425 0a3e
00000140: ca45 5a3c 6cf4 03be f3b9 91bd 01e9 b5bb
00000150: 5a85 033e 5eb3 b43d a525 d93d 00b7 04bc
00000160: 8e1e 73bd 5c49 96bc 567c 043e 289b f73d
00000170: 5aa2 97bd 1ce2 ee3d 3a43 e13d 050a 6dbd
00000180: f105 ef3d 2472 0d3e 5c14 c73c 007d 0ebe
00000190: 4565 9cbd 1a62 b83d 6dfe 08be 5c26 203d
000001a0: 5aaa 893d 253d eabb 1760 28bd 51d0 aebd
000001b0: 3e5d 063e e35e 853d 531c d43c 154f febd
000001c0: 8aba b3bc 9c72 0f3e a5b1 43bd 1ecc f03d
000001d0: 0f00 00be 98c9 f8bd 21f3 45bd 05ad c7bd
000001e0: a308 c0bd 8101 593d ce00 443d ecfe a8bd
000001f0: da11 d1bd 2568 e33d 7708 353d 1c7a e73c
00000200: 7ad2 d4bd 65f3 b3bc 6a95 e53d e57f 583d
00000210: de3a c13d 1563 953d 8a2c fd3d fc0b 01bd
00000220: b746 b53b 81b9 b13c 3c70 5e3d 71a3 b6bd
00000230: 20fd 093d 360b 003e 6e28 fcbb 400b 033d
00000240: 3831 6fbd b3db 0ebe fc17 d5bd 234b fabd
00000250: f7b6 96bc 65be b5bc daf7 9b3d 85ca 37bd
00000260: 1e85 b33d d124 f63d f8ec e53c 1a40 f03d
00000270: 10a7 0e3e 1e3d eabd 932c dfbc dc8a 983c
00000280: ebf9 0b3e 1355 adbd ccb3 f3bd ea5a c2bd
00000290: 25be ec3b 252d e03d 0322 f7bd 6aef 593d
000002a0: 1065 a33d dc73 7abc f54b e1bd 3315 453d
000002b0: 81b3 56bc da3f c0bd 957d 093e 2a4b 27bd
000002c0: 3cec 433d 4589 bfbd 5c46 6ebd dcea 153b
000002d0: 5e54 cebd 9c8b 8abc 9344 99b9 4a37 5f3c
000002e0: ee3b 283d 01ff c3bd c0fe 8dbc 3e35 113e
000002f0: 9ceb a43d 810b 3dbc 4507 1dbd 6534 a93c
00000300: ba83 95bd d3b6 25bd 0e31 7bbd 9eef dd3d
00000310: 78ec 013e bed9 dabd fefd 9bbd 9410 023e
00000320: 7c8a 31bd dcd8 923c 972d 94bd 03b9 a93d
00000330: f86b e4bd 0e94 a8bd caac fbbd ccb9 af3d
00000340: 058b 9a3d d746 0d3e 17c0 343d f8bf fcbc
00000350: ee5d 953c ae81 ae3c 8e26 cbbd e551 c83d
00000360: 0a35 0c3d 7e86 cc3d ba87 a03d e368 f0bd
00000370: a6d2 073e f8e9 ffbd 4e33 4cbd dce1 b6bc
00000380: 8536 223d 97fe af3d c0ba 863c e590 26bd
00000390: 6edf 2a3d 2751 b93d e34f d0bd ee42 ad3d
000003a0: 4001 933d 85ac a6bd a3b2 d13d 90f9 11be
000003b0: 9396 f1bd 6ab5 7abd 0a1b 0f3e 862d 053e
000003c0: b7fd 8ebd 132f eb3c ae1c 9bbc 8045 1d3c
000003d0: f103 f8bd da03 bebd 0772 9ebd 7316 97bd
000003e0: 21af 2e3d b83c ddbc 652c 983d 2e25 803d
000003f0: dcaa 053c 6143 44bd 0706 bdbd f06c a13d
-0.028359022 0.107942246 0.10375117 0.12288329 0.022259135 0.020101259 0.103832796 0.06467833
0.050027136 -0.071003556 -0.00012806484 0.11894 -0.09038636 0.11377524 -0.044808526 -0.13269243
0.057061844 0.021760158 -0.073404774 0.10689952 -0.061096024 -0.09239562 0.10984285 -0.05616098
0.1329573 0.048839416 0.053711776 -0.088647775 0.065751895 -0.09836403 -0.11464222 0.13889751
-0.05844198 -0.11849523 -0.020167572 0.065193534 -0.049155425 -0.015896985 -0.03662302 0.08322016
-0.07714665 -0.13344824 -0.127227 0.13400763 -0.00061784475 0.0015088491 0.0022721803 -0.047398943
-0.11570338 -0.07770443 0.010121653 -0.10049682 -0.09659943 0.06554553 0.022421736 0.13102049
0.11305583 -0.13341825 0.13020475 -0.05613009 0.033879332 -0.06999948 -0.047638435 -0.087994255
-0.09366475 -0.08661131 0.06133858 0.12475077 0.06548586 -0.05860581 -0.0808424 0.04790841
0.09942432 -0.06736519 0.07768273 0.09190979 0.08574071 0.0728846 -0.120387934 0.1349104
0.013322303 -0.12886208 -0.07115545 -0.005551458 0.12843838 0.08823274 0.10602883 -0.008100271
-0.05935531 -0.018345527 0.12938055 0.120901406 -0.07404013 0.11664221 0.109991506 -0.057870883
0.11671055 0.13813072 0.0243017 -0.13914871 -0.07636503 0.090030864 -0.13378306 0.039099082
0.06721945 -0.0071484023 -0.041107263 -0.08535827 0.13121507 0.06512239 0.025892412 -0.124174275
-0.021939535 0.14008564 -0.047776837 0.11757682 -0.12500022 -0.12147826 -0.04832757 -0.09749798
-0.09376647 0.05297995 0.04785233 -0.082517475 -0.10208483 0.11103848 0.044197526 0.028256468
-0.10391708 -0.021966645 0.11210139 0.052856345 0.09435056 0.07294289 0.12362011 -0.03150557
0.0055321115 0.0216949 0.054306254 -0.08917893 0.033688664 0.12504277 -0.0076952493 0.03199315
-0.058396548 -0.13950996 -0.10404965 -0.122213624 -0.018397791 -0.022185514 0.07615633 -0.044870872
0.087656245 0.12018741 0.028067097 0.117309764 0.13930917 -0.114374384 -0.027242934 0.0186209
0.13669555 -0.08463492 -0.11899528 -0.09489997 0.0072248154 0.10946111 -0.12067034 0.05320684
0.079782605 -0.015286412 -0.11000816 0.04811592 -0.0131043205 -0.09387179 0.13426812 -0.040843166
0.047832713 -0.09352354 -0.05817257 0.0022875583 -0.100746855 -0.016912274 -0.00029233526 0.013624022
0.04107278 -0.095701225 -0.017333388 0.14180467 0.080527514 -0.011538387 -0.03833701 0.020654866
-0.073005155 -0.040457558 -0.06132608 0.10836719 0.12687862 -0.10686062 -0.076168045 0.12701637
-0.04334496 0.017925672 -0.07235258 0.08287241 -0.11153406 -0.08231364 -0.12288816 0.0858036
0.07546047 0.13796555 0.044128504 -0.030853257 0.018233266 0.02130207 -0.09919463 0.09781245
0.03423027 0.0998659 0.07838388 -0.117387556 0.1326395 -0.12495798 -0.049853615 -0.022324495
0.039602775 0.08593481 0.016446471 -0.040665526 0.041716985 0.09048682 -0.10171487 0.084600314
0.07177973 -0.08138374 0.102391504 -0.14255357 -0.11796298 -0.061208166 0.13975158 0.13005647
-0.06981986 0.02870897 -0.018934574 0.00959909 -0.12110127 -0.092780784 -0.07736593 -0.07377329
0.042647485 -0.027006492 0.074303426 0.062570915 0.008158412 -0.04791582 -0.09229665 0.07882106
