shared/weights/model_weights_for_layer_size_99_for_dense_False.pth (torch, 159504 bytes, 4 tensors)

upper_traingular.weight f4 [99, 99]
00000000: 1298 60bd be01 87bb ed28 763c e9b8 933c
00000010: ac5c 893d cbb1 993d eb6e 38bd cafc b03c
00000020: 8708 7bba d575 d73c f933 4f3d d885 323d
00000030: 5461 633d e944 e33c 3ca4 753d 34e3 173d
00000040: cde4 713d 7167 4a3d e6a9 cdbd 7c07 64bd
00000050: 6aea 263d 09b2 0ebd 09fe 783d 8c8f 263d
00000060: c71f 22bd 35a1 bfbd 71fc 8a3d 611e 89bd
00000070: d13d 93bd ac67 f1bb e271 2c3d 349e cbbd
00000080: 5d12 913d 3fd5 cabd 22e9 06bd 70d3 c63b
00000090: b317 8f3d d2e3 4bbd 82e9 c93d bf55 14bc
000000a0: 4bd8 97bd a3c5 443d f39b bc3c bfd6 13bd
000000b0: 3e22 f6bb 2c86 af3d a4fd c53c 6d33 743d
000000c0: 8386 123d 3271 34bc 6d8a 5f3d 7f65 febc
000000d0: 107c 483d 8d11 a0bd 7a48 203b f763 633d
000000e0: 7819 45bc e4d2 39bd cac9 babb 2c7b e8bc
000000f0: 8f9f b03d 3204 82bd 30c0 83bc 7a3b 343d
00000100: 2366 b23d 23c0 bcbd 1bfd 7b3c f57c 9fbc
00000110: 85bc c3bd 632f 5ebd bf2a 503d 87fa e73c
00000120: 8166 743d 2665 a13d 0e99 c2bd bb77 77bd
00000130: cf96 1dbd 7b84 7a3d 4713 56bd 957f b23d
00000140: 27fd a63d e890 82bd 34b7 b2bc bf81 2dbc
00000150: 96e8 b0bd 70e6 16ba e1d6 b6bd 1290 98bb
00000160: 933a df3c df92 64bd 26de f83a 9f66 c93d
00000170: 204a 6b3c 5997 693b 6077 bd3c 1be4 a93d
00000180: 001b 973c 19a3 ccbd 9389 7ebc 01f2 78bd
00000190: 1011 a8bc 7cc1 233d 09c6 ce3b 9ef8 be3d
000001a0: 6f2d b53d 6873 43bc 1445 d0bc dbc1 cabd
000001b0: 0f88 373c acd2 573d fbfc 2c3b 1555 5fbd
000001c0: 3bf6 973d 0154 b0bd 8e30 96bd f159 4e3c
000001d0: e9cb 783c 378c aebd 079d 433d fa8b 523c
000001e0: a15a ccbc 450b c03d 08bd 8d3d e2c6 f5bc
000001f0: dbc9 bfbd 4f41 223c 72dc 663c 9b6e 00bb
00000200: df6e 2e3d 5369 bb3d b554 8dbd 196c 0bbd
00000210: 3c7c 263c 19d1 2cbd 7084 92bc 91d0 843d
00000220: 9e83 01bd 3c58 543d b4a3 87bd 2ee6 463c
00000230: 2ab6 063d 7e13 b93a 1e92 91bd 138d 1cbd
00000240: db90 253d 17d1 da3c ae6c 01bb 9511 393d
00000250: 82db ca3c feb7 b6bd 9709 51bd cd48 813b
00000260: 2bbc a03d 022c 863d 6cf9 8e3d 2ec6 4f3d
00000270: 76bc 3abd c9cf 36bb e7a2 72bc 31c5 bdbc
00000280: 0585 b7bd 8f3c 6bbd 0323 99bd 9def b83b
00000290: 3d10 62bd 7b7a 053d d2c2 56bd ada4 46bd
000002a0: 3d16 a0bd ea7e 973d 2c08 a53a b3cb 90bd
000002b0: c89a 31bd e872 d9bc 77b9 243d a82f 39bd
000002c0: 8c5f f9bc ad32 b3bd 35a9 443d 1050 8b3d
000002d0: 07d3 163d e1cf 23bd 42ab a63d 2681 ccbd
000002e0: 2705 b7bb 8dad 02bd dae7 863d 2750 523d
000002f0: a304 a63b a60b dd3a 33ea 8abd 35aa 3dbd
00000300: 4270 53bd d156 b53d a798 0fbd a960 893d
00000310: 59b7 2ebd ad45 9a3d 0a09 a93c 89ac 1d3c
00000320: 755e 003b e4b7 86bd e77b 6e3d ecca 94bd
00000330: b800 1a3c 0fe2 b2bd e01c 9b3d 3456 f33c
00000340: db4f 593b 73a1 913c 6715 4a3d a9c6 a3bd
00000350: a37b 9fbd a0cc 833b 53ae c3bc 92ca 65bc
00000360: 26bc a23d e3b4 8cbd 1b7d 94bd 9d5b babc
00000370: 32ce 8e3d 4995 c1bc 2ff2 333d a930 97bc
00000380: 449c d03c bb5c 743d b654 9e3d 371c 2c3d
00000390: 8c00 963d 009f 5dbd c961 36bc c7c4 48bd
000003a0: 43ee bfbd 0ae2 e23b ab08 c33a 986d b9bd
000003b0: f080 51bc d63f 57bd 43b8 f83b 6f35 20bc
000003c0: 4bed ee3c f81c 473d 977e 48bd c864 8fbd
000003d0: 59d8 a6bd 80ab 9b3d cc9a 673d 2496 9a3c
000003e0: b5fb c6bd 399c 3d3d f565 e7bc ab04 563d
000003f0: 8529 8e3d 39fa 30bd c738 163d 0ae6 8fbd
-0.054832526 -0.0041200807 0.015024406 0.018032508 0.06707129 0.075046144 -0.045027655 0.021604914
-0.0009576161 0.026301304 0.050586674 0.043584675 0.05551274 0.02774282 0.05997108 0.037081912
0.059056092 0.049415056 -0.10042171 -0.0556712 0.0407509 -0.034837756 0.06078914 0.04066424
-0.039581086 -0.0935692 0.067864306 -0.066952474 -0.07189525 -0.007367095 0.042100795 -0.09942284
0.07083581 -0.09903955 -0.032937177 0.006067686 0.06986942 -0.049777813 0.09858991 -0.009053647
-0.074143015 0.048040044 0.023023581 -0.03609347 -0.007511406 0.08570513 0.024168797 0.059619356
0.03577281 -0.011013316 0.054575372 -0.031054256 0.04894644 -0.078158475 0.0024457262 0.055515256
-0.012029998 -0.045367137 -0.0057003247 -0.028379045 0.086241834 -0.063484564 -0.016082853 0.044002034
0.08710887 -0.09216335 0.015380169 -0.019468764 -0.095574416 -0.05424441 0.050822016 0.028317703
0.059668068 0.07880621 -0.09501849 -0.06041692 -0.0384739 0.0611615 -0.052264478 0.087157406
0.08153754 -0.06375295 -0.021815874 -0.010590016 -0.08638112 -0.0005756384 -0.08927704 -0.0046558464
0.02724961 -0.05580413 0.0018987104 0.098340265 0.0143609345 0.0035643189 0.023128211 0.08295461
0.018445492 -0.09992046 -0.01553573 -0.060777668 -0.020515949 0.039979443 0.0063102287 0.09324764
0.088465564 -0.01192937 -0.025423564 -0.09900256 0.0112018725 0.052691147 0.0026395905 -0.0545245
0.074200116 -0.086097725 -0.0733348 0.012594686 0.015185335 -0.085228376 0.047757175 0.012850756
-0.024945559 0.093771495 0.069208205 -0.030002061 -0.09364673 0.009903266 0.014090644 -0.0019597176
0.042586204 0.091509484 -0.06900922 -0.034038637 0.010161456 -0.0421916 -0.017885417 0.064850934
-0.03161966 0.05184196 -0.06623021 0.01213984 0.03288857 0.0014120189 -0.07107948 -0.038220476
0.040421348 0.02671103 -0.0019748616 0.045182783 0.024762873 -0.089218125 -0.051034536 0.003945446
0.0784839 0.065513626 0.06981167 0.05072611 -0.045589887 -0.0027894846 -0.014809347 -0.023165317
-0.08960918 -0.0574308 -0.07477381 0.0056437985 -0.055191267 0.03258751 -0.05243189 -0.04849689
-0.078167416 0.07397254 0.0012590936 -0.070701025 -0.0433605 -0.02654405 0.040215936 -0.045211464
-0.030441068 -0.087499 0.04801293 0.0680238 0.036822345 -0.03999317 0.081381336 -0.099855706
-0.005585331 -0.031903792 0.06587191 0.05134597 0.0050664707 0.0016864433 -0.06782951 -0.0463049
-0.05162073 0.088544495 -0.03505769 0.067078896 -0.042655323 0.07532821 0.020634193 0.009623655
0.001958755 -0.06578043 0.05822363 -0.07265267 0.009399585 -0.087345235 0.07573867 0.02970419
0.003315917 0.01777718 0.049336817 -0.07996876 -0.07787254 0.004022196 -0.023886835 -0.014025347
0.07946043 -0.06870439 -0.072504245 -0.022748763 0.069729224 -0.023630755 0.043932136 -0.01845582
0.025465138 0.059658747 0.07731001 0.042019095 0.07324323 -0.054106712 -0.011131712 -0.049015786
-0.09371617 0.0069239186 0.0014879903 -0.090541065 -0.012787089 -0.052551113 0.007590325 -0.009778365
0.029165884 0.04861161 -0.04894885 -0.070016444 -0.08146734 0.076010704 0.05654411 0.01887042
-0.09715978 0.046291564 -0.02824686 0.052250545 0.06941513 -0.04320738 0.03667524 -0.07026298

upper_traingular.sparse_mask f4 [99, 99]
00000000: 0000 803f 0000 0000 0000 0000 0000 0000
00000010: 0000 0000 0000 0000 0000 0000 0000 0000
00000020: 0000 0000 0000 0000 0000 0000 0000 0000
00000030: 0000 0000 0000 0000 0000 0000 0000 0000
00000040: 0000 0000 0000 0000 0000 0000 0000 0000
00000050: 0000 0000 0000 0000 0000 0000 0000 0000
00000060: 0000 0000 0000 0000 0000 0000 0000 0000
00000070: 0000 0000 0000 0000 0000 0000 0000 0000
00000080: 0000 0000 0000 0000 0000 0000 0000 0000
00000090: 0000 0000 0000 0000 0000 0000 0000 0000
000000a0: 0000 0000 0000 0000 0000 0000 0000 0000
000000b0: 0000 0000 0000 0000 0000 0000 0000 0000
000000c0: 0000 0000 0000 0000 0000 0000 0000 0000
000000d0: 0000 0000 0000 0000 0000 0000 0000 0000
000000e0: 0000 0000 0000 0000 0000 0000 0000 0000
000000f0: 0000 0000 0000 0000 0000 0000 0000 0000
00000100: 0000 0000 0000 0000 0000 0000 0000 0000
00000110: 0000 0000 0000 0000 0000 0000 0000 0000
00000120: 0000 0000 0000 0000 0000 0000 0000 0000
00000130: 0000 0000 0000 0000 0000 0000 0000 0000
00000140: 0000 0000 0000 0000 0000 0000 0000 0000
00000150: 0000 0000 0000 0000 0000 0000 0000 0000
00000160: 0000 0000 0000 0000 0000 0000 0000 0000
00000170: 0000 0000 0000 0000 0000 0000 0000 0000
00000180: 0000 0000 0000 0000 0000 0000 0000 803f
00000190: 0000 803f 0000 0000 0000 0000 0000 0000
000001a0: 0000 0000 0000 0000 0000 0000 0000 0000
000001b0: 0000 0000 0000 0000 0000 0000 0000 0000
000001c0: 0000 0000 0000 0000 0000 0000 0000 0000
000001d0: 0000 0000 0000 0000 0000 0000 0000 0000
000001e0: 0000 0000 0000 0000 0000 0000 0000 0000
000001f0: 0000 0000 0000 0000 0000 0000 0000 0000
00000200: 0000 0000 0000 0000 0000 0000 0000 0000
00000210: 0000 0000 0000 0000 0000 0000 0000 0000
00000220: 0000 0000 0000 0000 0000 0000 0000 0000
00000230: 0000 0000 0000 0000 0000 0000 0000 0000
00000240: 0000 0000 0000 0000 0000 0000 0000 0000
00000250: 0000 0000 0000 0000 0000 0000 0000 0000
00000260: 0000 0000 0000 0000 0000 0000 0000 0000
00000270: 0000 0000 0000 0000 0000 0000 0000 0000
00000280: 0000 0000 0000 0000 0000 0000 0000 0000
00000290: 0000 0000 0000 0000 0000 0000 0000 0000
000002a0: 0000 0000 0000 0000 0000 0000 0000 0000
000002b0: 0000 0000 0000 0000 0000 0000 0000 0000
000002c0: 0000 0000 0000 0000 0000 0000 0000 0000
000002d0: 0000 0000 0000 0000 0000 0000 0000 0000
000002e0: 0000 0000 0000 0000 0000 0000 0000 0000
000002f0: 0000 0000 0000 0000 0000 0000 0000 0000
00000300: 0000 0000 0000 0000 0000 0000 0000 0000
00000310: 0000 0000 0000 0000 0000 803f 0000 803f
00000320: 0000 803f 0000 0000 0000 0000 0000 0000
00000330: 0000 0000 0000 0000 0000 0000 0000 0000
00000340: 0000 0000 0000 0000 0000 0000 0000 0000
00000350: 0000 0000 0000 0000 0000 0000 0000 0000
00000360: 0000 0000 0000 0000 0000 0000 0000 0000
00000370: 0000 0000 0000 0000 0000 0000 0000 0000
00000380: 0000 0000 0000 0000 0000 0000 0000 0000
00000390: 0000 0000 0000 0000 0000 0000 0000 0000
000003a0: 0000 0000 0000 0000 0000 0000 0000 0000
000003b0: 0000 0000 0000 0000 0000 0000 0000 0000
000003c0: 0000 0000 0000 0000 0000 0000 0000 0000
000003d0: 0000 0000 0000 0000 0000 0000 0000 0000
000003e0: 0000 0000 0000 0000 0000 0000 0000 0000
000003f0: 0000 0000 0000 0000 0000 0000 0000 0000
1.0 0.0 0.0 0.0 0.0 0.0 0.0 0.0
0.0 0.0 0.0 0.0 0.0 0.0 0.0 0.0
0.0 0.0 0.0 0.0 0.0 0.0 0.0 0.0
0.0 0.0 0.0 0.0 0.0 0.0 0.0 0.0
0.0 0.0 0.0 0.0 0.0 0.0 0.0 0.0
0.0 0.0 0.0 0.0 0.0 0.0 0.0 0.0
0.0 0.0 0.0 0.0 0.0 0.0 0.0 0.0
0.0 0.0 0.0 0.0 0.0 0.0 0.0 0.0
0.0 0.0 0.0 0.0 0.0 0.0 0.0 0.0
0.0 0.0 0.0 0.0 0.0 0.0 0.0 0.0
0.0 0.0 0.0 0.0 0.0 0.0 0.0 0.0
0.0 0.0 0.0 0.0 0.0 0.0 0.0 0.0
0.0 0.0 0.0 1.0 1.0 0.0 0.0 0.0
0.0 0.0 0.0 0.0 0.0 0.0 0.0 0.0
0.0 0.0 0.0 0.0 0.0 0.0 0.0 0.0
0.0 0.0 0.0 0.0 0.0 0.0 0.0 0.0
0.0 0.0 0.0 0.0 0.0 0.0 0.0 0.0
0.0 0.0 0.0 0.0 0.0 0.0 0.0 0.0
0.0 0.0 0.0 0.0 0.0 0.0 0.0 0.0
0.0 0.0 0.0 0.0 0.0 0.0 0.0 0.0
0.0 0.0 0.0 0.0 0.0 0.0 0.0 0.0
0.0 0.0 0.0 0.0 0.0 0.0 0.0 0.0
0.0 0.0 0.0 0.0 0.0 0.0 0.0 0.0
0.0 0.0 0.0 0.0 0.0 0.0 0.0 0.0
0.0 0.0 0.0 0.0 0.0 0.0 1.0 1.0
1.0 0.0 0.0 0.0 0.0 0.0 0.0 0.0
0.0 0.0 0.0 0.0 0.0 0.0 0.0 0.0
0.0 0.0 0.0 0.0 0.0 0.0 0.0 0.0
0.0 0.0 0.0 0.0 0.0 0.0 0.0 0.0
0.0 0.0 0.0 0.0 0.0 0.0 0.0 0.0
0.0 0.0 0.0 0.0 0.0 0.0 0.0 0.0
0.0 0.0 0.0 0.0 0.0 0.0 0.0 0.0

lower_traingular.weight f4 [99, 99]
00000000: 2d9f 593d 56d7 b9bc 45e7 5e3d 20bf 623c
00000010: 4552 f03c 8397 98bd f8e9 9fbb a36d 3fbd
00000020: 0214 46bd 5f26 9ebd 6653 bb3c 578a 4bbd
00000030: f64c f13c c3bd 263d c8d4 0ebd 6fa6 553d
00000040: d539 513a 3cc2 a3bd 08ce 85bc 03f2 5fbd
00000050: 88c0 6fbb c2d7 a53d 3901 d73c bd94 e53c
00000060: 145c c33c 6518 0abd a12c b2bd 0c50 4a3d
00000070: 826a c8bc df60 483d 8d11 313d fbb6 00bc
00000080: 55a9 9a3d 5a72 623c ed4e a1bd 117c dc3c
00000090: 89d4 ca3d a648 3fbc df2d 953d 06fd 45ba
000000a0: 293d 5b3d bf40 94bd a0aa 50bd c8e0 863d
000000b0: f81a 31bd 6eaf c5bd 42c4 343c 2b5e b8bb
000000c0: 554b 5cbd a75d 62bd a068 223d 9457 443d
000000d0: 580d 34bc 3d6b bbbd 6cf4 a4bd bcc9 803d
000000e0: 359c 02bd 6dda c93c 2655 773d 2fd8 afbc
000000f0: c494 24bd 66f6 a43c 4f3d 813d f267 923d
00000100: d11b 67bc bea3 4c3d 6df9 963d d8e5 42bd
00000110: 3075 553d 15b0 b13d 9309 643d 1301 12bc
00000120: e5b9 90bd 60e0 dfbb 962f afbc 839d dabc
00000130: 9701 8f3d 5776 b63d 4906 113c b248 293d
00000140: 27e6 8bbc fad8 d2bc 1a0b 1d3d 939b 21bd
00000150: 3219 193c 2b72 34bd bff3 823d 5ab5 5a3d
00000160: 9d5e acbd 7386 1d3d c654 11bd 64e1 493a
00000170: 0afd b9bd 67b9 b1bd 13d3 e63c 1d4e 853c
00000180: f128 a0b9 3f7c 083d fe63 3ebd 7b7a 8bbc
00000190: 4b92 c7bd 5c8a 573d 845a be3d 6ba6 33bd
000001a0: 85a1 59bd adfc 3fba 0670 b2bd 4173 a6bd
000001b0: 4a30 fcbc 91ab a13d b117 71bb 2a9d b33d
000001c0: f894 3dbb 7f5e 8abd 855d 6e3d f72d adbd
000001d0: 99ff 8abd 79a9 86bd 4404 203d 8081 6fbc
000001e0: 6de8 943d 3175 55bc 236f ed3b 442b cfbc
000001f0: d3c7 72bd 0548 2dbd 5b7f aebd c45a b9bd
00000200: f3ed 82bd efa1 363d ae92 593d 0f0e 77bc
00000210: cf26 97bd 8e54 dc3b a45d 593d 87e5 23bd
00000220: d29d 6dbd 0790 aebd 4bc2 f33c e158 143d
00000230: a89e 6c3d 4299 753c fe03 4cbc 19b5 e43c
00000240: f84e 8c3d 91e2 333c bbc8 7c3c 44bf 5f3c
00000250: 355d 54bd e46a 4bbd 01fe 88bd 8ccb 483c
00000260: 8759 31bd e075 97bd acf2 e73c 6e24 653d
00000270: 8aec 82bd 9fd5 f83c 85a7 fd3c b322 97bd
00000280: c58c 563d 8061 633d d9e3 9abd 1569 45bd
00000290: aeca 26bc 1d78 aa3d 2717 e83b c075 dc3c
000002a0: 1b6c 5ebd dd36 8e3d 0f1b eb3c d05b d7bc
000002b0: 84e5 d23d fb55 95bd 387e b9bc 296b c93d
000002c0: beee 2bbd 833a 463d be7a 8c3d 7a11 e7bc
000002d0: 51d4 a13d 9281 883d 8e23 aabd 448a 6b3c
000002e0: 75d4 00bd 8279 42bc a387 843c 6953 00ba
000002f0: 200c 7bbc c34d 2abd 9ba1 25bc f02b 0d3c
00000300: 7fb5 c7bb dde1 1fbd da8e 9bbd 289d e33b
00000310: 7da8 973d 983f 5fbd 2699 b8bd a72f b2bb
00000320: d7cc 423d 2e2f 853d 3a34 57bd c3b2 9fbd
00000330: d04f ee3a e12e 093d 84a9 f63c cd29 233c
00000340: 1fa7 bd3c 512d 383d 959b dc3b 745b 35bd
00000350: 997d 8d3d 12c4 993c 986a 833d 7cb8 68bd
00000360: 459c cb3c cd4a 9c3c 44ac a1bc 8361 b23d
00000370: ada5 923b 4d95 e6ba c7f7 8f3d 8782 32bb
00000380: ea92 a1bc 1ff7 dd3c 1c9e 7cbd 1629 0dbd
00000390: d537 793d 03bb e03c a69d 103d 8d17 353c
000003a0: 8551 59bd a703 9d3d 6144 04bd 0670 a03b
000003b0: a34c c2bd afbb 28bc 66db cd3d 329a a5bd
000003c0: c5c5 003e 7aaa f9bc af06 2f3d 2726 543d
000003d0: d79c df3c 5610 adbd c82c 593c ecf7 773d
000003e0: 41cf e0bc d476 0bbd 9dd3 a43d ccef 8fbd
000003f0: 821f e03c 2a15 d6bc e370 603c 3e50 d2bc
0.053130317 -0.022685688 0.054419775 0.013839513 0.029336104 -0.074507736 -0.004880186 -0.046735417
-0.048358925 -0.077221625 0.022866916 -0.049692478 0.029455643 0.040708315 -0.034870893 0.052160677
0.0007981335 -0.07996032 -0.016333595 -0.05467416 -0.0036583263 0.08097793 0.0262457 0.028025026
0.023847617 -0.03371467 -0.086999185 0.049392745 -0.02446485 0.04892051 0.04322963 -0.007856126
0.07551829 0.013821209 -0.07876382 0.026914628 0.09903819 -0.011675036 0.0728414 -0.0007552657
0.053525124 -0.07238912 -0.05094397 0.06585842 -0.04323861 -0.09652601 0.01103312 -0.00562646
-0.05378278 -0.055265095 0.03965056 0.047935084 -0.0109895095 -0.091513135 -0.08054432 0.06288478
-0.031887252 0.024640286 0.06038394 -0.021465389 -0.040180936 0.020137023 0.06310522 0.07148732
-0.014105753 0.049960844 0.07371793 -0.047582477 0.05211371 0.08676163 0.055673193 -0.008911389
-0.070667066 -0.0068321675 -0.021384995 -0.026686436 0.06982725 0.0890929 0.008851596 0.041329093
-0.017077519 -0.025738228 0.038340665 -0.039455008 0.009344386 -0.04405419 0.06394147 0.053395607
-0.084164836 0.0384583 -0.035481237 0.00077011273 -0.090814665 -0.08677941 0.02817682 0.016272599
-0.00030548082 0.033321615 -0.04648208 -0.017026177 -0.097447 0.052622184 0.09294608 -0.04385988
-0.053132553 -0.00073237234 -0.08712773 -0.08127452 -0.030784745 0.07894052 -0.0036787803 0.08770211
-0.0028927904 -0.06756305 0.058194656 -0.08456033 -0.06787033 -0.06575293 0.039066568 -0.014618278
0.07270894 -0.013028429 0.0072459145 -0.025289185 -0.0592726 -0.04230501 -0.08520385 -0.09050515
-0.063930415 0.044588026 0.0531184 -0.015079035 -0.07380449 0.006723947 0.05306782 -0.040013816
-0.058011837 -0.08523565 0.029755732 0.036217574 0.057768494 0.014990153 -0.012452124 0.027918385
0.068509996 0.010979311 0.015428717 0.013656441 -0.0518467 -0.049662486 -0.066890724 0.012255561
-0.04329827 -0.0739553 0.028313957 0.055942945 -0.063927725 0.0303753 0.030963669 -0.07379665
0.052380342 0.055512905 -0.0756299 -0.048195917 -0.010180159 0.08323691 0.007082838 0.026911616
-0.054302316 0.06944058 0.028699426 -0.026288897 0.10297683 -0.0729179 -0.022643194 0.09834892
-0.04197573 0.048395645 0.06859349 -0.028206576 0.07901824 0.066653386 -0.08307563 0.014376227
-0.031452615 -0.01186979 0.016177958 -0.00048952416 -0.015322715 -0.041578066 -0.0101093305 0.008616433
-0.006094634 -0.03903376 -0.07595606 0.0069462247 0.074051835 -0.054504007 -0.09013586 -0.0054378095
0.04755863 0.065031394 -0.05254004 -0.07797768 0.0018181745 0.033491973 0.030110128 0.009958697
0.023150979 0.044965092 0.006732414 -0.04427667 0.069087215 0.018770251 0.064168155 -0.056816563
0.024854789 0.019078637 -0.019735463 0.08710005 0.0044753165 -0.0017592103 0.07029682 -0.0027238445
-0.019723374 0.027095376 -0.061674222 -0.03446301 0.06084426 0.027432924 0.035306595 0.011052978
-0.05305626 0.07666712 -0.032291774 0.0048961667 -0.094872735 -0.0102986535 0.100516126 -0.08086051
0.12575443 -0.030476797 0.042730983 0.051794197 0.027296467 -0.084503815 0.013255306 0.06053917
-0.027442576 -0.03404887 0.080481745 -0.070281595 0.027358774 -0.026133139 0.013698789 -0.025673028

lower_traingular.sparse_mask f4 [99, 99]
00000000: 0000 803f 0000 803f 0000 803f 0000 803f
00000010: 0000 803f 0000 803f 0000 803f 0000 803f
00000020: 0000 803f 0000 803f 0000 803f 0000 803f
00000030: 0000 803f 0000 803f 0000 803f 0000 803f
00000040: 0000 803f 0000 803f 0000 803f 0000 803f
00000050: 0000 803f 0000 803f 0000 803f 0000 803f
00000060: 0000 803f 0000 803f 0000 803f 0000 803f
00000070: 0000 803f 0000 803f 0000 803f 0000 803f
00000080: 0000 803f 0000 803f 0000 803f 0000 803f
00000090: 0000 803f 0000 803f 0000 803f 0000 803f
000000a0: 0000 803f 0000 803f 0000 803f 0000 803f
000000b0: 0000 803f 0000 803f 0000 803f 0000 803f
000000c0: 0000 803f 0000 803f 0000 803f 0000 803f
000000d0: 0000 803f 0000 803f 0000 803f 0000 803f
000000e0: 0000 803f 0000 803f 0000 803f 0000 803f
000000f0: 0000 803f 0000 803f 0000 803f 0000 803f
00000100: 0000 803f 0000 803f 0000 803f 0000 803f
00000110: 0000 803f 0000 803f 0000 803f 0000 803f
00000120: 0000 803f 0000 803f 0000 803f 0000 803f
00000130: 0000 803f 0000 803f 0000 803f 0000 803f
00000140: 0000 803f 0000 803f 0000 803f 0000 803f
00000150: 0000 803f 0000 803f 0000 803f 0000 803f
00000160: 0000 803f 0000 803f 0000 803f 0000 803f
00000170: 0000 803f 0000 803f 0000 803f 0000 803f
00000180: 0000 803f 0000 803f 0000 803f 0000 0000
00000190: 0000 803f 0000 803f 0000 803f 0000 803f
000001a0: 0000 803f 0000 803f 0000 803f 0000 803f
000001b0: 0000 803f 0000 803f 0000 803f 0000 803f
000001c0: 0000 803f 0000 803f 0000 803f 0000 803f
000001d0: 0000 803f 0000 803f 0000 803f 0000 803f
000001e0: 0000 803f 0000 803f 0000 803f 0000 803f
000001f0: 0000 803f 0000 803f 0000 803f 0000 803f
00000200: 0000 803f 0000 803f 0000 803f 0000 803f
00000210: 0000 803f 0000 803f 0000 803f 0000 803f
00000220: 0000 803f 0000 803f 0000 803f 0000 803f
00000230: 0000 803f 0000 803f 0000 803f 0000 803f
00000240: 0000 803f 0000 803f 0000 803f 0000 803f
00000250: 0000 803f 0000 803f 0000 803f 0000 803f
00000260: 0000 803f 0000 803f 0000 803f 0000 803f
00000270: 0000 803f 0000 803f 0000 803f 0000 803f
00000280: 0000 803f 0000 803f 0000 803f 0000 803f
00000290: 0000 803f 0000 803f 0000 803f 0000 803f
000002a0: 0000 803f 0000 803f 0000 803f 0000 803f
000002b0: 0000 803f 0000 803f 0000 803f 0000 803f
000002c0: 0000 803f 0000 803f 0000 803f 0000 803f
000002d0: 0000 803f 0000 803f 0000 803f 0000 803f
000002e0: 0000 803f 0000 803f 0000 803f 0000 803f
000002f0: 0000 803f 0000 803f 0000 803f 0000 803f
00000300: 0000 803f 0000 803f 0000 803f 0000 803f
00000310: 0000 803f 0000 803f 0000 0000 0000 0000
00000320: 0000 803f 0000 803f 0000 803f 0000 803f
00000330: 0000 803f 0000 803f 0000 803f 0000 803f
00000340: 0000 803f 0000 803f 0000 803f 0000 803f
00000350: 0000 803f 0000 803f 0000 803f 0000 803f
00000360: 0000 803f 0000 803f 0000 803f 0000 803f
00000370: 0000 803f 0000 803f 0000 803f 0000 803f
00000380: 0000 803f 0000 803f 0000 803f 0000 803f
00000390: 0000 803f 0000 803f 0000 803f 0000 803f
000003a0: 0000 803f 0000 803f 0000 803f 0000 803f
000003b0: 0000 803f 0000 803f 0000 803f 0000 803f
000003c0: 0000 803f 0000 803f 0000 803f 0000 803f
000003d0: 0000 803f 0000 803f 0000 803f 0000 803f
000003e0: 0000 803f 0000 803f 0000 803f 0000 803f
000003f0: 0000 803f 0000 803f 0000 803f 0000 803f
1.0 1.0 1.0 1.0 1.0 1.0 1.0 1.0
1.0 1.0 1.0 1.0 1.0 1.0 1.0 1.0
1.0 1.0 1.0 1.0 1.0 1.0 1.0 1.0
1.0 1.0 1.0 1.0 1.0 1.0 1.0 1.0
1.0 1.0 1.0 1.0 1.0 1.0 1.0 1.0
1.0 1.0 1.0 1.0 1.0 1.0 1.0 1.0
1.0 1.0 1.0 1.0 1.0 1.0 1.0 1.0
1.0 1.0 1.0 1.0 1.0 1.0 1.0 1.0
1.0 1.0 1.0 1.0 1.0 1.0 1.0 1.0
1.0 1.0 1.0 1.0 1.0 1.0 1.0 1.0
1.0 1.0 1.0 1.0 1.0 1.0 1.0 1.0
1.0 1.0 1.0 1.0 1.0 1.0 1.0 1.0
1.0 1.0 1.0 0.0 1.0 1.0 1.0 1.0
1.0 1.0 1.0 1.0 1.0 1.0 1.0 1.0
1.0 1.0 1.0 1.0 1.0 1.0 1.0 1.0
1.0 1.0 1.0 1.0 1.0 1.0 1.0 1.0
1.0 1.0 1.0 1.0 1.0 1.0 1.0 1.0
1.0 1.0 1.0 1.0 1.0 1.0 1.0 1.0
1.0 1.0 1.0 1.0 1.0 1.0 1.0 1.0
1.0 1.0 1.0 1.0 1.0 1.0 1.0 1.0
1.0 1.0 1.0 1.0 1.0 1.0 1.0 1.0
1.0 1.0 1.0 1.0 1.0 1.0 1.0 1.0
1.0 1.0 1.0 1.0 1.0 1.0 1.0 1.0
1.0 1.0 1.0 1.0 1.0 1.0 1.0 1.0
1.0 1.0 1.0 1.0 1.0 1.0 0.0 0.0
1.0 1.0 1.0 1.0 1.0 1.0 1.0 1.0
1.0 1.0 1.0 1.0 1.0 1.0 1.0 1.0
1.0 1.0 1.0 1.0 1.0 1.0 1.0 1.0
1.0 1.0 1.0 1.0 1.0 1.0 1.0 1.0
1.0 1.0 1.0 1.0 1.0 1.0 1.0 1.0
1.0 1.0 1.0 1.0 1.0 1.0 1.0 1.0
1.0 1.0 1.0 1.0 1.0 1.0 1.0 1.0
