shared/weights/model_weights_for_layer_size_99_for_dense_True.pth (torch, 159496 bytes, 4 tensors)

layer1.weight f4 [99, 99]
00000000: 91fa b8bd 199d 6fbd 6b6b da3d 8863 61bd
00000010: e095 cbbd 119b 3cbd d3c8 573b ab8f 38be
00000020: 054c acbd b8bd 4c3d b49c 2abd 0544 983b
00000030: c2c4 25bd 04ab 48bc 2431 30bd 73e4 4dbd
00000040: fb60 87bd 6ae0 d1bd 47e7 3dbd 19de 203d
00000050: 87bf 8ebd 9688 e3bd 231b a1bc 26b4 dbbd
00000060: 7e7d 03be aee1 e8bd 0fd9 5b3d 25c5 3dbd
00000070: 3c86 db3d 4713 b23d ffa4 fabd 04ca eabd
00000080: 6c85 8f3d 4179 22be 0c5c fdbb 9815 f0bc
00000090: 8637 a7ba 09fa 19be 98fe fbbb 0edf a33d
000000a0: 0097 903d 4613 8e3d fd3e afbc 8840 283e
000000b0: 0f01 fabd 97eb 14be d9c9 2abb 1f86 5ebd
000000c0: 0f88 16bc ced9 01be 24dc 17bd 70de ecbd
000000d0: e1d8 993a da06 d7bc c829 2ebd 511a b93d
000000e0: 4513 edbd 0e0f 3ebd d7c0 ad3d f3a7 c13d
000000f0: 2ddb a23b 243e edbd a0a1 f13d 5907 843d
00000100: 33b6 d7bc 2a84 9b3c d570 313d 7ae5 40b9
00000110: 5349 fdbc a3c3 e13c 73a9 473d 8821 9b3c
00000120: 037d 33bc c0ad 08be 664c 0e3e 9114 f4bd
00000130: 28a7 bb3c 2364 9a3d e853 9c3d a046 3ebd
00000140: a920 55bd 3932 54bd dc8e eebd d2d1 123d
00000150: 95e6 b63d 01c1 273d 1f88 cdbc 0228 b2bd
00000160: c458 aa3b d15c 03be 5975 b93c b586 683d
00000170: 5f96 94bd aa05 973d 4a54 093b 76b8 e2bd
00000180: 03fd 82bd 3025 a03d 1045 a1bd 92ea 35bd
00000190: f833 aa3d 00a0 2ebd 53ef 993d afcc eebc
000001a0: d6b7 ba3d df3c d1bc 9368 913d 687a dbbc
000001b0: f0e2 383d 355e 7fbd e3d6 013d ee03 09be
000001c0: a9ab 723b bf2b d2bc d28e a4bc c0ab 0abd
000001d0: 4369 60bd 3fa6 023d 8d70 28be f3e1 32bd
000001e0: 2090 50bc e8e1 95bc 2c70 a2bc f013 0bbe
000001f0: 5d4a 8dbc b0df dfbd de4c 88bd 9018 00be
00000200: 5887 743d 579f 293d 4475 e8bc 4865 b83c
00000210: 751a 1abd 47aa 36bc 7770 4abd e38a 1a3d
00000220: 8a67 67bd 4989 a3bb c1d5 66bd daae a83d
00000230: a119 273e 4b4b a23d 7f64 e73a f8fb 883d
00000240: a74f a5bc 8a2d 133d bc82 37bd bd8c a73d
00000250: 82cb 2fbd 9c31 903d 41c5 d6bc d86d a8bd
00000260: a6ae abbc 1597 7ebd 287c c4bc 187c 5a3d
00000270: 0bce 95bd acdc 90bc e5b7 10bc ec1e 32bd
00000280: 0d3a a4bd c0d4 cb3d ce17 383a 490f cebd
00000290: b1e9 adbd 9f42 f33c 1ee1 47bd bf9e 87bd
000002a0: 55ab 973c a463 ec3c bd47 083d 48ce f6bd
000002b0: 39b8 a7bd 6ab1 813d 1f71 673b c17b 123d
000002c0: 67cd 923d 5616 bebd cd12 1abe 492f a2bd
000002d0: 35cb d8bd f536 073d b53d 14be 1054 463d
000002e0: 0f37 adbd b284 55bd 17ed 16bd e5f6 31bd
000002f0: 1d60 37bd a17e 323c b8dc 84bd 8c45 ee3b
00000300: 740c ebbd c48c 60bc 7de7 2abc 1f52 bc3d
00000310: 6af7 03be 1a97 1fbc 1394 2f3e 3f7b 4f3d
00000320: 9bf1 8ebd a398 83bd aa72 a83d 4f30 823d
00000330: fb79 a43d 7662 dcbc 88af 6e3d c44a 8f3d
00000340: 24be c63c 35f9 5fbc 59cc 283d 681c fa3c
00000350: a59f 273d f982 a138 05ee 7e3d eebf cb3d
00000360: a151 823d a348 ecbc 1f24 123d f3b6 533d
00000370: d565 e23c 4e30 3f3c 09ca 92bd 60af b03d
00000380: ae0a c83c 6a4a e9bc 1f62 91b9 38e9 163c
00000390: 3147 ff3c d2ef abbc e801 9fbb f5e2 73bc
000003a0: 9526 7b3d 4aee c53c 6908 5fbc 8ec1 723d
000003b0: 74e9 073c 52f7 d4bc 8aa1 bb3b 9413 d03c
000003c0: aff6 0c3d f0e4 01bc 15a3 e5bc b93f 753d
000003d0: 9d3b 4a3d 8919 a83d 6e80 8e3c 26c3 e0bc
000003e0: 3538 793b 9d7a d83d 3dd2 183d 208c 5abd
000003f0: 9d9b 8d3d 48ca 7dbc c13f 38bd bceb 9d3d
-0.09032167 -0.05849943 0.106650196 -0.05502656 -0.09940696 -0.04604632 0.0032926097 -0.18023555
-0.08412937 0.049985617 -0.04165335 0.0046467804 -0.040470846 -0.012247805 -0.043015614 -0.050266694
-0.066102944 -0.10247882 -0.04636314 0.03927431 -0.06970125 -0.11110036 -0.01966626 -0.1072772
-0.1284084 -0.1137117 0.0536738 -0.04633059 0.107189626 0.08695083 -0.12238502 -0.11464313
0.0700787 -0.15866567 -0.00773192 -0.029307172 -0.0012757636 -0.15036787 -0.007690262 0.08001529
0.07060051 0.0693727 -0.02139234 0.16430867 -0.12207233 -0.14542995 -0.0026060252 -0.054327127
-0.009187712 -0.12680742 -0.037075177 -0.11565864 0.0011737609 -0.026248384 -0.042520314 0.090382226
-0.11575941 -0.046401076 0.08484047 0.09455862 0.0049699754 -0.11584118 0.11798406 0.06446714
-0.026331997 0.01898392 0.043320496 -0.00018396034 -0.030918753 0.027559107 0.048745584 0.018936887
-0.010955098 -0.1334753 0.13896331 -0.11917985 0.022906855 0.07538631 0.07633191 -0.046454072
-0.0520331 -0.05180571 -0.11648342 0.03584463 0.08930699 0.040955547 -0.025089322 -0.08699037
0.00519857 -0.12828375 0.022638964 0.05676909 -0.072552435 0.07374127 0.0020954781 -0.110703394
-0.063959144 0.07819593 -0.07874501 -0.044413157 0.083106935 -0.042633057 0.075163506 -0.029150335
0.09117095 -0.02554172 0.07100024 -0.026791766 0.0451383 -0.062345702 0.031699073 -0.13380405
0.0037028587 -0.025655625 -0.020087633 -0.0338552 -0.054787885 0.031896826 -0.16449185 -0.043672513
-0.012729675 -0.018296197 -0.019828878 -0.13581824 -0.017247373 -0.10931337 -0.06655286 -0.1250937
0.059699386 0.041411724 -0.02837623 0.022509232 -0.037622888 -0.011148996 -0.04942366 0.03773011
-0.056495227 -0.004990731 -0.056356195 0.08236475 0.1631837 0.07924517 0.0017653852 0.06688684
-0.020179583 0.0359321 -0.044802412 0.081811406 -0.04291869 0.07040712 -0.026217105 -0.08224076
-0.020957302 -0.0621558 -0.023984984 0.053341 -0.0731469 -0.01768335 -0.008832906 -0.04348652
-0.08018885 0.09952688 0.000702259 -0.10061509 -0.08491839 0.029694853 -0.048798673 -0.06622075
0.018514315 0.028856106 0.03327154 -0.12051064 -0.081894346 0.06332667 0.0035315228 0.035762552
0.07168084 -0.09281604 -0.15046234 -0.07919175 -0.10585634 0.033011395 -0.14476664 0.048420012
-0.08457767 -0.0521285 -0.0368472 -0.043448348 -0.044769395 0.0108944485 -0.06487411 0.007271474
-0.114769846 -0.013705436 -0.010431168 0.09195351 -0.1288735 -0.009740615 0.1714633 0.050654646
-0.06979676 -0.064255975 0.082249954 0.063568704 0.080310784 -0.026902419 0.05827287 0.06996682
0.024260588 -0.013670255 0.041210506 0.030531123 0.040923733 7.701474e-05 0.062238712 0.09948717
0.06363226 -0.02884323 0.03567898 0.051688146 0.027636448 0.011669232 -0.071674414 0.086272
0.024419155 -0.028477866 -0.0002772966 0.009210877 0.031161876 -0.020988379 -0.004852522 -0.014885654
0.06131609 0.024161477 -0.013612845 0.05926662 0.008295406 -0.025996838 0.005726044 0.02539996
0.034414943 -0.007928118 -0.028031865 0.059875224 0.049373258 0.082079954 0.017395224 -0.027436804
0.0038027887 0.105702616 0.037309874 -0.05335629 0.069144465 -0.015490122 -0.044982675 0.077109784

layer2.weight f4 [99, 99]
00000000: aa3e a1bd c91e 8e3d 3486 89bd 1694 cc3c
00000010: 0c0d 9d3d a27f b2bd d2d6 65bc c2ca b83c
00000020: f863 5dbd 9fe9 3b3d be9a 41bd 18c2 30bc
00000030: b9df 2e3d 8bc4 f9bc 59f2 4c3d 921d aa3d
00000040: 86a9 b73d 63ee 92bd 3eea 163d 775e 10bd
00000050: 8cb9 a73d 22a0 873d c88e 563d dc9a 803d
00000060: 9522 993d 55b3 93ba 50f0 2ebd 297b 333d
00000070: 281e bd3c 96c4 9abd 715d 0e3d bd4a 2d3d
00000080: 07e1 50bd d1e7 a0bd 862c 5c3d d87a 823d
00000090: 3182 98bd 5f97 85bd eeee c0bd 0823 b73d
000000a0: 4538 29bd 0ba8 a3bd 9882 a73c 35d7 023b
000000b0: 4cd1 5d3d 9b11 c9bc 646b 9a3d 132a d43d
000000c0: fcea 583d 2ed8 cd3c b30d 5b3d 06e4 fc3c
000000d0: 2acf bfbd 1b60 fdbd eb23 043e 0524 38bd
000000e0: d714 6e3d af0d d5bc 3817 91bc 5467 1b3d
000000f0: a249 9d3d f390 c13c a140 6f3d 9565 64bd
00000100: dfdf 743d 7521 9b3c 7f3e 12bc 7ef3 343d
00000110: be19 82bd e155 39bd 261b 5dbc b6f7 fbbc
00000120: 014b 10bd c40f 793d 4a72 8cbd 3dd6 ab3d
00000130: 33b8 053d 0b64 babc 8811 9abb 2d90 563d
00000140: 74ee f03b f2a9 28bd 98bb e9bb b5ce ec3c
00000150: 5d46 64bd fcaf 933d af7b 823d c100 a73d
00000160: 4a21 2b3d 9009 29bd ece4 a53b e6e2 ab3d
00000170: 4b24 493d efaa 403c e32e bb3d 49c8 773b
00000180: 2eb8 4c3c 8a80 803d 6f27 58bd c3c8 3f3d
00000190: 62a0 dbbd 71a8 593d cbdd 8fbb 75dd 61bd
000001a0: 33c3 bc3c ff98 b53d c308 df3d 1342 00bd
000001b0: 985e 38bd 2843 b8bd 38b7 d83c e4f5 663c
000001c0: 74ab c0bd fbe5 343d f7cb 72bd 2ef4 c03d
000001d0: fd56 8ebd 0eb7 ac3d c682 173d a4f1 6e3d
000001e0: 5e18 74bd 6d58 12bc d6e4 a83d 5e33 a6bd
000001f0: e7a4 fab7 e23a b7bc 7cf9 c7bc d555 a93d
00000200: 38aa 3d3d 2a0f 2dbd dd40 203c 9c48 a7bc
00000210: d025 eb3d e910 ccbc 2000 3f3d b711 053d
00000220: 60b0 20be 9f5d 2c3d 4ba1 273b ea5a 18bd
00000230: 6aa4 e8bc fca6 69bd 028f 19be 460d 753d
00000240: 7b36 4dbd ca8a c43c 6f12 c53d ebb6 c13d
00000250: 3cba fc3d 73c6 85bd c3a3 b9bd 4e79 da3a
00000260: df4e 29bd 40fe a2bd ac2f d23d 7308 42bd
00000270: 9c2e e03d f6d3 0cbd 41fd 61bd 835a 0bbd
00000280: f948 afbd 650d 1bbd fe50 c0bc 508e 58bd
00000290: bc16 87bd 6dd8 a83c 7c90 0f3d 1eb0 a6bc
000002a0: a549 2f3d 9469 82bc 8c8d dfbb f723 03be
000002b0: c499 e03b 5799 29bd 2d35 93bd aff2 d53d
000002c0: b116 a43d eea8 94bd 0669 a93c 2043 bb3d
000002d0: fa9f 7cbc 841c 783d 1e98 12be b5c2 b43d
000002e0: 9819 a13d f5e2 e63d 85c8 a6bd c2d9 f63b
000002f0: 2044 18bd a3ec adbd 8cd9 f33d c1bb 20bc
00000300: 99fd d1bc a1ee 813d c9ef 233d 9934 9d3d
00000310: 3bd7 43bd 73ce 003e c6f5 8e3d e9a9 683d
00000320: ea3a 823d 07b1 c1bb b92b e33d 01e0 8fbd
00000330: 15d5 863d 9311 863d 3020 a03c 9732 a73c
00000340: fc6c 873d 6049 0dbc fe99 4b3d 317a 85bc
00000350: 009a 9bbd e345 073d 64b9 a7bd 6c5d 9fbd
00000360: 11ae 6ebd 7058 1e3d 3585 ae3d cc9c a7bd
00000370: adae e23c e65a 9c3c bc0e e63d f32e 243d
00000380: 5f33 b83d b24a c1bd 8030 93bc 39b4 ccbd
00000390: 0bc6 9a3c 4faa edbc d49c 073d 8f27 4c3d
000003a0: ea63 a8bc cea7 c3bd 58a6 41bd 02d4 c13d
000003b0: e2c6 7f3d 0af1 b539 07de b6bd 1be0 8dbb
000003c0: e21c 9cbc a8d4 da3d 2cc6 0bbd a505 5bbb
000003d0: 30ce acbd abd8 a93d f0ad 883d 9b32 ef3c
000003e0: 223e cdbd 01af b6bc 7b5c 2ebc f369 4bbc
000003f0: 5ed4 e03b 3829 e6bc 195a 58bc e327 f63c
-0.0787328 0.069394656 -0.0671505 0.024972957 0.07668504 -0.0871575 -0.014028268 0.02255762
-0.054050416 0.045877095 -0.047266714 -0.010788463 0.042693827 -0.030489227 0.05003581 0.08306421
0.08967881 -0.07174375 0.036844485 -0.03524634 0.08189687 0.0662234 0.05238226 0.06279537
0.07477299 -0.0011268655 -0.04270965 0.043818627 0.023085669 -0.07557027 0.03475708 0.042307604
-0.050995853 -0.078567155 0.0537534 0.06371087 -0.07446707 -0.06523012 -0.09420572 0.089422286
-0.04131343 -0.07991036 0.020448014 0.00199647 0.05415468 -0.024544528 0.075400144 0.103595875
0.052958474 0.025127497 0.05347986 0.030870449 -0.09365685 -0.12371846 0.12904327 -0.044956226
0.058125343 -0.026007501 -0.017711267 0.03794034 0.0768006 0.023628687 0.058411244 -0.05576094
0.059783813 0.018936852 -0.008926033 0.044177525 -0.06352566 -0.045247916 -0.013495242 -0.030757766
-0.03522778 0.06080605 -0.068577364 0.08390472 0.03264637 -0.022752782 -0.004701797 0.05238359
0.0073526446 -0.041177697 -0.0071329586 0.02890716 -0.055731166 0.07211301 0.06371247 0.08154441
0.041779794 -0.041268885 0.00506269 0.08392887 0.049106877 0.011759504 0.09139802 0.0037808588
0.012495084 0.06274517 -0.05277198 0.04682232 -0.1072395 0.053139154 -0.0043904535 -0.05514284
0.023042297 0.08867072 0.10890343 -0.031313013 -0.045012087 -0.08997184 0.026454553 0.014096711
-0.09407702 0.04416464 -0.059276547 0.094215736 -0.069501854 0.084333524 0.03698995 0.058335915
-0.05959355 -0.008932215 0.08246772 -0.08115266 -2.9879111e-05 -0.022366945 -0.024410956 0.08268324
0.04630491 -0.04225079 0.00978109 -0.020420365 0.114818215 -0.024910407 0.04663098 0.032487597
-0.15692282 0.04208147 0.0025578316 -0.037196077 -0.028398711 -0.057044014 -0.1499596 0.05982711
-0.050100785 0.023991961 0.096226566 0.09458717 0.12340209 -0.06531992 -0.09064438 0.0016668232
-0.041334983 -0.079586506 0.10262999 -0.04737134 0.1094639 -0.03438183 -0.055173162 -0.034021866
-0.0855884 -0.03785457 -0.02347612 -0.052870095 -0.06596133 0.020611012 0.0350499 -0.020347651
0.042794842 -0.015919484 -0.0068222936 -0.12806688 0.006854268 -0.041406002 -0.07187877 0.10446679
0.080121405 -0.07258783 0.020679962 0.091436625 -0.015419001 0.06057407 -0.1431584 0.088262
0.0786621 0.11273757 -0.08143715 0.007533283 -0.037174344 -0.084924005 0.11906728 -0.009810389
-0.02563362 0.06344343 0.0400236 0.07676048 -0.04781268 0.12578754 0.06980471 0.056802664
0.06358893 -0.005910996 0.11092324 -0.07025147 0.06583611 0.06546321 0.019546598 0.020409865
0.06612584 -0.008623451 0.049707405 -0.016293617 -0.075977325 0.033025634 -0.08189657 -0.07781491
-0.05827147 0.03865856 0.08521501 -0.081842035 0.027671183 0.019086313 0.11233279 0.040083837
0.08994173 -0.09438075 -0.017967463 -0.09995312 0.018893262 -0.029011874 0.033108547 0.049842414
-0.020555455 -0.095534906 -0.04727778 0.094642654 0.06244553 0.00034702598 -0.08929067 -0.004329694
-0.019056741 0.10685092 -0.03412454 -0.0033420112 -0.08437765 0.08293279 0.06673801 0.029198935
-0.100216165 -0.022300245 -0.010642166 -0.012415397 0.0068612536 -0.028095827 -0.013205075 0.030048316

layer3.weight f4 [99, 99]
00000000: 7efb 7bbd 1179 233c c9c2 8bbd f5e4 8abd
00000010: 73a5 b53c 3c38 7d3d 6977 843c ea39 863c
00000020: c0fe 163c d63b c1bc b9dd aa3d 413d e5bc
00000030: 767f b8bc fcea 983c 95c6 9d3d cb9a 723c
00000040: ef79 543d bbcd ecbb d017 b43d da24 82bd
00000050: b8ef 0b3d 52a7 38bd b63c 83bd 2c6f 763d
00000060: a772 733d 5231 e63d c303 87bd b7e0 5e3c
00000070: dad4 90bd 1492 833d a35e 2b3d 0740 75bd
00000080: 80a0 343c bb11 253d 51bc 8abc 6c6e 5f3c
00000090: 7e46 aa3d 3efa 8d3d 69c8 a0bd 27ec 9c3d
000000a0: cd36 db3c 25e0 6abd 830c 303d 0df8 0f3d
000000b0: 37d8 b63c 3850 81bd 3d49 d6bc 6d76 343c
000000c0: 0aa4 bfbd 512e 9ebc 18d2 9c3d 9285 613c
000000d0: d901 5ebd 1ae9 4bbb 6397 2c3d ab18 14bd
000000e0: 71cf 053d 66d4 90bc 1de9 f3bd 5e6a 863d
000000f0: 6510 fdbd e113 473d c187 cebd 78ed 863d
00000100: 9ec9 083d 2635 80bd c40f bc3c 8b5e febc
00000110: 03d9 6d3c 3796 033d fe24 b0bd 616f d93d
00000120: 856b a0bc dbea 56bb aa35 08bd b255 433d
00000130: bbb9 7bbc 90b0 543b 03a5 bb3d 5065 6abd
00000140: 55d0 f73c fd9e 8fbb 7652 02be e3c3 d1bd
00000150: 082b 163d c3bf 943d 33c5 beb9 2dbc cfbd
00000160: bf63 aebc 6856 3fbd a8c3 7fbd f8e9 0d3d
00000170: 57c1 bfbc 07d2 4a3d 0bde 283d 988a 3f3b
00000180: d69f a73c ad0a 2e3d da09 d4bd bfd1 223d
00000190: bdb0 5f3c b0fb afbd bf8f ce3d 7836 7bbc
000001a0: c30e e63c 1304 04bc 1b80 0fbd 1a15 403d
000001b0: dbe3 b63c aa2d adbd 06fb e83c a4bc d83d
000001c0: 9f69 c8bc 23af cdbd 5c98 97bb 6fbc d73c
000001d0: ce0e 6c3c 02fe 613d f274 98bd 3ce3 99bd
000001e0: b56e aa3d 5724 f0bd 0773 ffbc e991 54bd
000001f0: bfad 9c3c 0f31 123d add5 20bc 5020 9f3c
00000200: e1ce 04bd 5ade aebb 26ca f53c 9ee4 b43d
00000210: e817 d73b 507e 373d 6c4d 673d d4d9 a5bd
00000220: d670 693c 4818 52bc 8c2b c0bd e9db 5c3d
00000230: b23b 1d3d 0a17 2cbd 0af4 833c b549 0dbb
00000240: 75bd 87bd 43aa d5bd d33d 243d 3029 173d
00000250: 1642 1dbd 47f2 833b ca1f 43bd f858 053d
00000260: 5142 e3bc 840b 70bc 99eb 2bbd 8729 e7bd
00000270: 9a4d 543c 1d03 d63c 9591 a83d 4400 adbd
00000280: e4f4 52bd fd57 adbd ae48 b7bd b1d1 39bd
00000290: c0bc 8b3d e635 43bc 7b24 df3c 1425 80bd
000002a0: 896e e1bd e916 a23d d4ea b73d b9f1 cb3c
000002b0: e77e 773d ac52 a9bd 9e22 a33d 7cf2 38bd
000002c0: 2028 373d 1170 a63d 6301 b9bd 0e57 753d
000002d0: 1bf3 003e 872e 743d 5d5e 4fbd fcab 88bd
000002e0: cae4 b03d 4eea 263e edf6 803b 55a1 ae3d
000002f0: fc04 1b3d ba6f 8cbd 4196 73bb fd90 0c3d
00000300: 086c 5ebc 8998 073d 486d 013c 08e1 0bbd
00000310: cfb1 883d abe1 d43c 249f c2bc 9408 6a3c
00000320: eb16 4ebb 0344 cc3c d483 e6bc dbbd d43c
00000330: eb1d ca3c 93b9 c7bc 4901 043d c947 223d
00000340: 111f 96bd 1f51 d6bd e0ba 613c 5bb4 b93b
00000350: d8f1 b6bd 38f5 7dbd 82e8 8dba 024f 7f3d
00000360: c238 8e3d 892e aabd 89cd a63d 3636 743d
00000370: b45a 683d 59e5 9e3d cf94 e33d 2f6e 07bd
00000380: be3d e4bd 5ae1 bfbd f87f 0f3d 617c 583c
00000390: f220 4dbc 12c7 21be fc05 5d3c eafa 1a3d
000003a0: 0429 113d ef6c 003d 032f 66bc ff0c 79bd
000003b0: b3e0 b43a 3b27 17be 7647 a8bc 8f24 8ebd
000003c0: dc30 cabd 15bc b3bd 8f47 e83c f76e ac3d
000003d0: 473b b8bc 0eab b93c af7f 943b 3167 77bd
000003e0: 034a 3b3d 0979 603d 6254 bcbd 1e94 543b
000003f0: b445 b83b ed02 05bd cceb ecbc d9ae 9abd
-0.06151914 0.009977595 -0.06824262 -0.06781951 0.022173619 0.061821207 0.01617022 0.016385037
0.009216011 -0.023588102 0.083430715 -0.02798331 -0.022521716 0.018666737 0.07703892 0.014807413
0.051874097 -0.0072266734 0.087936044 -0.06354685 0.03416416 -0.045081444 -0.06408064 0.060164616
0.059435513 0.11239876 -0.06592514 0.013603381 -0.07071848 0.064243466 0.0418383 -0.059875514
0.011024594 0.040300112 -0.0169355 0.0136371665 0.083142266 0.069324955 -0.07850725 0.0766223
0.02675953 -0.057342667 0.042980682 0.03514867 0.022319896 -0.06314129 -0.02615797 0.011014563
-0.0935746 -0.019309195 0.0765726 0.013764756 -0.05420098 -0.003111428 0.04213656 -0.036156338
0.032668535 -0.017679404 -0.11909697 0.06563257 -0.12356643 0.048602942 -0.10084487 0.06588262
0.033395402 -0.06260137 0.022956736 -0.031050941 0.014517072 0.032125678 -0.08600806 0.10616947
-0.01958252 -0.0032793793 -0.033254303 0.047689147 -0.015364106 0.0032453872 0.09162333 -0.057225525
0.030250708 -0.0043829666 -0.12726769 -0.102424406 0.03666213 0.07263138 -0.0003638655 -0.101433136
-0.021287797 -0.046713263 -0.06244245 0.034646958 -0.023407621 0.049516704 0.04122738 0.0029226895
0.020461958 0.04249065 -0.103534415 0.03975081 0.0136529775 -0.085929275 0.10086011 -0.015332811
0.02808321 -0.008057612 -0.03503428 0.046895124 0.022325447 -0.08455975 0.02844001 0.10582855
-0.024464427 -0.1004317 -0.004626317 0.02633497 0.014407827 0.05517388 -0.074441805 -0.07514045
0.08321897 -0.11725681 -0.031182779 -0.051896963 0.019125817 0.035691317 -0.009816569 0.019424587
-0.032423858 -0.005336565 0.030003618 0.08832668 0.006564129 0.044798195 0.05647032 -0.08098188
0.014248094 -0.012823172 -0.09383306 0.05392066 0.038387008 -0.04201416 0.016107578 -0.0021558825
-0.06627933 -0.104328655 0.040098023 0.036904514 -0.038393103 0.0040266844 -0.04763774 0.03255555
-0.027741583 -0.014651183 -0.04197273 -0.112872176 0.012957955 0.026124531 0.082308926 -0.08447316
-0.051503077 -0.08464048 -0.089494094 -0.045365993 0.068231106 -0.011914706 0.027239075 -0.06257072
-0.11007411 0.07914526 0.08980337 0.024895536 0.060423758 -0.082677215 0.07965587 -0.045153126
0.044716 0.08126844 -0.090334676 0.059897475 0.12592737 0.059614684 -0.0506271 -0.066734284
0.08637388 0.16300318 0.003935686 0.085268654 0.03784655 -0.06857248 -0.0037168416 0.03431796
-0.013575561 0.033104453 0.00789959 -0.034150153 0.06674539 0.025986513 -0.023757525 0.014284272
-0.0031446766 0.024934774 -0.028139032 0.025969436 0.02467247 -0.02438048 0.032227788 0.03961924
-0.07330144 -0.10464691 0.013777465 0.005667252 -0.08932847 -0.062001437 -0.0010826739 0.062331207
0.069444194 -0.08309657 0.081446715 0.059622012 0.056727126 0.07758588 0.11112367 -0.033064064
-0.11144589 -0.09369154 0.03503415 0.013213248 -0.012520062 -0.15798596 0.013490196 0.037836947
0.035439506 0.031353887 -0.014049294 -0.06080341 0.0013799876 -0.14761059 -0.020541888 -0.06940567
-0.098726004 -0.08776108 0.028354434 0.08419602 -0.022489203 0.022664573 0.0045318226 -0.060401145
0.04572488 0.054802928 -0.09195782 0.0032436918 0.0056235436 -0.032473493 -0.02892103 -0.07552881

layer4.weight f4 [99, 99]
00000000: 6162 80bd ecce 8abb 29d9 90bd 8224 283d
00000010: 2776 15bd 9cec fabc 448b 94bd 5d9f b0bc
00000020: 3ebe 87bd 282f 61bd 83bf 2cbd edc5 a23c
00000030: 721e bdbd ab44 e7bd be81 abbd 99b0 13bd
00000040: bf92 d23d 4f5e 79bd 10fd 093c e744 4fbd
00000050: 0161 dcbc 0a52 8cbd 3e24 fd3d 3d79 46bd
00000060: 933c 453d ed68 92bd dc4a 46bd f36d a5bc
00000070: 2293 59bd 466f ccbd a248 9c3d 6367 6c3d
00000080: 4f66 62bd b0e5 bfbd 122c 9fbd 8331 a43d
00000090: a3af 583d cfab afbd 28ac 663d 289b 23ba
000000a0: 858c 24bd 7afd 8a3d fcc1 4cbd 5bfd 5b3d
000000b0: 2419 8a3d a48c cabc 917d 263c 6b38 57bb
000000c0: 885c c53d 7cc9 b53c 2222 9c3d b56c fcbd
000000d0: 4b8d c63b 04a5 b8bd 1812 0d3d 1b63 853d
000000e0: f904 a9bd c656 523d 53e6 18bd 552e 423d
000000f0: 478f 543d 8597 343d 1ec3 383d c0d6 26bd
00000100: d9ae b6bd 3a8b 9d3d 45b9 7e3d a1ec 803d
00000110: 0cf1 61bc 364f 0abd 7c80 c3bd 91cc edbb
00000120: fef6 31bd 832d 27bb eabd 76ba 1928 c5bd
00000130: 17b3 13bd 7b86 1fbc 464f babb 3698 4f3d
00000140: 6215 05bc c507 78bd 8df4 623d 050f d83d
00000150: 3f53 d43c a6f3 973d 5eef 84bc c860 923c
00000160: 66b3 78bd 8a16 09b9 bc4b 843d 462c e83d
00000170: 6bbf 5cbd b0e2 5f3d 2a22 a73d e8df 4e3d
00000180: 8ac1 72bd c8cd 743d 65c3 99bd 91cf f13c
00000190: a630 8abc c3fd e93c 86c9 0dbd 4c87 513d
000001a0: e748 8cbd 4ace f0bc 7176 3ebd 3b42 21bd
000001b0: ea89 c33d ddf3 83bd 5d0e 203d 529a a4bd
000001c0: ac8c b7bc 9f14 593d d5fa a4bd 08d6 c53d
000001d0: 2186 ecbc 873b a7bd 9cb4 b73c 94bc 6d3d
000001e0: 66b6 323d b769 e73d a213 713d 5ff4 b3bd
000001f0: b9fe 9fbc 0858 a7bd 2e56 a4bd a474 1a3c
00000200: a04a 573d 1822 f7ba d9cd 99bc bb1c 063d
00000210: 851f f13b 4103 8cbc 6bed a63d f611 be3d
00000220: 627a 9d3d 3652 263d 7655 bfbd 5d5a 153d
00000230: 9aec 373c c6c2 40bd 9cad a03d 6845 06bc
00000240: 49f4 d3bd 4c8b bbbd a14d 39ba b250 0fbd
00000250: 73b3 d83c 5cb2 c73d 7717 95bc 7c85 9abc
00000260: a7d0 be3d 9c3d 103d 2239 ba3d 5b74 c6bd
00000270: ff56 bc3c d2c9 c3bd e170 b13d da5c 40bd
00000280: d4d1 8b3d e7bd 553d 425a 3f3d 6a2d bfbd
00000290: 245e 9d3d ef04 91bd 3879 35bd c900 a1bd
000002a0: 744f 323d d280 133d 7211 8a3d f312 13bd
000002b0: ab1d e2bb 2310 a7bc c222 c2bd 5135 4ebd
000002c0: ccd5 b4bc 9f57 8abd 996b 4f3d 24e7 a2bd
000002d0: 35d8 bdbd 892f 17bc efc3 d23d 939e 7f3d
000002e0: 443d f13a 4ce4 eb3d e996 753d e68a 4ebd
000002f0: be7d 87bc d18a 63bd ab1e 2c3d 99a5 a53c
00000300: 244e 213c f9dc 57bd d61b 9f3d 5da8 95bd
00000310: 8d02 c239 8afc f4bc 3900 8d3d ebba 6ebc
00000320: a438 0cbd 560c a93d fa59 89bc 6ffb 9e3d
00000330: fc0f 923a 5129 d63d bccc 85bd 1b26 823d
00000340: 8946 dc3c 75b8 14bd c28c 94bc 4542 aa3c
00000350: 5719 d7bd b0be 163d 8e24 ac3d d932 b33d
00000360: 7359 b13c fb0f 34bd 1ccf 513c 9d7c afbd
00000370: b4a4 29bd c51a 00bc 2dc7 acbd 75ce 93bc
00000380: 8ff0 bfbc 9274 a8bd 8518 59bd 0486 8d3d
00000390: e6fe a3bd 7b24 0a3d 6f13 b1bc 47ae 8fbd
000003a0: 9ef5 333c 1855 f73b fb0e a43c abd4 85bc
000003b0: fad2 013e afac 873d 28ac 56bc e36e 313d
000003c0: 18ca bc3d 76e6 d83c 32b5 6b3d d7fe 68bd
000003d0: 4e1e 803b c9b8 e8bc f3c7 953b ef32 943d
000003e0: 1bba 6cbd 3a0b 5dbd 05ef 43bd bc15 0cbc
000003f0: 5b8c 8abd ed7e f23c 3138 4ebc 6503 0b3d
-0.06268764 -0.004236093 -0.0707267 0.04105044 -0.036489632 -0.030630402 -0.07253125 -0.021560365
-0.06628083 -0.054976612 -0.042174827 0.019869769 -0.092343226 -0.11292394 -0.08374356 -0.03605709
0.10281896 -0.060880955 0.008422151 -0.05060282 -0.026901724 -0.06851585 0.12360428 -0.048455466
0.04815347 -0.07148919 -0.048411235 -0.02019403 -0.053118832 -0.09982161 0.07631041 0.057715785
-0.05527335 -0.09369981 -0.077720776 0.08017256 0.052901875 -0.08577692 0.056316525 -0.00062410766
-0.040173072 0.06786628 -0.049989685 0.053708415 0.067430764 -0.024725266 0.010161773 -0.0032840024
0.096367896 0.022190802 0.07623698 -0.12325422 0.006059324 -0.09015849 0.034441084 0.065130435
-0.082529016 0.051352285 -0.03732903 0.047407467 0.051894452 0.044089813 0.045107953 -0.040732145
-0.08920068 0.07692571 0.062188406 0.062951334 -0.01379038 -0.033766948 -0.09545991 -0.007257052
-0.04344844 -0.0025509305 -0.00094124547 -0.09626789 -0.036059465 -0.0097366525 -0.0056857197 0.05068227
-0.008122774 -0.060554285 0.055409003 0.1054974 0.025918601 0.07419519 -0.01622742 0.017868415
-0.060717963 -0.00013073735 0.06459758 0.113365695 -0.053893488 0.054659545 0.08160813 0.050506502
-0.059266604 0.05976656 -0.07507972 0.02951792 -0.0168689 0.028563386 -0.034616016 0.05115442
-0.068498425 -0.029395241 -0.046499673 -0.039369803 0.095477894 -0.064429976 0.039076198 -0.08037247
-0.022405945 0.05299818 -0.08055655 0.09659964 -0.028872551 -0.08165651 0.022424988 0.05804117
0.04363098 0.112994604 0.058856614 -0.087868445 -0.01953064 -0.081710875 -0.0802425 0.009427223
0.052561402 -0.0018854765 -0.018774914 0.032742243 0.0073584937 -0.017091395 0.08150753 0.092807695
0.07689358 0.040605746 -0.09342472 0.03646313 0.011225844 -0.04706075 0.07845613 -0.008195259
-0.10349328 -0.09157428 -0.00070687575 -0.034989066 0.026452756 0.09750816 -0.018199665 -0.018862478
0.09317141 0.035215005 0.090929285 -0.09690162 0.022990702 -0.095599785 0.08664108 -0.04696355
0.06827131 0.052183058 0.046716936 -0.09334834 0.076839715 -0.07081019 -0.044305056 -0.07861478
0.043532804 0.036011524 0.06741609 -0.035906743 -0.0069005094 -0.020393437 -0.09479286 -0.050343815
-0.022074603 -0.06754994 0.050639722 -0.07954243 -0.09269754 -0.009227642 0.102912776 0.062407088
0.0018405099 0.115181535 0.059958372 -0.050425433 -0.01653945 -0.055552308 0.042021435 0.020220565
0.00984529 -0.05270097 0.07768981 -0.07307503 0.00037004464 -0.029905576 0.06884808 -0.014570932
-0.034233704 0.08254306 -0.016766537 0.07762801 0.001114368 0.10457099 -0.065331906 0.06354924
0.026889103 -0.036308724 -0.018133525 0.020783553 -0.1050288 0.036802948 0.0840541 0.08749933
0.021649098 -0.043960553 0.012805726 -0.0856869 -0.04141684 -0.007818882 -0.08436427 -0.018042782
-0.023430137 -0.08225359 -0.0530019 0.06910327 -0.080076024 0.033726197 -0.021615712 -0.07015663
0.010983853 0.0075479858 0.020026674 -0.01633676 0.12678137 0.06624734 -0.013102569 0.04331864
0.09218234 0.02647708 0.05754585 -0.05688366 0.0039098626 -0.028408425 0.004570955 0.07236277
-0.05779467 -0.053965785 -0.04783537 -0.008550104 -0.06765052 0.029601539 -0.012586639 0.033938784
