shared/weights/model_weights_for_layer_size_99_for_dense_False.pth (torch, 634310 bytes, 16 tensors)

upper_traingular1.weight f4 [99, 99]
000000 b6 ae 39 bd 9f fb 4b bd 6f 05 9a bc 2d 60 93 3d
       -0.045332633 -0.04980051 -0.018801419 0.071960784
000010 98 dc c7 bc ec 39 77 3d 5c 1c 76 bc 64 c4 bc bc
       -0.02439718 0.060357973 -0.01502141 -0.023042865
000020 36 0b 25 bd 7e 2f 4b bd 2c 25 86 bd a0 dc c0 3d
       -0.040293895 -0.04960584 -0.06550059 0.09417081
000030 a9 19 8f bd b6 41 c2 3b 47 e2 59 3d 96 72 1a 3d
       -0.06987316 0.0059282435 0.05319431 0.037706934
000040 93 0f 76 bd 21 6c 32 3d 0a 76 e5 3d ca 24 75 3d
       -0.060073446 0.04356015 0.11204155 0.059849538
000050 64 6b 82 3d 6d 8d 72 bd fa 82 be bd 28 74 dd bb
       0.063681394 -0.059216905 -0.093023255 -0.0067582317
000060 75 82 78 bd 2d fe ac 3d 5b ac 0b 3d 4e 2e 9c 3c
       -0.06067129 0.08446918 0.034099918 0.019065049
000070 da a5 36 3d 6b d9 ce bb f4 80 ca bd f5 8c 8b bd
       0.044591762 -0.0063125393 -0.09887877 -0.06813995
000080 99 9f c5 bd bb a4 60 3d 63 7e 5d 3d 9e 14 c6 3c
       -0.096495815 0.0548446 0.05407561 0.024179753
000090 57 e6 dd bc 63 6b 9c bd b7 a7 d8 3c c9 e8 d7 bd
       -0.027087374 -0.0763767 0.02644716 -0.10542447
0000a0 ce 04 9f bc f2 37 6e 3c d6 c8 a2 3d 97 ed 2c bd
       -0.01941147 0.014539706 0.07948463 -0.04221877
0000b0 ee da a1 3d 60 27 de bc a1 30 b3 3d bf 1e a1 3d
       0.07903086 -0.027118385 0.087495096 0.078671925
0000c0 88 a1 c8 3d 43 6c 42 3c 42 59 87 bd ee 0d 9a 3c
       0.09796435 0.011866632 -0.066088215 0.01880547
0000d0 b3 0f 0f 3d b3 c1 48 bd ff 7a 4f bd 6d 46 ad bd
       0.03492708 -0.04901285 -0.050654408 -0.08460698
0000e0 3e a6 33 bd 03 5a 93 bd 77 b7 5f 3d a5 1e 20 3d
       -0.043859713 -0.07194903 0.054618325 0.039091725
0000f0 67 1a ab 3d 7e 03 89 3b 8d 0d ac bd 25 8e 6b bd
       0.08354645 0.0041813245 -0.08401022 -0.057508606
000100 df 03 57 3c f1 17 44 3b db 2a 8a bd 09 46 bb bb
       0.013123482 0.0029921497 -0.06746455 -0.005715136
000110 45 1d af bd a7 39 a3 3d f9 ea 2c 3d 83 e0 b3 3d
       -0.085505046 0.07969981 0.042216275 0.087830566
000120 28 93 a6 bd 48 74 e4 bb 72 74 a5 bd 33 2d 62 3d
       -0.081335366 -0.0069718696 -0.08078851 0.055218887
000130 0b f1 54 ba b1 a6 06 3d d6 76 4f bc 4c 41 35 3d
       -0.00081230764 0.032873813 -0.01266261 0.044251725
000140 9d 0f 83 bd e5 8b 36 bd 01 4d 84 bc 2c 21 c0 3d
       -0.06399462 -0.044567008 -0.01615 0.09381327
000150 08 ce 8a bd 4c 6f 2b 3d 08 ef 00 3d 04 a5 73 bd
       -0.067775786 0.041854188 0.031477958 -0.059483543
000160 1d c6 10 3d e1 9f b1 3c 3c 88 5f bd bb c3 89 3b
       0.035345186 0.021682682 -0.054573283 0.004204241
000170 51 9d a5 bd 0f 66 65 bd 81 1f 00 3d 89 52 a4 bd
       -0.08086646 -0.056005534 0.031280044 -0.08023555
000180 10 31 e7 3a 4a 84 9d bd 75 e7 1b bd c7 32 55 bd
       0.0017638523 -0.07691248 -0.03806253 -0.05205038
000190 b9 56 47 3d 63 90 92 3c ec 91 8d 3d 28 fb 8f bd
       0.04866669 0.017891115 0.06912598 -0.07030326
0001a0 c1 0f cb bd cd 29 9b bc 73 c4 a2 bb 8e 80 c0 bd
       -0.09915114 -0.01894083 -0.004967266 -0.0939952
0001b0 95 37 a4 3b fe 39 a7 3d 40 1b a5 bd db e8 d8 3d
       0.0050115087 0.08165358 -0.08061838 0.10591289
0001c0 be 75 90 3c 93 87 97 3d 2d 96 db 3c 2f 76 11 bd
       0.017634269 0.073989056 0.026805008 -0.0355131
0001d0 ca fd 1c bd 74 69 e0 bc f9 f3 9a 3c 16 bb 34 3d
       -0.03832797 -0.027394034 0.018915163 0.04412373
0001e0 5e 8c ba 3d 9c 6e 41 39 b0 4e da 3c ae 13 53 3d
       0.09108804 0.0001844712 0.02664885 0.05153244
0001f0 7d 61 10 bd 7d 77 49 bd 54 e5 a9 3d f5 c1 ca bd
       -0.035249222 -0.04918622 0.08295694 -0.099002756
000200 e3 6c 7c 3d f6 6d 09 3d 30 23 98 3d a2 71 92 3c
       0.06162728 0.033552133 0.074285865 0.01787645
000210 44 17 00 bd a0 18 c6 3d 6d e9 9e bb e6 a3 0e ba
       -0.031272188 0.096726656 -0.004849604 -0.0005441293
000220 bb 06 9b bd eb 95 88 3d 69 18 10 bd 81 f2 59 bd
       -0.07569643 0.066692196 -0.03517953 -0.053209785
000230 44 01 1a bd 12 50 d3 3c 2a 5d d2 3c 1a 8c aa bd
       -0.037598863 0.025795016 0.02567919 -0.083275035
000240 0a 82 8b 3c 5e 88 3c 3d b2 6b a7 bd 46 be dd 3d
       0.01702978 0.046028487 -0.08174838 0.108273074
000250 39 c3 1a bb 47 9b 82 3d 38 84 06 3d dd 9d f9 bd
       -0.0023614897 0.06377273 0.032840937 -0.12188313
000260 78 f5 ea 3d 68 f6 b2 3d 18 65 9d bd 7a 1b 18 bd
       0.11472601 0.087384045 -0.07685298 -0.03713558
000270 9e d3 01 3d 39 e2 d9 bd d3 d5 d6 bb 9e 04 a0 bc
       0.031695955 -0.10638852 -0.0065562516 -0.019533452
000280 df 0c 70 3c 95 6e 4c bd 5c 94 ff 3c ac 49 a2 3d
       0.014651506 -0.049910147 0.031198673 0.07924208
000290 bf c7 05 bd f9 15 9b 3c e2 19 a8 bd fa f0 80 3d
       -0.032661196 0.018931376 -0.08208062 0.06295963
0002a0 31 0b 3d bd 2f 93 fc 3d 64 eb 57 3d 51 ba 45 3d
       -0.04615325 0.123327605 0.05271472 0.04827339
0002b0 39 aa 9c 3c 6c 4d 77 3d a5 90 9e 3d d1 68 1e 3d
       0.019124137 0.06037657 0.077424325 0.03867418
0002c0 65 47 9e bd 44 8f 1f 3d f4 9c ad bd e7 b3 bf 3d
       -0.07728461 0.038954988 -0.08477202 0.093604855
0002d0 a9 3f 5b bd 2a 2e 96 3d a8 d0 d4 3d 39 3d 41 3d
       -0.053527508 0.07333024 0.103913605 0.047177527
0002e0 b9 6c d7 3d 3b 65 1a 3d 50 22 50 3c 3b 95 73 bc
       0.10518784 0.037694197 0.012703493 -0.014867122
0002f0 f0 72 b0 bd 93 bf 1f bd 99 b2 a3 3d d1 f4 a6 3d
       -0.086156726 -0.03900106 0.07993049 0.08152164
000300 65 5e 2f 3d fa c0 d0 bd 26 cb 6a bc 16 4f ce bb
       0.04281463 -0.10193057 -0.014330661 -0.006296049
000310 e3 51 9e 3c f2 ab e9 3c 69 57 94 bd ce c8 a1 bb
       0.019326156 0.028524373 -0.07243235 -0.004937268
000320 99 e3 cf 3d 44 85 71 3d 9a c0 b7 3d 07 13 7f bd
       0.10150833 0.058964983 0.08972283 -0.062274005
000330 4e 88 b5 bc 2b 54 b4 bc 37 b7 cc bd c2 67 64 bd
       -0.022159722 -0.02201279 -0.09995883 -0.055763014
000340 81 61 82 bc 1d cf de bd f8 c8 be 3d a9 79 91 bd
       -0.015915634 -0.108793475 0.093156755 -0.07103283
000350 33 f8 39 3c 0c 4e 32 bd de e2 b6 3d 32 4f 28 3d
       0.011350679 -0.043531463 0.0892999 0.04109115
000360 69 42 14 be ae 0d 87 3d 47 f4 0c 3d 20 9c 3b 3d
       -0.14478458 0.06594406 0.03441265 0.04580319
000370 a8 65 9d bd 56 37 40 3d b2 d3 03 3d 5b 7f 75 3d
       -0.07685405 0.046927772 0.03218431 0.05993591
000380 34 30 57 3d f7 df d5 bd d2 3b 41 bd d4 10 ab bc
       0.052536204 -0.104431085 -0.04717619 -0.020882048
000390 f3 b7 bd bc 7a 97 3d 3d 5b 6d a7 3d b3 f3 58 3d
       -0.023159003 0.046287037 0.08175155 0.052966785
0003a0 16 c9 9d bc 33 9c c1 3b 1f dd 80 3d 1d d3 cb bd
       -0.019260924 0.005908513 0.062921755 -0.09952376
0003b0 2f c2 e6 bc 02 d6 6c bd 2c 4a b4 3d b8 e9 8a 3d
       -0.028168766 -0.05782128 0.0880321 0.067828596
0003c0 2e 17 00 3d 4b 80 4d 3d 30 e3 49 bb 36 02 bd bc
       0.031272106 0.050171178 -0.003080558 -0.023072343
0003d0 3c a4 02 3b 81 c0 df bb 97 8e 99 bd 80 52 94 3c
       0.0019934317 -0.006828368 -0.074979 0.018105745
0003e0 9d cb b1 bc 82 fb e2 3d fa ff da 3d 1e 90 43 3c
       -0.021703536 0.110831276 0.10693355 0.011936216
0003f0 df d5 0e 3e 98 05 7a 3d ac b0 ad 3b 58 d5 2d 3d
       0.13948773 0.06104049 0.005300602 0.04243979

upper_traingular1.sparse_mask f4 [99, 99]
000000 00 00 80 3f 00 00 80 3f 00 00 80 3f 00 00 80 3f
       1.0 1.0 1.0 1.0
000010 00 00 80 3f 00 00 80 3f 00 00 80 3f 00 00 80 3f
       1.0 1.0 1.0 1.0
000020 00 00 80 3f 00 00 80 3f 00 00 80 3f 00 00 80 3f
       1.0 1.0 1.0 1.0
000030 00 00 80 3f 00 00 80 3f 00 00 80 3f 00 00 80 3f
       1.0 1.0 1.0 1.0
000040 00 00 80 3f 00 00 80 3f 00 00 80 3f 00 00 80 3f
       1.0 1.0 1.0 1.0
000050 00 00 80 3f 00 00 80 3f 00 00 80 3f 00 00 80 3f
       1.0 1.0 1.0 1.0
000060 00 00 80 3f 00 00 80 3f 00 00 80 3f 00 00 80 3f
       1.0 1.0 1.0 1.0
000070 00 00 80 3f 00 00 80 3f 00 00 80 3f 00 00 80 3f
       1.0 1.0 1.0 1.0
000080 00 00 80 3f 00 00 80 3f 00 00 80 3f 00 00 80 3f
       1.0 1.0 1.0 1.0
000090 00 00 80 3f 00 00 80 3f 00 00 80 3f 00 00 80 3f
       1.0 1.0 1.0 1.0
0000a0 00 00 80 3f 00 00 80 3f 00 00 80 3f 00 00 80 3f
       1.0 1.0 1.0 1.0
0000b0 00 00 80 3f 00 00 80 3f 00 00 80 3f 00 00 80 3f
       1.0 1.0 1.0 1.0
0000c0 00 00 80 3f 00 00 80 3f 00 00 80 3f 00 00 80 3f
       1.0 1.0 1.0 1.0
0000d0 00 00 80 3f 00 00 80 3f 00 00 80 3f 00 00 80 3f
       1.0 1.0 1.0 1.0
0000e0 00 00 80 3f 00 00 80 3f 00 00 80 3f 00 00 80 3f
       1.0 1.0 1.0 1.0
0000f0 00 00 80 3f 00 00 80 3f 00 00 80 3f 00 00 80 3f
       1.0 1.0 1.0 1.0
000100 00 00 80 3f 00 00 80 3f 00 00 80 3f 00 00 80 3f
       1.0 1.0 1.0 1.0
000110 00 00 80 3f 00 00 80 3f 00 00 80 3f 00 00 80 3f
       1.0 1.0 1.0 1.0
000120 00 00 80 3f 00 00 80 3f 00 00 80 3f 00 00 80 3f
       1.0 1.0 1.0 1.0
000130 00 00 80 3f 00 00 80 3f 00 00 80 3f 00 00 80 3f
       1.0 1.0 1.0 1.0
000140 00 00 80 3f 00 00 80 3f 00 00 80 3f 00 00 80 3f
       1.0 1.0 1.0 1.0
000150 00 00 80 3f 00 00 80 3f 00 00 80 3f 00 00 80 3f
       1.0 1.0 1.0 1.0
000160 00 00 80 3f 00 00 80 3f 00 00 80 3f 00 00 80 3f
       1.0 1.0 1.0 1.0
000170 00 00 80 3f 00 00 80 3f 00 00 80 3f 00 00 80 3f
       1.0 1.0 1.0 1.0
000180 00 00 80 3f 00 00 80 3f 00 00 80 3f 00 00 00 00
       1.0 1.0 1.0 0.0
000190 00 00 80 3f 00 00 80 3f 00 00 80 3f 00 00 80 3f
       1.0 1.0 1.0 1.0
0001a0 00 00 80 3f 00 00 80 3f 00 00 80 3f 00 00 80 3f
       1.0 1.0 1.0 1.0
0001b0 00 00 80 3f 00 00 80 3f 00 00 80 3f 00 00 80 3f
       1.0 1.0 1.0 1.0
0001c0 00 00 80 3f 00 00 80 3f 00 00 80 3f 00 00 80 3f
       1.0 1.0 1.0 1.0
0001d0 00 00 80 3f 00 00 80 3f 00 00 80 3f 00 00 80 3f
       1.0 1.0 1.0 1.0
0001e0 00 00 80 3f 00 00 80 3f 00 00 80 3f 00 00 80 3f
       1.0 1.0 1.0 1.0
0001f0 00 00 80 3f 00 00 80 3f 00 00 80 3f 00 00 80 3f
       1.0 1.0 1.0 1.0
000200 00 00 80 3f 00 00 80 3f 00 00 80 3f 00 00 80 3f
       1.0 1.0 1.0 1.0
000210 00 00 80 3f 00 00 80 3f 00 00 80 3f 00 00 80 3f
       1.0 1.0 1.0 1.0
000220 00 00 80 3f 00 00 80 3f 00 00 80 3f 00 00 80 3f
       1.0 1.0 1.0 1.0
000230 00 00 80 3f 00 00 80 3f 00 00 80 3f 00 00 80 3f
       1.0 1.0 1.0 1.0
000240 00 00 80 3f 00 00 80 3f 00 00 80 3f 00 00 80 3f
       1.0 1.0 1.0 1.0
000250 00 00 80 3f 00 00 80 3f 00 00 80 3f 00 00 80 3f
       1.0 1.0 1.0 1.0
000260 00 00 80 3f 00 00 80 3f 00 00 80 3f 00 00 80 3f
       1.0 1.0 1.0 1.0
000270 00 00 80 3f 00 00 80 3f 00 00 80 3f 00 00 80 3f
       1.0 1.0 1.0 1.0
000280 00 00 80 3f 00 00 80 3f 00 00 80 3f 00 00 80 3f
       1.0 1.0 1.0 1.0
000290 00 00 80 3f 00 00 80 3f 00 00 80 3f 00 00 80 3f
       1.0 1.0 1.0 1.0
0002a0 00 00 80 3f 00 00 80 3f 00 00 80 3f 00 00 80 3f
       1.0 1.0 1.0 1.0
0002b0 00 00 80 3f 00 00 80 3f 00 00 80 3f 00 00 80 3f
       1.0 1.0 1.0 1.0
0002c0 00 00 80 3f 00 00 80 3f 00 00 80 3f 00 00 80 3f
       1.0 1.0 1.0 1.0
0002d0 00 00 80 3f 00 00 80 3f 00 00 80 3f 00 00 80 3f
       1.0 1.0 1.0 1.0
0002e0 00 00 80 3f 00 00 80 3f 00 00 80 3f 00 00 80 3f
       1.0 1.0 1.0 1.0
0002f0 00 00 80 3f 00 00 80 3f 00 00 80 3f 00 00 80 3f
       1.0 1.0 1.0 1.0
000300 00 00 80 3f 00 00 80 3f 00 00 80 3f 00 00 80 3f
       1.0 1.0 1.0 1.0
000310 00 00 80 3f 00 00 80 3f 00 00 00 00 00 00 00 00
       1.0 1.0 0.0 0.0
000320 00 00 80 3f 00 00 80 3f 00 00 80 3f 00 00 80 3f
       1.0 1.0 1.0 1.0
000330 00 00 80 3f 00 00 80 3f 00 00 80 3f 00 00 80 3f
       1.0 1.0 1.0 1.0
000340 00 00 80 3f 00 00 80 3f 00 00 80 3f 00 00 80 3f
       1.0 1.0 1.0 1.0
000350 00 00 80 3f 00 00 80 3f 00 00 80 3f 00 00 80 3f
       1.0 1.0 1.0 1.0
000360 00 00 80 3f 00 00 80 3f 00 00 80 3f 00 00 80 3f
       1.0 1.0 1.0 1.0
000370 00 00 80 3f 00 00 80 3f 00 00 80 3f 00 00 80 3f
       1.0 1.0 1.0 1.0
000380 00 00 80 3f 00 00 80 3f 00 00 80 3f 00 00 80 3f
       1.0 1.0 1.0 1.0
000390 00 00 80 3f 00 00 80 3f 00 00 80 3f 00 00 80 3f
       1.0 1.0 1.0 1.0
0003a0 00 00 80 3f 00 00 80 3f 00 00 80 3f 00 00 80 3f
       1.0 1.0 1.0 1.0
0003b0 00 00 80 3f 00 00 80 3f 00 00 80 3f 00 00 80 3f
       1.0 1.0 1.0 1.0
0003c0 00 00 80 3f 00 00 80 3f 00 00 80 3f 00 00 80 3f
       1.0 1.0 1.0 1.0
0003d0 00 00 80 3f 00 00 80 3f 00 00 80 3f 00 00 80 3f
       1.0 1.0 1.0 1.0
0003e0 00 00 80 3f 00 00 80 3f 00 00 80 3f 00 00 80 3f
       1.0 1.0 1.0 1.0
0003f0 00 00 80 3f 00 00 80 3f 00 00 80 3f 00 00 80 3f
       1.0 1.0 1.0 1.0

lower_traingular1.weight f4 [99, 99]
000000 1f 91 ff bd 53 65 84 3d c0 d1 2c bd 03 f4 dd 3c
       -0.124788515 0.064646386 -0.04219222 0.027093893
000010 8b d2 38 bd ed 97 8d bd 72 c4 ae bd 7b 34 88 bd
       -0.045122664 -0.06913743 -0.08533563 -0.06650635
000020 dc 43 c5 bd 39 c3 62 3d ac 06 72 bd b7 ca b9 bd
       -0.09632084 0.05536196 -0.059088394 -0.09071868
000030 5b 14 ee 3c 4c 26 1c 3d 31 9c 47 3c 31 20 31 bd
       0.02906244 0.03812246 0.012183235 -0.04324359
000040 06 c4 82 bd 4f 37 6b 3d 76 72 26 3d e0 67 a8 3c
       -0.06385045 0.057425793 0.040636502 0.020557344
000050 bf 3d ec bc db 38 67 bd 96 f3 b6 3d f4 ef ad bd
       -0.028838037 -0.056450706 0.08933179 -0.08493033
000060 ab 26 e4 3b 83 13 dd bc d0 4f 66 3d 7a 99 19 bd
       0.0069626174 -0.026986843 0.05622846 -0.037499882
000070 79 64 a8 bd e9 81 c4 3d cb 97 36 bd 36 be 47 3c
       -0.08222289 0.09595091 -0.044578355 0.012191346
000080 be e4 8a 3d 81 c3 91 bd 78 18 ad 3d c9 8a dd 3b
       0.0678191 -0.071173675 0.08451933 0.0067609292
000090 14 3c 7a bd 33 2d ba bd 0c 68 6f bd ad 6b 81 bd
       -0.06109245 -0.09090652 -0.058448836 -0.06319366
0000a0 a3 52 e1 bb a3 28 ba 3d 9d 27 96 bd 1c 5d c8 3b
       -0.006876306 0.09089782 -0.073317744 0.006114615
0000b0 37 0a a9 bc 77 61 ca 3d 77 be 67 bd 04 a9 53 bd
       -0.020634754 0.09881871 -0.056578126 -0.051674858
0000c0 5c 8d 35 bd 3b c8 c3 bc ee 52 ad 3d 92 da be bd
       -0.044324264 -0.023899188 0.08463083 -0.09319033
0000d0 44 66 a4 3d 1b 09 78 bd 5a 56 c8 bd 2c cc 24 3c
       0.08027318 -0.06055556 -0.09782095 0.010058444
0000e0 b2 4d c6 3d fd ad 31 bd 03 69 87 3c 85 cc 76 bd
       0.09682788 -0.04337882 0.016529566 -0.06025364
0000f0 ae 7b 15 3d 5f e7 b9 3d 78 d4 bd bd e7 27 8b 3d
       0.036494903 0.09077334 -0.09269041 0.0679472
000100 8c 21 b4 bd c5 6d ff 3c be 02 57 3d 8b 2f 4b bd
       -0.08795461 0.031180272 0.05249285 -0.049605887
000110 bb 61 da 3c 80 b1 5b bd 1d cc 00 bd 3d 25 fd ba
       0.02665793 -0.053636074 -0.031444658 -0.0019313466
000120 0d ec 99 3d c3 25 98 bd c5 a5 2c bd 8f 22 cd 3c
       0.07515726 -0.074290775 -0.042150278 0.025040893
000130 d2 4a cc bd 67 a4 3a 3c 5a 0c a7 3d c8 52 c5 bd
       -0.09975208 0.011391736 0.08156653 -0.0963493
000140 4e af b2 bd 33 07 c9 3d 73 f2 c3 bd 7f 60 b9 3d
       -0.08724843 0.09815826 -0.09567728 0.09051608
000150 78 b6 5d 3d 4d 36 c4 bd f7 34 15 bc 57 c0 d2 3b
       0.054129094 -0.095806696 -0.009106866 0.00643162
000160 46 47 85 3d 64 8a c0 bd ae 8c 52 bc 1d d1 d4 3c
       0.06507735 -0.09401396 -0.012850923 0.02597862
000170 15 8f 1d bd 93 be 9d 3d 5c b7 17 3d 1e 7d 63 3d
       -0.03846653 0.07702365 0.0370401 0.055539243
000180 de b9 fe 3b d8 25 68 3c ad f6 b1 bd cf 1f 59 bd
       0.007773622 0.014169179 -0.08689628 -0.05300885
000190 f5 77 88 bd 6a d5 b9 3d 51 b3 a6 bd d4 37 9e b9
       -0.06663505 0.090739086 -0.08139671 -0.00030177704
0001a0 99 64 4b 3d 65 a0 8d 3d ae cd cc 3c 84 3e ba bd
       0.049656484 0.069153585 0.02500042 -0.09093955
0001b0 ce e3 72 3d 96 50 10 3b 1e 56 97 bd 8c d7 1f bd
       0.059299283 0.002202069 -0.073894724 -0.03902392
0001c0 f2 c1 78 3d 21 f6 27 bd 91 58 c7 3d 57 7c b8 3d
       0.060731836 -0.04100621 0.097336896 0.09008091
0001d0 ca 7c e9 bc 80 c8 a7 bb 0e bd 8d bc 64 db ca 3d
       -0.028501887 -0.005120337 -0.017302062 0.09905127
0001e0 1e 71 cc bd 06 08 a9 3d 1a b4 be 3d 75 87 63 bd
       -0.09982513 0.082534835 0.093116954 -0.055549104
0001f0 58 ac fa bc 78 66 b4 3c f7 bf 46 3d fa 05 ad bc
       -0.030599758 0.022021517 0.048522916 -0.021121014
000200 2b 3f 46 3d ce 29 3c 3d 1e 52 92 3d 97 1e 15 3d
       0.048400085 0.045938306 0.07144569 0.036406126
000210 c7 2e 4e 3c d6 a2 6d 3c 57 84 c0 3c 1c 24 9a bd
       0.012584395 0.014504155 0.023500605 -0.075264186
000220 fc 46 bd bc 0d f1 cb bc 54 58 ca 3d 42 c0 80 bd
       -0.023105137 -0.024895215 0.098801285 -0.0628667
000230 14 26 bc bd f7 23 2d bd df cf 5a 3d 96 25 0a 3d
       -0.0918695 -0.042270627 0.053420898 0.03372725
000240 44 69 a0 3c 77 cc b1 3d b9 0f 02 3d f6 7d 37 3c
       0.019581445 0.08681577 0.031753276 0.011199465
000250 fd f5 eb bb a3 ed 3c 3a 89 38 7a bc 41 a0 a9 bd
       -0.007200955 0.00072070415 -0.015272268 -0.08282519
000260 51 4a 92 3d 55 98 be bd ed 6a 23 bd 74 47 30 3c
       0.07143081 -0.09306399 -0.039896894 0.010759223
000270 b3 7f 9d 3d ea 4d 8e bd 10 b2 8c bd 19 a4 52 3d
       0.07690372 -0.06948455 -0.068699 0.051426027
000280 5b 85 69 bc 5a 1a b3 bc dc 6d c9 bd 80 d9 07 3d
       -0.014252986 -0.021863151 -0.09835407 0.03316641
000290 89 4b 1c 3d a3 ad e0 3c aa f0 87 3d 88 12 dd 3c
       0.038157973 0.027426546 0.066377 0.026986375
0002a0 ee 23 1b bc c9 76 23 3d 0e 3c 85 bd 54 53 67 bd
       -0.0094690155 0.039908204 -0.06505595 -0.056475952
0002b0 8b 7a ab 3b 49 f1 97 3d b9 80 74 3d 2e e2 b7 3d
       0.005233114 0.07419068 0.059693072 0.08978687
0002c0 29 a9 c6 bd a9 d3 c6 bc e8 22 a6 bd 16 a1 c4 3d
       -0.097002335 -0.02427085 -0.081121266 0.09601037
0002d0 ec 16 62 3d 31 fb 3f 3d 12 38 ef bc 31 21 a8 bd
       0.05519764 0.046870414 -0.029201541 -0.08209456
0002e0 14 f6 8f 3d 5f c7 2d 3d 2e 21 bd 3d 08 b3 a7 3d
       0.070293576 0.042426463 0.09234844 0.081884444
0002f0 2d 0e 42 3d d9 04 a1 bd 38 11 c9 bd 93 09 c9 bd
       0.0473768 -0.07862253 -0.09817737 -0.09816279
000300 f5 1e a7 bd 13 b8 1d 3d ad 54 bf 3d 14 0b c7 bd
       -0.081602015 0.038505625 0.093423225 -0.0971891
000310 c9 58 5d 3d 45 16 c7 bb e2 81 c6 bd 2a 53 c1 bd
       0.05403975 -0.006075653 -0.09692742 -0.094396904
000320 0e 72 ba bd 42 f7 95 bd 6a c2 c0 3d 49 f4 a4 bd
       -0.091037855 -0.07322551 0.094120815 -0.08054406
000330 12 79 86 bd 69 aa 6e bc 1b 9b 9d bd 77 94 ad 3d
       -0.06566061 -0.014566996 -0.076956 0.08475583
000340 ba be 73 3c 3c 2d 59 3d 74 08 09 3d 59 51 57 3c
       0.014877016 0.053021654 0.033455327 0.013141953
000350 d8 22 b9 3d ee 33 b9 3c 4f 7b 31 3d a9 ab 80 bd
       0.09039849 0.02260777 0.043330487 -0.062827416
000360 40 fd 96 3c 4f f7 f9 3c 6d f1 8e 3b c1 ce 28 3d
       0.018431306 0.030513434 0.0043622763 0.0412128
000370 31 d9 a0 3d c5 6b a2 3c a7 75 c2 bd 8d 0c 7b 3d
       0.07853926 0.01982678 -0.09495097 0.061291266
000380 ed 9e 22 3c c9 2a 24 3d 21 8e a2 bd 08 7a b6 bc
       0.009925586 0.040079866 -0.07937265 -0.022274986
000390 cd 23 a6 3d 01 96 ad bd 7b 83 b3 bc 91 50 ac bd
       0.08112297 -0.084758766 -0.02191328 -0.08413804
0003a0 33 44 aa bd 2d a8 67 bd 36 b6 04 bd bc 9b b7 3c
       -0.08313789 -0.05655687 -0.032400332 0.022413127
0003b0 09 7f 4c 3d e7 12 d3 bc 8d a3 1f 3d 3c 0e a5 3d
       0.049925838 -0.02576585 0.038974334 0.080593556
0003c0 fd e3 b6 bb 14 3a 35 bd 10 84 49 bd 46 aa f0 bc
       -0.0055813775 -0.04424484 -0.04919821 -0.029378068
0003d0 1c 3c 19 3d 2a 37 a9 bc 82 e5 39 3d 39 5e 52 bd
       0.03741084 -0.020656187 0.04538489 -0.05135939
0003e0 6e 6f 7c bd d0 40 92 3d 87 3c ab bd 03 5e 48 bc
       -0.061629705 0.07141268 -0.08361154 -0.012229445
0003f0 f1 3e 3a bc f9 af 4e bc ed 09 17 bd 48 3d af bd
       -0.011367545 -0.012615197 -0.0368747 -0.0855661

lower_traingular1.sparse_mask f4 [99, 99]
000000 00 00 80 3f 00 00 00 00 00 00 00 00 00 00 00 00
       1.0 0.0 0.0 0.0
000010 00 00 00 00 00 00 00 00 00 00 00 00 00 00 00 00
       0.0 0.0 0.0 0.0
000020 00 00 00 00 00 00 00 00 00 00 00 00 00 00 00 00
       0.0 0.0 0.0 0.0
000030 00 00 00 00 00 00 00 00 00 00 00 00 00 00 00 00
       0.0 0.0 0.0 0.0
000040 00 00 00 00 00 00 00 00 00 00 00 00 00 00 00 00
       0.0 0.0 0.0 0.0
000050 00 00 00 00 00 00 00 00 00 00 00 00 00 00 00 00
       0.0 0.0 0.0 0.0
000060 00 00 00 00 00 00 00 00 00 00 00 00 00 00 00 00
       0.0 0.0 0.0 0.0
000070 00 00 00 00 00 00 00 00 00 00 00 00 00 00 00 00
       0.0 0.0 0.0 0.0
000080 00 00 00 00 00 00 00 00 00 00 00 00 00 00 00 00
       0.0 0.0 0.0 0.0
000090 00 00 00 00 00 00 00 00 00 00 00 00 00 00 00 00
       0.0 0.0 0.0 0.0
0000a0 00 00 00 00 00 00 00 00 00 00 00 00 00 00 00 00
       0.0 0.0 0.0 0.0
0000b0 00 00 00 00 00 00 00 00 00 00 00 00 00 00 00 00
       0.0 0.0 0.0 0.0
0000c0 00 00 00 00 00 00 00 00 00 00 00 00 00 00 00 00
       0.0 0.0 0.0 0.0
0000d0 00 00 00 00 00 00 00 00 00 00 00 00 00 00 00 00
       0.0 0.0 0.0 0.0
0000e0 00 00 00 00 00 00 00 00 00 00 00 00 00 00 00 00
       0.0 0.0 0.0 0.0
0000f0 00 00 00 00 00 00 00 00 00 00 00 00 00 00 00 00
       0.0 0.0 0.0 0.0
000100 00 00 00 00 00 00 00 00 00 00 00 00 00 00 00 00
       0.0 0.0 0.0 0.0
000110 00 00 00 00 00 00 00 00 00 00 00 00 00 00 00 00
       0.0 0.0 0.0 0.0
000120 00 00 00 00 00 00 00 00 00 00 00 00 00 00 00 00
       0.0 0.0 0.0 0.0
000130 00 00 00 00 00 00 00 00 00 00 00 00 00 00 00 00
       0.0 0.0 0.0 0.0
000140 00 00 00 00 00 00 00 00 00 00 00 00 00 00 00 00
       0.0 0.0 0.0 0.0
000150 00 00 00 00 00 00 00 00 00 00 00 00 00 00 00 00
       0.0 0.0 0.0 0.0
000160 00 00 00 00 00 00 00 00 00 00 00 00 00 00 00 00
       0.0 0.0 0.0 0.0
000170 00 00 00 00 00 00 00 00 00 00 00 00 00 00 00 00
       0.0 0.0 0.0 0.0
000180 00 00 00 00 00 00 00 00 00 00 00 00 00 00 80 3f
       0.0 0.0 0.0 1.0
000190 00 00 80 3f 00 00 00 00 00 00 00 00 00 00 00 00
       1.0 0.0 0.0 0.0
0001a0 00 00 00 00 00 00 00 00 00 00 00 00 00 00 00 00
       0.0 0.0 0.0 0.0
0001b0 00 00 00 00 00 00 00 00 00 00 00 00 00 00 00 00
       0.0 0.0 0.0 0.0
0001c0 00 00 00 00 00 00 00 00 00 00 00 00 00 00 00 00
       0.0 0.0 0.0 0.0
0001d0 00 00 00 00 00 00 00 00 00 00 00 00 00 00 00 00
       0.0 0.0 0.0 0.0
0001e0 00 00 00 00 00 00 00 00 00 00 00 00 00 00 00 00
       0.0 0.0 0.0 0.0
0001f0 00 00 00 00 00 00 00 00 00 00 00 00 00 00 00 00
       0.0 0.0 0.0 0.0
000200 00 00 00 00 00 00 00 00 00 00 00 00 00 00 00 00
       0.0 0.0 0.0 0.0
000210 00 00 00 00 00 00 00 00 00 00 00 00 00 00 00 00
       0.0 0.0 0.0 0.0
000220 00 00 00 00 00 00 00 00 00 00 00 00 00 00 00 00
       0.0 0.0 0.0 0.0
000230 00 00 00 00 00 00 00 00 00 00 00 00 00 00 00 00
       0.0 0.0 0.0 0.0
000240 00 00 00 00 00 00 00 00 00 00 00 00 00 00 00 00
       0.0 0.0 0.0 0.0
000250 00 00 00 00 00 00 00 00 00 00 00 00 00 00 00 00
       0.0 0.0 0.0 0.0
000260 00 00 00 00 00 00 00 00 00 00 00 00 00 00 00 00
       0.0 0.0 0.0 0.0
000270 00 00 00 00 00 00 00 00 00 00 00 00 00 00 00 00
       0.0 0.0 0.0 0.0
000280 00 00 00 00 00 00 00 00 00 00 00 00 00 00 00 00
       0.0 0.0 0.0 0.0
000290 00 00 00 00 00 00 00 00 00 00 00 00 00 00 00 00
       0.0 0.0 0.0 0.0
0002a0 00 00 00 00 00 00 00 00 00 00 00 00 00 00 00 00
       0.0 0.0 0.0 0.0
0002b0 00 00 00 00 00 00 00 00 00 00 00 00 00 00 00 00
       0.0 0.0 0.0 0.0
0002c0 00 00 00 00 00 00 00 00 00 00 00 00 00 00 00 00
       0.0 0.0 0.0 0.0
0002d0 00 00 00 00 00 00 00 00 00 00 00 00 00 00 00 00
       0.0 0.0 0.0 0.0
0002e0 00 00 00 00 00 00 00 00 00 00 00 00 00 00 00 00
       0.0 0.0 0.0 0.0
0002f0 00 00 00 00 00 00 00 00 00 00 00 00 00 00 00 00
       0.0 0.0 0.0 0.0
000300 00 00 00 00 00 00 00 00 00 00 00 00 00 00 00 00
       0.0 0.0 0.0 0.0
000310 00 00 00 00 00 00 00 00 00 00 80 3f 00 00 80 3f
       0.0 0.0 1.0 1.0
000320 00 00 80 3f 00 00 00 00 00 00 00 00 00 00 00 00
       1.0 0.0 0.0 0.0
000330 00 00 00 00 00 00 00 00 00 00 00 00 00 00 00 00
       0.0 0.0 0.0 0.0
000340 00 00 00 00 00 00 00 00 00 00 00 00 00 00 00 00
       0.0 0.0 0.0 0.0
000350 00 00 00 00 00 00 00 00 00 00 00 00 00 00 00 00
       0.0 0.0 0.0 0.0
000360 00 00 00 00 00 00 00 00 00 00 00 00 00 00 00 00
       0.0 0.0 0.0 0.0
000370 00 00 00 00 00 00 00 00 00 00 00 00 00 00 00 00
       0.0 0.0 0.0 0.0
000380 00 00 00 00 00 00 00 00 00 00 00 00 00 00 00 00
       0.0 0.0 0.0 0.0
000390 00 00 00 00 00 00 00 00 00 00 00 00 00 00 00 00
       0.0 0.0 0.0 0.0
0003a0 00 00 00 00 00 00 00 00 00 00 00 00 00 00 00 00
       0.0 0.0 0.0 0.0
0003b0 00 00 00 00 00 00 00 00 00 00 00 00 00 00 00 00
       0.0 0.0 0.0 0.0
0003c0 00 00 00 00 00 00 00 00 00 00 00 00 00 00 00 00
       0.0 0.0 0.0 0.0
0003d0 00 00 00 00 00 00 00 00 00 00 00 00 00 00 00 00
       0.0 0.0 0.0 0.0
0003e0 00 00 00 00 00 00 00 00 00 00 00 00 00 00 00 00
       0.0 0.0 0.0 0.0
0003f0 00 00 00 00 00 00 00 00 00 00 00 00 00 00 00 00
       0.0 0.0 0.0 0.0

upper_traingular2.weight f4 [99, 99]
000000 4f 10 a1 3d f0 6d 9e 3d f0 38 b3 bd 07 0a d7 b9
       0.07864439 0.07735813 -0.08751094 -0.00041015467
000010 9f 15 93 bb 38 c7 c3 3d 62 51 c0 bc 75 c0 c0 3d
       -0.0044886614 0.09559482 -0.023476306 0.09411708
000020 0d 75 39 bd cf 8b 35 bd fe db c5 bc 73 e5 83 bd
       -0.045277644 -0.044322785 -0.024152752 -0.06440248
000030 c5 3e b2 3d d1 10 cc bb ae c5 6b 3c 8d a6 42 bd
       0.087033786 -0.0062275906 0.014390392 -0.047522116
000040 12 f1 3c bd fa 3e 60 3d 82 09 42 3d 45 8e a1 3c
       -0.04612834 0.05474756 0.04737235 0.01972116
000050 16 52 c9 bc 1c c6 3e 3d 7d 28 82 3d 43 d0 ce bd
       -0.024575274 0.04657565 0.06355379 -0.100983165
000060 9f f4 ab 3d c1 bf af 3d 7b 6e 90 bd cc 04 d8 bc
       0.08396267 0.08581496 -0.070523225 -0.026369475
000070 f5 7d a9 bd e3 51 a4 3c 5a 22 de bc d1 c9 2d bd
       -0.082759775 0.020058578 -0.02711599 -0.042428795
000080 25 b3 20 bd ae 62 b3 bd 21 96 d1 3d 84 af 89 bd
       -0.039233346 -0.08759056 0.10233713 -0.0672293
000090 9e 02 be bd f2 66 46 bb cc ae 46 3d 3f e2 85 bd
       -0.09277843 -0.0030273763 0.048506543 -0.06537294
0000a0 e6 1a cc bc 8a 55 1d 3c fb fd 0d bd 0e d6 56 bd
       -0.02491517 0.009602914 -0.034666043 -0.052450232
0000b0 1e bb e2 bc 6f 12 aa 3c c9 a5 db 3b 6d b7 8c bd
       -0.027677115 0.020760743 0.0067031127 -0.06870923
0000c0 c9 2b 10 3d 0f fe b6 bd f3 27 12 bd 77 16 59 3d
       0.035198007 -0.089351766 -0.03568263 0.05299994
0000d0 c5 78 85 bd 17 27 bb bc 62 bf 1a bd 55 1e b6 3d
       -0.065171756 -0.022845788 -0.037780173 0.08892504
0000e0 c0 a8 4d 3c ad ea a4 bd ed aa 00 bd 56 4d e1 bd
       0.01255244 -0.08052573 -0.031413008 -0.11001079
0000f0 95 1a 96 bd 1c a8 de bd a3 86 34 3b b6 d7 4c bd
       -0.07329289 -0.10871908 0.002754607 -0.050010405
000100 48 39 bc 3d 77 21 d1 bd ee 80 66 3c a6 8b bb bd
       0.09190613 -0.10211461 0.014068825 -0.09157495
000110 b7 45 73 bd 1e ff 13 bd bb c6 7c 3d ee 43 d7 bb
       -0.059392657 -0.03613197 0.06171296 -0.006569377
000120 d8 8d 18 bd e6 e5 41 bd 32 3f a1 bd 88 a2 89 bd
       -0.037244648 -0.04733839 -0.07873382 -0.067204535
000130 12 93 e7 bc ce 36 70 ba ae d0 b6 bc e7 65 bc 3d
       -0.02826837 -0.000916344 -0.022316303 0.09199124
000140 8f 62 00 3d 02 26 93 3d e3 31 11 3d 7e ef ef ba
       0.031343993 0.07184984 0.035447966 -0.0018305627
000150 72 24 ef bc 36 af 18 3d f9 e0 0f 3d 03 7e b6 bc
       -0.029192183 0.03727647 0.03512666 -0.022276884
000160 2d 33 d8 3c 21 62 1a bc e8 c5 9d bd 13 57 ab bd
       0.02639159 -0.00942281 -0.07703763 -0.083662175
000170 bd 9e ad bd 30 1a 36 bd e4 56 5f 3d d4 ba b3 bd
       -0.084775425 -0.044458568 0.054526225 -0.08775869
000180 87 a3 a1 bd 70 84 c2 3d dc 28 59 3d c7 04 84 3d
       -0.078925185 0.09497917 0.053017482 0.06446224
000190 1d 83 9b 3d 02 72 90 bd 05 b6 44 bd dc b4 b8 bd
       0.07593367 -0.07052995 -0.04802515 -0.09018871
0001a0 e0 db 1c bd 11 6c f2 3c cf 6e e6 3b c5 39 80 bd
       -0.038295627 0.029592546 0.0070322524 -0.06261019
0001b0 21 de bf bd 6f b8 37 bc 6d c5 0c bd 07 2f e8 3c
       -0.093685396 -0.011213406 -0.034367967 0.028342737
0001c0 e0 cd 88 bb 95 b6 d5 3a 27 8b cf bd 25 d9 41 3d
       -0.004174933 0.0016305024 -0.10133963 0.047326226
0001d0 bb 1c 7f bd 94 24 ef 3c 52 62 7d bd 98 c8 bc 3d
       -0.06228326 0.029192246 -0.061861344 0.09217948
0001e0 bd 4b 15 3e 1d 0d 33 bd 5e c9 22 3d 13 b6 a2 3d
       0.14579673 -0.043713678 0.03974282 0.07944884
0001f0 cf e2 2f 3d b2 4d 61 3c 8c ac a1 3c e9 fa 0b 3a
       0.04294091 0.013751434 0.019735597 0.0005339818
000200 9e c8 f7 3c d2 d8 3a 3d 57 bf 87 bc df 2c 7f 3d
       0.030247029 0.045616932 -0.01657073 0.06229865
000210 06 8d 6e bc f5 c7 6e 3b 14 77 99 3d d3 7b 54 bd
       -0.01455999 0.0036435102 0.074934155 -0.0518759
000220 09 e6 5a bd 48 5c 22 be 91 c7 b0 bd be ac 72 bd
       -0.053442035 -0.15855515 -0.08631814 -0.05924677
000230 ff 8c 99 3d 36 0b be bd c5 06 ee 3c 97 fe cc 3d
       0.07497596 -0.09279482 0.029055962 0.10009497
000240 69 22 3d 3d 7e 82 8e bd cb 82 cc bd f8 8f 09 3d
       0.046175394 -0.06958483 -0.09985884 0.033584565
000250 d0 f5 a7 3d dc 2c 62 3d 74 9e 81 bd 3b 7d a1 3d
       0.08201182 0.055218562 -0.06329051 0.07885214
000260 c4 36 a7 3a c0 41 38 bd 45 df 0f bd 4a 01 23 3c
       0.001275741 -0.04498458 -0.035125036 0.009949038
000270 c4 2b d0 3d ca 5b 9a 3d 36 e8 88 3a d9 b5 a5 bb
       0.10164598 0.075370386 0.0010445181 -0.0050570783
000280 50 48 7d bd f4 a2 bd 3c 41 f1 97 bd fc 7b 09 3c
       -0.06183654 0.023148991 -0.074190624 0.008391377
000290 85 60 da bc 9c 9c d7 bd e6 d7 71 bd 2e cf a8 3d
       -0.026657352 -0.10527918 -0.059043787 0.082426414
0002a0 e1 0b 06 bc 56 59 22 3d 79 be 55 bd 0e d5 74 3c
       -0.008181543 0.03963598 -0.052183602 0.014943374
0002b0 6a 1d 78 3d 4d 07 53 be 09 90 c8 3d 0d 23 82 3d
       0.060574926 -0.20608254 0.097930975 0.06354342
0002c0 d5 9c ae 3b 67 6f 32 bd b9 0b 5c bd a0 6b 3a 3d
       0.0053287544 -0.043563273 -0.053722117 0.045512795
0002d0 fc bf 59 3d a7 e3 56 3c 12 5b d1 3b 4c 03 c4 bd
       0.053161606 0.0131158 0.0063890303 -0.09570941
0002e0 97 a7 95 3d 06 bf 1b bd 0f 66 81 bd 3d 82 58 3d
       0.07307356 -0.03802397 -0.06318294 0.05285858
0002f0 fd 0f ba bd 0a 79 56 3c da ab 9f 3c 7a 8f a6 3b
       -0.09085081 0.013090381 0.019491125 0.0050830217
000300 52 95 a1 3d c6 ad fe bd 37 7d d3 bd e0 d8 90 3d
       0.07889809 -0.124354884 -0.10326617 0.070726156
000310 95 19 06 3d f8 9e 59 3d 61 f0 c1 3d d7 02 d5 3c
       0.03273924 0.05313012 0.09469677 0.02600233
000320 29 2b af 3d 1e ec 93 bd 4d cf 46 bd 15 d9 2f 3d
       0.08553154 -0.0722277 -0.04853754 0.042931635
000330 c8 12 a2 3d ac c6 bc bc f6 0b 5e 3d 8f 21 b1 3d
       0.079137385 -0.023043953 0.054210626 0.08648979
000340 68 39 4d 3d 9b ec 88 3d 76 b1 05 3d 1a 46 a7 38
       0.050103575 0.06685754 0.032639943 7.976238e-05
000350 d2 3d 6f bc 56 39 1d bc fd 19 90 3d 83 8e 9b 3d
       -0.014602141 -0.0095961895 0.07036207 0.07595541
000360 9e 10 c1 3d 81 f7 4c bd 35 41 7e bd c0 75 bf 3d
       0.094269976 -0.050040726 -0.062073905 0.09348631
000370 58 a9 e1 bb a8 78 4e bd 16 4a 0f bc e3 1c 9f bc
       -0.0068866424 -0.050408036 -0.008745691 -0.019422954
000380 1f 1b d4 bc 8d 4e c0 3c d8 bd 37 bd 36 c4 ab bc
       -0.025891839 0.023474956 -0.044858783 -0.020967584
000390 63 e3 ba 3d 0f 49 bc bd 02 7f f9 3d 36 d3 5d 3d
       0.09125402 -0.09193622 0.12182428 0.054156505
0003a0 ae f0 e9 3d 03 7d 1d 3d 95 5f 33 bd ac ce 80 3c
       0.11422859 0.0384493 -0.043792326 0.015723549
0003b0 67 4a 0f bd 32 18 b2 bd 25 64 77 3d 61 95 ed 3d
       -0.034983065 -0.08696021 0.06039824 0.116007574
0003c0 d3 fa 35 bd 7b 09 b1 3d c5 49 82 bd 08 5b 79 3d
       -0.044428658 0.086443864 -0.06361727 0.06087783
0003d0 32 01 b9 3d 9e 63 ec bc 62 c9 c2 3d f4 b1 02 3d
       0.09033431 -0.028856095 0.09511067 0.03190799
0003e0 d5 97 68 bd 11 98 9f 3d 4a 83 4e bd 51 fb 10 3d
       -0.056785423 0.07792676 -0.050418176 0.035395924
0003f0 cb fa 8a 3d 35 97 66 bd ef 83 00 3d 88 6e 39 bc
       0.06786116 -0.056296546 0.03137582 -0.011317857

upper_traingular2.sparse_mask f4 [99, 99]
000000 00 00 80 3f 00 00 80 3f 00 00 80 3f 00 00 80 3f
       1.0 1.0 1.0 1.0
000010 00 00 80 3f 00 00 80 3f 00 00 80 3f 00 00 80 3f
       1.0 1.0 1.0 1.0
000020 00 00 80 3f 00 00 80 3f 00 00 80 3f 00 00 80 3f
       1.0 1.0 1.0 1.0
000030 00 00 80 3f 00 00 80 3f 00 00 80 3f 00 00 80 3f
       1.0 1.0 1.0 1.0
000040 00 00 80 3f 00 00 80 3f 00 00 80 3f 00 00 80 3f
       1.0 1.0 1.0 1.0
000050 00 00 80 3f 00 00 80 3f 00 00 80 3f 00 00 80 3f
       1.0 1.0 1.0 1.0
000060 00 00 80 3f 00 00 80 3f 00 00 80 3f 00 00 80 3f
       1.0 1.0 1.0 1.0
000070 00 00 80 3f 00 00 80 3f 00 00 80 3f 00 00 80 3f
       1.0 1.0 1.0 1.0
000080 00 00 80 3f 00 00 80 3f 00 00 80 3f 00 00 80 3f
       1.0 1.0 1.0 1.0
000090 00 00 80 3f 00 00 80 3f 00 00 80 3f 00 00 80 3f
       1.0 1.0 1.0 1.0
0000a0 00 00 80 3f 00 00 80 3f 00 00 80 3f 00 00 80 3f
       1.0 1.0 1.0 1.0
0000b0 00 00 80 3f 00 00 80 3f 00 00 80 3f 00 00 80 3f
       1.0 1.0 1.0 1.0
0000c0 00 00 80 3f 00 00 80 3f 00 00 80 3f 00 00 80 3f
       1.0 1.0 1.0 1.0
0000d0 00 00 80 3f 00 00 80 3f 00 00 80 3f 00 00 80 3f
       1.0 1.0 1.0 1.0
0000e0 00 00 80 3f 00 00 80 3f 00 00 80 3f 00 00 80 3f
       1.0 1.0 1.0 1.0
0000f0 00 00 80 3f 00 00 80 3f 00 00 80 3f 00 00 80 3f
       1.0 1.0 1.0 1.0
000100 00 00 80 3f 00 00 80 3f 00 00 80 3f 00 00 80 3f
       1.0 1.0 1.0 1.0
000110 00 00 80 3f 00 00 80 3f 00 00 80 3f 00 00 80 3f
       1.0 1.0 1.0 1.0
000120 00 00 80 3f 00 00 80 3f 00 00 80 3f 00 00 80 3f
       1.0 1.0 1.0 1.0
000130 00 00 80 3f 00 00 80 3f 00 00 80 3f 00 00 80 3f
       1.0 1.0 1.0 1.0
000140 00 00 80 3f 00 00 80 3f 00 00 80 3f 00 00 80 3f
       1.0 1.0 1.0 1.0
000150 00 00 80 3f 00 00 80 3f 00 00 80 3f 00 00 80 3f
       1.0 1.0 1.0 1.0
000160 00 00 80 3f 00 00 80 3f 00 00 80 3f 00 00 80 3f
       1.0 1.0 1.0 1.0
000170 00 00 80 3f 00 00 80 3f 00 00 80 3f 00 00 80 3f
       1.0 1.0 1.0 1.0
000180 00 00 80 3f 00 00 80 3f 00 00 80 3f 00 00 00 00
       1.0 1.0 1.0 0.0
000190 00 00 80 3f 00 00 80 3f 00 00 80 3f 00 00 80 3f
       1.0 1.0 1.0 1.0
0001a0 00 00 80 3f 00 00 80 3f 00 00 80 3f 00 00 80 3f
       1.0 1.0 1.0 1.0
0001b0 00 00 80 3f 00 00 80 3f 00 00 80 3f 00 00 80 3f
       1.0 1.0 1.0 1.0
0001c0 00 00 80 3f 00 00 80 3f 00 00 80 3f 00 00 80 3f
       1.0 1.0 1.0 1.0
0001d0 00 00 80 3f 00 00 80 3f 00 00 80 3f 00 00 80 3f
       1.0 1.0 1.0 1.0
0001e0 00 00 80 3f 00 00 80 3f 00 00 80 3f 00 00 80 3f
       1.0 1.0 1.0 1.0
0001f0 00 00 80 3f 00 00 80 3f 00 00 80 3f 00 00 80 3f
       1.0 1.0 1.0 1.0
000200 00 00 80 3f 00 00 80 3f 00 00 80 3f 00 00 80 3f
       1.0 1.0 1.0 1.0
000210 00 00 80 3f 00 00 80 3f 00 00 80 3f 00 00 80 3f
       1.0 1.0 1.0 1.0
000220 00 00 80 3f 00 00 80 3f 00 00 80 3f 00 00 80 3f
       1.0 1.0 1.0 1.0
000230 00 00 80 3f 00 00 80 3f 00 00 80 3f 00 00 80 3f
       1.0 1.0 1.0 1.0
000240 00 00 80 3f 00 00 80 3f 00 00 80 3f 00 00 80 3f
       1.0 1.0 1.0 1.0
000250 00 00 80 3f 00 00 80 3f 00 00 80 3f 00 00 80 3f
       1.0 1.0 1.0 1.0
000260 00 00 80 3f 00 00 80 3f 00 00 80 3f 00 00 80 3f
       1.0 1.0 1.0 1.0
000270 00 00 80 3f 00 00 80 3f 00 00 80 3f 00 00 80 3f
       1.0 1.0 1.0 1.0
000280 00 00 80 3f 00 00 80 3f 00 00 80 3f 00 00 80 3f
       1.0 1.0 1.0 1.0
000290 00 00 80 3f 00 00 80 3f 00 00 80 3f 00 00 80 3f
       1.0 1.0 1.0 1.0
0002a0 00 00 80 3f 00 00 80 3f 00 00 80 3f 00 00 80 3f
       1.0 1.0 1.0 1.0
0002b0 00 00 80 3f 00 00 80 3f 00 00 80 3f 00 00 80 3f
       1.0 1.0 1.0 1.0
0002c0 00 00 80 3f 00 00 80 3f 00 00 80 3f 00 00 80 3f
       1.0 1.0 1.0 1.0
0002d0 00 00 80 3f 00 00 80 3f 00 00 80 3f 00 00 80 3f
       1.0 1.0 1.0 1.0
0002e0 00 00 80 3f 00 00 80 3f 00 00 80 3f 00 00 80 3f
       1.0 1.0 1.0 1.0
0002f0 00 00 80 3f 00 00 80 3f 00 00 80 3f 00 00 80 3f
       1.0 1.0 1.0 1.0
000300 00 00 80 3f 00 00 80 3f 00 00 80 3f 00 00 80 3f
       1.0 1.0 1.0 1.0
000310 00 00 80 3f 00 00 80 3f 00 00 00 00 00 00 00 00
       1.0 1.0 0.0 0.0
000320 00 00 80 3f 00 00 80 3f 00 00 80 3f 00 00 80 3f
       1.0 1.0 1.0 1.0
000330 00 00 80 3f 00 00 80 3f 00 00 80 3f 00 00 80 3f
       1.0 1.0 1.0 1.0
000340 00 00 80 3f 00 00 80 3f 00 00 80 3f 00 00 80 3f
       1.0 1.0 1.0 1.0
000350 00 00 80 3f 00 00 80 3f 00 00 80 3f 00 00 80 3f
       1.0 1.0 1.0 1.0
000360 00 00 80 3f 00 00 80 3f 00 00 80 3f 00 00 80 3f
       1.0 1.0 1.0 1.0
000370 00 00 80 3f 00 00 80 3f 00 00 80 3f 00 00 80 3f
       1.0 1.0 1.0 1.0
000380 00 00 80 3f 00 00 80 3f 00 00 80 3f 00 00 80 3f
       1.0 1.0 1.0 1.0
000390 00 00 80 3f 00 00 80 3f 00 00 80 3f 00 00 80 3f
       1.0 1.0 1.0 1.0
0003a0 00 00 80 3f 00 00 80 3f 00 00 80 3f 00 00 80 3f
       1.0 1.0 1.0 1.0
0003b0 00 00 80 3f 00 00 80 3f 00 00 80 3f 00 00 80 3f
       1.0 1.0 1.0 1.0
0003c0 00 00 80 3f 00 00 80 3f 00 00 80 3f 00 00 80 3f
       1.0 1.0 1.0 1.0
0003d0 00 00 80 3f 00 00 80 3f 00 00 80 3f 00 00 80 3f
       1.0 1.0 1.0 1.0
0003e0 00 00 80 3f 00 00 80 3f 00 00 80 3f 00 00 80 3f
       1.0 1.0 1.0 1.0
0003f0 00 00 80 3f 00 00 80 3f 00 00 80 3f 00 00 80 3f
       1.0 1.0 1.0 1.0

lower_traingular2.weight f4 [99, 99]
000000 5b 3b 98 bd 5c 45 92 3d ff 0e be 3d b9 48 a3 3d
       -0.07433196 0.071421355 0.09280204 0.07972855
000010 ca 5e 23 bd 54 42 04 3d c7 d9 2c bd 3d a5 21 bd
       -0.03988532 0.032289818 -0.042199876 -0.039464224
000020 ef ef c3 3d b4 86 8a 3d 02 22 b3 bd 70 98 a4 3d
       0.09567248 0.06763974 -0.08746721 0.08036888
000030 d3 69 65 bd 3c 42 c0 bc 0d 7d 4f 3b 60 39 49 3d
       -0.056009125 -0.023469083 0.003166023 0.049126983
000040 b0 d8 75 3d 99 84 4d bd e0 0f 5c bd ea 15 34 bd
       0.060021102 -0.050175283 -0.053726077 -0.04396621
000050 25 49 00 bd 2e d3 8a 3d 76 88 74 bd 31 e5 6b 3d
       -0.031319756 0.067785606 -0.05970045 0.05759162
000060 24 d4 a9 bd 9a 6c cd 3d 3f 80 8e 3d 05 3a 1d 3d
       -0.08292416 0.1003048 0.06958055 0.03838541
000070 18 ef 96 bd a4 c2 23 bc bd a7 ba 3d e9 c0 36 39
       -0.07369822 -0.009995136 0.09114025 0.00017428737
000080 a1 c8 4a 3d b5 47 0f 3c ee 36 b8 3d fe 15 99 bc
       0.04950774 0.008745124 0.08994852 -0.018687245
000090 fe 42 c9 3d 47 e5 80 bc c3 ae 4f 3d ee 4e 93 bb
       0.09827231 -0.015734328 0.050703775 -0.004495493
0000a0 48 c4 92 bd b3 7b c1 bd 12 43 b8 bd d2 5f 63 3c
       -0.07166344 -0.09447422 -0.08997168 0.013877826
0000b0 86 98 4d 3d 14 b9 8c bb c7 c5 95 3d d9 02 8a 3d
       0.050194286 -0.004294524 0.07313114 0.067388244
0000c0 9d 58 bd 3d d4 8d 0e 3d c2 f6 7c bc c1 ed 6f bd
       0.09245417 0.034803227 -0.015439691 -0.05857635
0000d0 c5 ee 98 3c e6 49 28 3d c0 89 58 bd 7b 3b 90 bb
       0.018668542 0.0410861 -0.052865744 -0.004401622
0000e0 d5 7c 73 bd 3b cb ef 3c dd f1 c9 bd 64 01 96 3d
       -0.05944522 0.029271713 -0.09860585 0.07324484
0000f0 93 1c 93 3b cf cb 0c 3d e4 0c 03 3d af 63 b4 bd
       0.0044894903 0.034374055 0.031994715 -0.08808076
000100 11 8d c7 3d fd d1 ab 3d 1f e2 23 3d 94 b9 ab bd
       0.09743703 0.083896615 0.040010568 -0.083850056
000110 f0 17 34 3d b7 11 80 bc 90 42 b4 bc ec 4a e7 bc
       0.04396814 -0.015633447 -0.022004396 -0.028233968
000120 47 db a5 bd c8 0f 57 3d 64 6a b9 3d 8d 01 c2 3d
       -0.080984645 0.052505285 0.090534955 0.09472952
000130 fb a0 a2 bd 07 92 a4 bd fd 3c c2 3d 0d c8 0f bd
       -0.07940861 -0.08035665 0.09484289 -0.035102893
000140 2d 17 61 3d a8 1c 32 bc 25 76 cd bd dc a3 20 3d
       0.054953743 -0.01087109 -0.100323 0.03921877
000150 12 6b 90 bd e3 73 bc 3d fc d0 7e bd d0 c4 c9 bd
       -0.07051672 0.09201791 -0.06221102 -0.09851992
000160 d8 ed 57 3d 21 03 a0 3d 34 9d 40 bd e4 48 75 3d
       0.05271706 0.07813097 -0.04702492 0.059883967
000170 51 6e 87 bd 87 69 55 3d 0b 50 82 3c c9 1d be bc
       -0.06612838 0.05210259 0.015907308 -0.023207562
000180 71 c0 90 bd 6c b4 08 3d 6c 18 bf 3d e3 8d 81 3d
       -0.07067955 0.03337519 0.0933083 0.06325891
000190 08 71 43 3a 42 07 0a bd 59 32 89 bd 38 83 ae bd
       0.00074555026 -0.033698328 -0.06699056 -0.08521122
0001a0 5e 30 55 bc ee c5 f2 b9 4f 81 41 3d ca d6 c5 3d
       -0.01301202 -0.00046305306 0.04724246 0.096601084
0001b0 d7 3c 2a 3d 02 be 59 bb a6 5c 6a 3d e9 03 bd bd
       0.041561928 -0.0033224826 0.057217263 -0.092292614
0001c0 fb 87 cc 3d ea 48 b1 bd 8c 2f 10 3d 66 3e c7 bc
       0.09986874 -0.086564854 0.035201594 -0.024321746
0001d0 81 1f aa 3b 27 35 7b bc 6d 32 be bd 6e ad 47 3c
       0.005191744 -0.015332497 -0.09286962 0.012187345
0001e0 ee a7 2f 3d 43 a3 45 3d bc 83 8f 3d 9d 8d ba 3d
       0.04288476 0.0482514 0.07007548 0.09109042
0001f0 20 ed 9f bd 72 bf c4 bd 6f 7e 2c 3d fe 7a 3d bd
       -0.078089 -0.09606828 0.042112764 -0.046259873
000200 60 69 97 bd 6c 0d 7a bc 36 e8 95 3d 9e 16 08 3d
       -0.073931456 -0.015261989 0.07319681 0.033224694
000210 8b 79 07 3c 30 d5 92 bd dd 15 3d 3d 8d 32 92 3d
       0.008268724 -0.071695685 0.04616343 0.07138548
000220 e3 b3 c2 3d ba 03 73 bd ab 31 bc 3d 7d 21 c9 bd
       0.09506967 -0.059329726 0.09189161 -0.098208405
000230 b2 b8 f6 3b 5e da a4 bd 0c 07 3b 3d 7c b1 b6 bc
       0.0075293416 -0.08049463 0.045661017 -0.022301428
000240 07 ea 82 bd c0 13 c3 3d 28 bd 30 bd 54 b9 32 3d
       -0.063922934 0.095252514 -0.043149143 0.043633774
000250 e3 52 73 bd 9b 22 3f bd bb 53 21 3d 91 61 c0 3b
       -0.05940522 -0.04666386 0.039386492 0.005871006
000260 c2 dc 9d bd d5 cc f4 bb 16 f1 80 bd 42 04 a9 3d
       -0.07708122 -0.007470707 -0.062959835 0.08252765
000270 e0 d5 bd bd d4 e7 e0 3c 95 12 91 3d ab 74 6a bd
       -0.09269309 0.027454294 0.07083622 -0.05724017
000280 70 94 62 3d c0 37 70 bd a6 0b 97 3c ca 33 f1 bc
       0.055317342 -0.058646917 0.018438172 -0.02944364
000290 12 85 02 bd e1 2e f6 bc 19 95 86 3b 2e 78 54 3d
       -0.031865187 -0.03005165 0.0041071293 0.051872425
0002a0 37 8b 08 3a 93 5f bd bd 8c 51 87 3d 84 3d d6 3c
       0.0005208733 -0.09246745 0.06607351 0.02615238
0002b0 90 f7 6a 3c 98 c1 78 bd 9c 6b ea 3a a2 d1 a0 bd
       0.01434125 -0.0607315 0.0017884853 -0.07852484
0002c0 87 45 0e 3d 65 94 9a 3d 84 57 99 3d 16 e6 53 3d
       0.034734275 0.07547835 0.074873954 0.0517331
0002d0 7c 71 51 bd 18 44 57 3d de bf b1 3d 96 70 01 bd
       -0.051133618 0.052555174 0.08679174 -0.03160151
0002e0 22 e3 59 3d da ca 0d bd 2c f6 0c 3d 90 03 f6 3c
       0.053195126 -0.034617282 0.034414455 0.030030996
0002f0 3c 17 c5 bc ca 1c 9f bd 8a 76 42 3d 00 cb 10 3c
       -0.02405893 -0.07769163 0.04747633 0.0088374615
000300 99 0b 54 bc 8f b2 75 3d f4 30 19 bd c7 e5 aa bd
       -0.012942218 0.05998474 -0.0374002 -0.08344608
000310 66 53 b1 3d 0e d5 18 bd 31 05 55 bd ff d0 20 3c
       0.08658485 -0.03731256 -0.052006904 0.009815454
000320 71 d9 2e bd 34 2c 0a 3c 06 6f 37 3d 70 02 a9 3d
       -0.042687837 0.00843339 0.044783615 0.08252418
000330 9b f5 1e bd a2 e2 ba bd d0 fa 9f 3c b7 66 cf bc
       -0.038808446 -0.09125258 0.019528776 -0.025317533
000340 90 a9 92 3d 64 c8 01 3c 1c 4a b5 bd 4c 9b 2b bd
       0.07161248 0.007921312 -0.08852026 -0.04189615
000350 4b 96 43 bd 30 57 89 bc 74 fc af 3d f5 99 f5 bb
       -0.047750752 -0.016765207 0.085930735 -0.0074951597
000360 73 cd 39 3d 51 6c a9 bd 05 11 6a bd 70 45 40 3d
       0.045361947 -0.08272613 -0.057145137 0.04694122
000370 99 0e 55 bc 43 7a d5 bc 5b 5a bd 3c e2 c6 85 bd
       -0.013003969 -0.026059275 0.023114374 -0.065320745
000380 e6 93 9f bd b1 05 35 3d 11 9e ab 3d 88 f0 d5 bb
       -0.07791881 0.04419488 0.08379758 -0.0065289177
000390 85 93 f7 3c 97 b5 54 3d d7 36 a1 bd ce 41 cc bb
       0.03022171 0.05193099 -0.07871788 -0.0062334305
0003a0 00 c6 a4 3d 86 91 a2 bd fa 53 b2 bd 0c d9 c1 bb
       0.08045578 -0.07937913 -0.087074235 -0.0059157666
0003b0 a6 4a 64 bd 58 32 c4 bd 8b 8c 89 3d e6 0e 89 bc
       -0.055735253 -0.09579915 0.067162596 -0.016730737
0003c0 42 83 2f bd 2a 31 11 3d 18 3f 17 3d de a2 87 bd
       -0.042849787 0.035447277 0.036925405 -0.06622861
0003d0 79 ff cc bd 8b 67 db bb fb 37 12 bc e2 0e d0 bb
       -0.10009665 -0.006695693 -0.00892448 -0.0063494304
0003e0 a5 02 c6 bd 56 81 9c 3d b3 d3 a6 bc 8d 32 27 3a
       -0.09668473 0.07641856 -0.020364618 0.0006378077
0003f0 58 08 34 3d f2 6c 88 bd 15 e0 4a bc 5c 67 ad bd
       0.04395327 -0.06661405 -0.012382527 -0.0846698

lower_traingular2.sparse_mask f4 [99, 99]
000000 00 00 80 3f 00 00 00 00 00 00 00 00 00 00 00 00
       1.0 0.0 0.0 0.0
000010 00 00 00 00 00 00 00 00 00 00 00 00 00 00 00 00
       0.0 0.0 0.0 0.0
000020 00 00 00 00 00 00 00 00 00 00 00 00 00 00 00 00
       0.0 0.0 0.0 0.0
000030 00 00 00 00 00 00 00 00 00 00 00 00 00 00 00 00
       0.0 0.0 0.0 0.0
000040 00 00 00 00 00 00 00 00 00 00 00 00 00 00 00 00
       0.0 0.0 0.0 0.0
000050 00 00 00 00 00 00 00 00 00 00 00 00 00 00 00 00
       0.0 0.0 0.0 0.0
000060 00 00 00 00 00 00 00 00 00 00 00 00 00 00 00 00
       0.0 0.0 0.0 0.0
000070 00 00 00 00 00 00 00 00 00 00 00 00 00 00 00 00
       0.0 0.0 0.0 0.0
000080 00 00 00 00 00 00 00 00 00 00 00 00 00 00 00 00
       0.0 0.0 0.0 0.0
000090 00 00 00 00 00 00 00 00 00 00 00 00 00 00 00 00
       0.0 0.0 0.0 0.0
0000a0 00 00 00 00 00 00 00 00 00 00 00 00 00 00 00 00
       0.0 0.0 0.0 0.0
0000b0 00 00 00 00 00 00 00 00 00 00 00 00 00 00 00 00
       0.0 0.0 0.0 0.0
0000c0 00 00 00 00 00 00 00 00 00 00 00 00 00 00 00 00
       0.0 0.0 0.0 0.0
0000d0 00 00 00 00 00 00 00 00 00 00 00 00 00 00 00 00
       0.0 0.0 0.0 0.0
0000e0 00 00 00 00 00 00 00 00 00 00 00 00 00 00 00 00
       0.0 0.0 0.0 0.0
0000f0 00 00 00 00 00 00 00 00 00 00 00 00 00 00 00 00
       0.0 0.0 0.0 0.0
000100 00 00 00 00 00 00 00 00 00 00 00 00 00 00 00 00
       0.0 0.0 0.0 0.0
000110 00 00 00 00 00 00 00 00 00 00 00 00 00 00 00 00
       0.0 0.0 0.0 0.0
000120 00 00 00 00 00 00 00 00 00 00 00 00 00 00 00 00
       0.0 0.0 0.0 0.0
000130 00 00 00 00 00 00 00 00 00 00 00 00 00 00 00 00
       0.0 0.0 0.0 0.0
000140 00 00 00 00 00 00 00 00 00 00 00 00 00 00 00 00
       0.0 0.0 0.0 0.0
000150 00 00 00 00 00 00 00 00 00 00 00 00 00 00 00 00
       0.0 0.0 0.0 0.0
000160 00 00 00 00 00 00 00 00 00 00 00 00 00 00 00 00
       0.0 0.0 0.0 0.0
000170 00 00 00 00 00 00 00 00 00 00 00 00 00 00 00 00
       0.0 0.0 0.0 0.0
000180 00 00 00 00 00 00 00 00 00 00 00 00 00 00 80 3f
       0.0 0.0 0.0 1.0
000190 00 00 80 3f 00 00 00 00 00 00 00 00 00 00 00 00
       1.0 0.0 0.0 0.0
0001a0 00 00 00 00 00 00 00 00 00 00 00 00 00 00 00 00
       0.0 0.0 0.0 0.0
0001b0 00 00 00 00 00 00 00 00 00 00 00 00 00 00 00 00
       0.0 0.0 0.0 0.0
0001c0 00 00 00 00 00 00 00 00 00 00 00 00 00 00 00 00
       0.0 0.0 0.0 0.0
0001d0 00 00 00 00 00 00 00 00 00 00 00 00 00 00 00 00
       0.0 0.0 0.0 0.0
0001e0 00 00 00 00 00 00 00 00 00 00 00 00 00 00 00 00
       0.0 0.0 0.0 0.0
0001f0 00 00 00 00 00 00 00 00 00 00 00 00 00 00 00 00
       0.0 0.0 0.0 0.0
000200 00 00 00 00 00 00 00 00 00 00 00 00 00 00 00 00
       0.0 0.0 0.0 0.0
000210 00 00 00 00 00 00 00 00 00 00 00 00 00 00 00 00
       0.0 0.0 0.0 0.0
000220 00 00 00 00 00 00 00 00 00 00 00 00 00 00 00 00
       0.0 0.0 0.0 0.0
000230 00 00 00 00 00 00 00 00 00 00 00 00 00 00 00 00
       0.0 0.0 0.0 0.0
000240 00 00 00 00 00 00 00 00 00 00 00 00 00 00 00 00
       0.0 0.0 0.0 0.0
000250 00 00 00 00 00 00 00 00 00 00 00 00 00 00 00 00
       0.0 0.0 0.0 0.0
000260 00 00 00 00 00 00 00 00 00 00 00 00 00 00 00 00
       0.0 0.0 0.0 0.0
000270 00 00 00 00 00 00 00 00 00 00 00 00 00 00 00 00
       0.0 0.0 0.0 0.0
000280 00 00 00 00 00 00 00 00 00 00 00 00 00 00 00 00
       0.0 0.0 0.0 0.0
000290 00 00 00 00 00 00 00 00 00 00 00 00 00 00 00 00
       0.0 0.0 0.0 0.0
0002a0 00 00 00 00 00 00 00 00 00 00 00 00 00 00 00 00
       0.0 0.0 0.0 0.0
0002b0 00 00 00 00 00 00 00 00 00 00 00 00 00 00 00 00
       0.0 0.0 0.0 0.0
0002c0 00 00 00 00 00 00 00 00 00 00 00 00 00 00 00 00
       0.0 0.0 0.0 0.0
0002d0 00 00 00 00 00 00 00 00 00 00 00 00 00 00 00 00
       0.0 0.0 0.0 0.0
0002e0 00 00 00 00 00 00 00 00 00 00 00 00 00 00 00 00
       0.0 0.0 0.0 0.0
0002f0 00 00 00 00 00 00 00 00 00 00 00 00 00 00 00 00
       0.0 0.0 0.0 0.0
000300 00 00 00 00 00 00 00 00 00 00 00 00 00 00 00 00
       0.0 0.0 0.0 0.0
000310 00 00 00 00 00 00 00 00 00 00 80 3f 00 00 80 3f
       0.0 0.0 1.0 1.0
000320 00 00 80 3f 00 00 00 00 00 00 00 00 00 00 00 00
       1.0 0.0 0.0 0.0
000330 00 00 00 00 00 00 00 00 00 00 00 00 00 00 00 00
       0.0 0.0 0.0 0.0
000340 00 00 00 00 00 00 00 00 00 00 00 00 00 00 00 00
       0.0 0.0 0.0 0.0
000350 00 00 00 00 00 00 00 00 00 00 00 00 00 00 00 00
       0.0 0.0 0.0 0.0
000360 00 00 00 00 00 00 00 00 00 00 00 00 00 00 00 00
       0.0 0.0 0.0 0.0
000370 00 00 00 00 00 00 00 00 00 00 00 00 00 00 00 00
       0.0 0.0 0.0 0.0
000380 00 00 00 00 00 00 00 00 00 00 00 00 00 00 00 00
       0.0 0.0 0.0 0.0
000390 00 00 00 00 00 00 00 00 00 00 00 00 00 00 00 00
       0.0 0.0 0.0 0.0
0003a0 00 00 00 00 00 00 00 00 00 00 00 00 00 00 00 00
       0.0 0.0 0.0 0.0
0003b0 00 00 00 00 00 00 00 00 00 00 00 00 00 00 00 00
       0.0 0.0 0.0 0.0
0003c0 00 00 00 00 00 00 00 00 00 00 00 00 00 00 00 00
       0.0 0.0 0.0 0.0
0003d0 00 00 00 00 00 00 00 00 00 00 00 00 00 00 00 00
       0.0 0.0 0.0 0.0
0003e0 00 00 00 00 00 00 00 00 00 00 00 00 00 00 00 00
       0.0 0.0 0.0 0.0
0003f0 00 00 00 00 00 00 00 00 00 00 00 00 00 00 00 00
       0.0 0.0 0.0 0.0
