shared/weights/model_weights_for_layer_size_49_for_dense_True.pth (torch, 40968 bytes, 4 tensors)

layer1.weight f4 [49, 49]
0.08723396 -0.02747669 -0.0840384 0.08194515 -0.12028028 0.008217439 -0.04549923 -0.06289927
0.035009332 0.016338276 -0.002448785 -0.10718836 0.086507596 0.017751323 0.06595805 0.0722512
0.040753223 -0.02600685 -0.05810225 0.10367381 0.06901736 0.11848814 -0.1163979 -0.02149629
-0.08030654 0.117176734 0.1060516 0.1807207 0.03457423 -0.059441935 0.08906305 0.022543404
0.10383078 -0.02121802 0.02469386 0.05642916 0.109421305 -0.028718615 0.05992983 -0.032976523
-0.03765984 0.095922664 0.1098085 0.06420358 0.015835216 0.0070514125 -0.0848258 0.01905738
0.20928077 -0.0238823 0.035332143 -0.13322343 0.0014660733 0.02332756 -0.11138898 -0.22414383
-0.089198336 -0.031842235 -0.030563872 -0.13598163 -0.09850843 -0.14291956 -0.017616905 -0.19802059
-0.10997895 -0.018055605 0.076396435 -0.18499093 0.13570498 -0.08704932 -0.09019258 0.009851044
0.018816223 0.12344705 0.06499231 0.04141521 -0.28389078 0.08036149 0.009226038 -0.27800277
-0.07676852 0.09597472 0.027939335 0.029490411 -0.13204454 -0.13810083 -0.09801717 -0.1213229
-0.10120147 -0.14893468 0.095829606 0.13170896 -0.14150597 -0.042825952 0.10796248 0.08853158
-0.007155289 -0.12783785 0.02349629 -0.095295176 -0.11793544 -0.14207393 0.046715688 -0.011934206
0.14024544 0.0923897 -0.067741565 0.017242102 -0.09064985 -0.19012715 -0.12975386 -0.14795794
0.030299436 -0.12468107 -0.11487481 0.059517168 -0.09023619 0.104319595 -0.064758286 0.10056353
0.0929666 -0.26340634 0.11276992 0.029299825 -0.019557294 -0.11516179 -0.020927139 -0.12454776
-0.017448172 -0.03681142 -0.06394068 -0.058976535 -0.08126914 -0.016617088 -0.07185198 -0.03484655
-0.11293701 -0.054652482 0.022598194 -0.07367311 -0.043644104 -0.06413666 -0.07498268 0.04487978
-0.07818732 -0.12306119 -0.040693473 -0.117349096 0.006824238 -0.042119 0.09186256 0.08491615
-0.0044130473 0.016435154 0.0044777924 -0.006003031 -0.024486927 0.10603073 0.022626745 -0.029085407
-0.13053533 0.015148425 -0.1025999 -0.03411528 -0.100902356 0.04968211 -0.04880764 -0.07052153
-0.028449563 0.0861507 0.012196052 0.087923855 0.07323442 0.0745577 -0.0031717417 -0.0024391513
-0.015075492 0.10017209 0.0626449 0.14876325 0.013591539 -0.04983991 0.060388062 0.08289454
0.033060744 0.07867699 0.021129662 0.14842804 0.13955665 0.1479493 0.15604636 0.14179984
0.044190597 0.01605623 -0.07133112 -0.038976904 0.14668128 0.05133825 0.043688383 0.04007858
0.136711 0.048613187 0.14952944 0.09637749 0.023441788 0.019650996 0.048771873 0.12022883
0.010782828 -0.028254593 0.026781129 -0.031925324 0.002719071 -0.0008237194 -0.047924828 -0.045760658
-0.07239894 -0.07467985 0.03680068 0.07110301 0.114997186 0.055612195 -0.032474473 0.018509982
0.07573268 0.08699526 0.06186602 0.10652223 0.11924345 0.12005361 0.12470842 0.0952737
0.11075712 0.08966133 0.083412625 -0.026888981 0.08525546 -0.0901206 -0.10767585 -0.03956337
-0.05372952 -0.00952472 0.05379722 0.00043040706 0.24169332 0.19031262 0.087127365 0.084892996
0.037031278 -0.024422662 0.09055372 -0.039737433 0.0593736 0.19225918 -0.005437944 0.12121419
00000000: b8a7 b23d cc16 e1bc 531c acbd dcd2 a73d
00000010: 8255 f6bd 70a2 063c 675d 3abd 55d1 80bd
00000020: f265 0f3d d9d7 853c cb7b 20bb 9285 dbbd
00000030: e52a b13d 396b 913c 0415 873d 70f8 933d
00000040: daec 263d 510c d5bc a0fc 6dbd ef52 d43d
00000050: f958 8d3d e9a9 f23d 0662 eebd fd18 b0bc
00000060: c177 a4bd 5bfa ef3d 9531 d93d d90e 393e
00000070: b59d 0d3d 6379 73bd b066 b63d f2ac b83c
00000080: 3ba5 d43d 6ad1 adbc c74a ca3c 4322 673d
00000090: 4718 e03d 4d43 ebbc fb78 753d 6412 07bd
000000a0: 3441 1abd 1a73 c43d 47e3 e03d 2b7d 833d
000000b0: dbb8 813c 890f e73b 26b9 adbd 391e 9c3c
000000c0: b34d 563e d0a4 c3bc 70b8 103d b96b 08be
000000d0: 4229 c03a 7019 bf3c e81f e4bd f685 65be
000000e0: 9ead b6bd 016d 02bd 1661 fabc c53e 0bbe
000000f0: cabe c9bd 8159 12be 5451 90bc e9c5 4abe
00000100: a53c e1bd 59e9 93bc bc75 9c3d 436e 3dbe
00000110: 3ff6 0a3e ea46 b2bd e3b6 b8bd 4666 213c
00000120: 7b24 9a3c cfd1 fc3d b01a 853d ffa2 293d
00000130: 225a 91be 9194 a43d cf28 173c 6156 8ebe
00000140: d038 9dbd 658e c43d 08e1 e43c e095 f13c
00000150: af36 07be 4e6a 0dbe 3abd c8bd 2478 f8bd
00000160: b742 cfbd 5582 18be 5042 c43d b7de 063e
00000170: f1e6 10be 446a 2fbd 6f1b dd3d 0c50 b53d
00000180: ea76 eabb ede7 02be 4b7b c03c 1e2a c3bd
00000190: 2388 f1bd d47b 11be f358 3f3d b087 43bc
000001a0: 809c 0f3e d036 bd3d 17bc 8abd 4f3f 8d3c
000001b0: a1a6 b9bd b1b0 42be 32de 04be 4982 17be
000001c0: 8636 f83c ca58 ffbd 7c43 ebbd 46c8 733d
000001d0: c0cd b8bd 83a5 d53d fe9f 84bd 41f4 cd3d
000001e0: 4665 be3d 32dd 86be eaf3 e63d 3006 f03c
000001f0: 9e36 a0bc f2d9 ebbd 646f abbc e512 ffbd
00000200: 78ef 8ebc 92c7 16bd 55f3 82bd 6191 71bd
00000210: 6f70 a6bd 8f20 88bc 2227 93bd 42bb 0ebd
00000220: 854b e7bd 48db 5fbd d91f b93c ede1 96bd
00000230: 29c4 32bd 155a 83bd 8590 99bd dcd3 373d
00000240: ac20 a0bd 8107 fcbd 33ae 26bd b954 f0bd
00000250: dc9d df3b f984 2cbd 7022 bc3d 85e8 ad3d
00000260: 539b 90bb 04a3 863c 72ba 923b 13b5 c4bb
00000270: cf98 c8bc a426 d93d b95b b93c 8544 eebc
00000280: 0eab 05be 1931 783c e51f d2bd 77bc 0bbd
00000290: e5a5 cebd 787f 4b3d 85ea 47bd 986d 90bd
000002a0: 0f0f e9bc c76f b03d f3d1 473c 6c11 b43d
000002b0: edfb 953d b5b1 983d ffdc 4fbb 2bda 1fbb
000002c0: 32ff 76bc 0627 cd3d f84b 803d 6555 183e
000002d0: 0caf 5e3c ef24 4cbd 7959 773d 9dc4 a93d
000002e0: b46a 073d 6721 a13d 1d18 ad3c 85fd 173e
000002f0: f0e7 0e3e 0580 173e 9eca 1f3e fa33 113e
00000300: 3301 353d 5b88 833c 0d16 92bd 3fa6 1fbd
00000310: 9e33 163e 0f48 523d 97f2 323d 7029 243d
00000320: f8fd 0b3e 9f1e 473d 3f1e 193e 9061 c53d
00000330: fe08 c03c 20fb a03c 04c5 473d 883a f63d
00000340: 75aa 303c 2d76 e7bc 1964 db3c 21c4 02bd
00000350: 7132 323b e0ee 57ba d34c 44bd 876f 3bbd
00000360: e545 94bd c0f1 98bd 4fbc 163d 749e 913d
00000370: a583 eb3d 9dc9 633d f403 05bd 3fa2 973c
00000380: bc19 9b3d 922a b23d 3967 7d3d 5428 da3d
00000390: e935 f43d abde f53d 2167 ff3d dc1e c33d
000003a0: a1d4 e23d 5ca0 b73d 3dd4 aa3d 4846 dcbc
000003b0: 6a9a ae3d 2691 b8bd 2885 dcbd 330d 22bd
000003c0: 7c13 5cbd 920d 1cbc 795a 5c3d 42a8 e139
000003d0: 747e 773e 50e1 423e d56f b23d 61dc ad3d
000003e0: 1cae 173d 0912 c8bc 3b74 b93d b8c3 22bd
000003f0: bb31 733d 97df 443e c830 b2bb 253f f83d

layer2.weight f4 [49, 49]
0.005807346 0.0020210175 -0.18324062 -0.044419475 0.10854028 0.09921151 -0.12794441 -0.0791599
-0.07150524 -0.15073526 -0.08638967 0.14326434 -0.13433376 -0.10365019 0.124772586 0.0022310552
0.05672548 -0.089621596 -0.09423302 -0.1280103 -0.014738767 0.079226576 0.104508944 -0.040295072
0.14324537 0.118618265 -0.05295561 0.02153857 -0.010180863 -0.01233602 -0.06238717 0.084106356
0.07943343 -0.031202978 -0.06818465 0.012803762 0.07359183 -0.018865779 0.100262426 -0.03458045
0.06953419 0.00042966916 -0.08549697 0.08001097 0.054903623 0.0024572527 -0.07921693 0.11747554
0.07341588 0.022934306 -0.07681446 0.009833547 0.006148371 0.100768104 0.045513537 0.07843377
-0.036245897 -0.14163025 0.101413995 0.012126954 0.0739331 -0.023168776 0.009586518 -0.06543695
-0.038529508 -0.11707776 0.08731256 -0.08859961 0.004079652 0.10019383 0.07959377 -0.0846005
-0.0066008274 0.012784296 -0.14679563 0.06819409 -0.10819858 -0.020990185 -0.13215324 -0.07248011
-0.07296737 0.016969105 -0.07378874 0.02233577 0.13048878 0.08213636 -0.04135867 -0.044728238
-0.11422169 0.053838372 0.06052715 -0.12163162 0.12579228 0.1450727 -0.06097328 0.08204751
-0.06884897 0.1116138 -0.09491839 -0.07250647 -0.033165175 0.13258459 -0.055944134 0.13870935
-0.03899935 -0.021676317 0.023591612 -0.03932634 -0.09872288 0.118024014 -0.12190015 -0.12663217
-0.063829534 0.027431177 0.15123263 -0.104839765 -0.11249374 0.043752618 -0.10101495 -0.012893645
0.04424313 -0.1358751 0.14269681 0.024720304 -0.04813121 -0.10623339 0.031953305 -0.0020234066
-0.07200099 0.10913214 -0.08204483 -0.09352625 -0.1153944 -0.027188523 0.014446546 0.118623406
-0.08810781 0.059643734 -0.06417974 -0.1182007 0.0693191 -0.0447348 0.03891424 0.055636715
-0.050011247 0.10328742 -0.062411826 -0.058799036 -0.13203153 0.13211185 -0.13636293 0.120848216
-0.11493658 0.01943647 0.15684023 -0.06780367 -0.08856152 -0.0140718315 -0.037741244 0.0027103832
-0.015422728 -0.051849592 0.067489274 -0.039292827 0.025157463 -0.1445357 -0.085907705 0.015683385
-0.20456976 -0.00056687195 0.07861081 0.0161118 -0.11652972 0.002935289 0.105154835 -0.13815431
-0.059788805 -0.15170014 0.0067699044 0.07978632 -0.10218541 -0.06349536 -0.087367244 0.034354974
0.003450958 -0.06737368 0.025469504 -0.21089311 0.12978083 0.04857312 -0.020476833 -0.0945358
-0.19099824 -0.052262496 0.014888031 0.0015718627 0.015586338 0.043143023 0.12358419 0.12188346
-0.039995667 0.07817962 -0.049958967 -0.14265944 -0.009500993 -0.14112265 -0.055511396 -0.09145157
-0.04055337 -0.048010893 -0.11108023 -0.113834515 0.051163062 0.017879402 0.052535377 0.015747393
0.011420161 0.018884968 -0.075578935 0.1484775 -0.07374206 0.059877224 0.06415541 -0.13419425
-0.026634635 0.08181793 0.16548578 0.13858113 0.032673985 0.007312231 -0.13609746 0.018175516
-0.031383008 -0.03261191 0.102195844 0.0037508518 -0.0039404347 -0.07482027 -0.059264336 0.00905675
0.11827937 0.10550597 -0.07769295 -0.058372777 0.004493371 -0.07581243 0.06902916 0.0014424032
-0.0045791995 -0.07202525 0.01306144 0.052737217 0.09945691 0.096231684 -0.023058262 0.083465226
00000000: 8d4b be3b 0c73 043b 6ea3 3bbe 32f1 35bd
00000010: 5e4a de3d 672f cb3d dc03 03be 961e a2bd
00000020: 5771 92bd 585a 1abe 11ed b0bd e3b3 123e
00000030: ca8e 09be 8d46 d4bd c588 ff3d e536 123b
00000040: fa58 683d 878b b7bd 3efd c0bd 2215 03be
00000050: df7a 71bc 8b41 a23d c908 d63d 720c 25bd
00000060: eaae 123e 22ee f23d fbe7 58bd a871 b03c
00000070: a2cd 26bc 051d 4abc b089 7fbd f43f ac3d
00000080: ffad a23d 639d ffbc 65a4 8bbd dfc6 513c
00000090: 50b7 963d 688c 9abc 6356 cd3d 3ba4 0dbd
000000a0: f167 8e3d 3845 e139 0919 afbd cbdc a33d
000000b0: 9fe2 603d dc09 213b 7c3c a2bd 0497 f03d
000000c0: 115b 963d bae0 bb3c e650 9dbd e31c 213c
000000d0: 4678 c93b 825f ce3d 676c 3a3d e2a1 a03d
000000e0: 9476 14bd 8507 11be 24b2 cf3d 22b0 463c
000000f0: 3d6a 973d 72cc bdbc c510 1d3c cf03 86bd
00000100: 1ed1 1dbd 77c6 efbd edd0 b23d b673 b5bd
00000110: 9aae 853b 6c32 cd3d 0f02 a33d 0743 adbd
00000120: c14b d8bb 3975 513c 9851 16be 58a9 8b3d
00000130: 3897 ddbd 9cf3 abbc 2e53 07be 7470 94bd
00000140: eb6f 95bd cb02 8b3c 8d1e 97bd 81f9 b63c
00000150: da9e 053e 1c37 a83d b567 29bd f534 37bd
00000160: 10ed e9bd a085 5c3d 51eb 773d 001a f9bd
00000170: b1cf 003e f08d 143e 1ebf 79bd 8608 a83d
00000180: b000 8dbd c795 e43d 9364 c2bd 467e 94bd
00000190: 35d8 07bd 41c4 073e ad25 65bd d309 0e3e
000001a0: c8bd 1fbd 8892 b1bc 3243 c13c a814 21bd
000001b0: 392f cabd 93b6 f13d c9a6 f9bd ddab 01be
000001c0: 0fb9 82bd 59b7 e03c badc 1a3e 3bb6 d6bd
000001d0: 1e63 e6bd f235 333d ede0 cebd de3f 53bc
000001e0: 4938 353d d822 0bbe 1d1f 123e 3c82 ca3c
000001f0: 3b25 45bd e490 d9bd 78e1 023d 219b 04bb
00000200: 4175 93bd ac80 df3d 1f07 a8bd b18a bfbd
00000210: e653 ecbd 77ba debc 35b1 6c3c d4f0 f23d
00000220: de71 b4bd fd4c 743d ab70 83bd 3513 f2bd
00000230: 2cf7 8d3d d63b 37bd 8a64 1f3d 53e3 633d
00000240: 98d8 4cbd 5b88 d33d 8ba3 7fbd 42d7 70bd
00000250: 4633 07be 5448 073e b9a2 0bbe 457f f73d
00000260: df63 ebbd 3b39 9f3c ba9a 203e a7dc 8abd
00000270: be5f b5bd 8a8d 66bc 9096 1abd afa0 313b
00000280: 9caf 7cbc 3d60 54bd d137 8a3d 84f1 20bd
00000290: 0617 ce3c 2b01 14be 61f0 afbd 717a 803c
000002a0: bc7a 51be 229a 14ba b4fe a03d e5fc 833c
000002b0: 22a7 eebd fa5d 403b 6b5b d73d 5378 0dbe
000002c0: 1be5 74bd 4857 1bbe 13d6 dd3b 0367 a33d
000002d0: 9646 d1bd db09 82bd 99ed b2bd cdb7 0c3d
000002e0: 7829 623b 36fb 89bd 6ca5 d03c 5df4 57be
000002f0: 44e5 043e 9cf4 463d 08bf a7bc fc9b c1bd
00000300: 0b95 43be 3311 56bd eeec 733c f606 ce3a
00000310: d75d 7f3c bdb6 303d b519 fd3d 099e f93d
00000320: 7fd2 23bd a31c a03d c6a1 4cbd 5115 12be
00000330: 0eaa 1bbc 7582 10be eb5f 63bd f64a bbbd
00000340: 4a1b 26bd 12a7 44bd 087e e3bd 1222 e9bd
00000350: 5c90 513d d377 923c 562f 573d ad00 813c
00000360: a11b 3b3c a6b4 9a3c 21c9 9abd 7c0a 183e
00000370: 1406 97bd d241 753d e963 833d 386a 09be
00000380: e130 dabc 2990 a73d 1b75 293e 36e8 0d3e
00000390: 28d5 053d 719b ef3b 225d 0bbe d2e4 943c
000003a0: 788b 00bd 1194 05bd 0e4c d13d dad0 753b
000003b0: c31e 81bb 5f3b 99bd 29bf 72bd c362 143c
000003c0: 743c f23d 8413 d83d 7b1d 9fbd 4b18 6fbd
000003d0: 213d 933b 8c43 9bbd 295f 8d3d 050f bd3a
000003e0: 1c0d 96bb f981 93bd a6ff 553c fb02 583d
000003f0: 10b0 cb3d 1e15 c53d aee4 bcbc d1ef aa3d

layer3.weight f4 [49, 49]
-0.033491913 0.09034925 -0.08622148 -0.06667337 0.029798802 -0.03695723 -0.07842294 -0.022504762
-0.016265662 -0.10871115 -0.09343229 -0.05002284 -0.07143182 -0.060256865 0.06547147 0.05861132
-0.00028578128 0.11804757 0.11306921 0.0104235 0.07205602 0.09890597 0.08738643 -0.11357235
0.0067269006 -0.03938972 -0.07959119 -0.14177233 -0.06064893 0.1031563 -0.055952027 -0.023483068
-0.08443336 0.008138799 0.009962646 0.023749845 0.09445273 0.07686141 0.012152055 -0.101164624
-0.15150358 -0.08448484 -0.094412684 0.1420836 -0.04675353 -0.10765727 0.053654414 0.05141084
0.111551866 -0.15966986 -0.108696304 -0.036474444 -0.06275075 0.06275223 -0.00658606 0.08770614
-0.17255653 0.043812685 -0.03918336 0.061984807 -0.10389777 -0.012062671 -0.04791491 0.031904463
-0.052133404 -0.027262902 0.024397468 0.09192705 0.11549609 -0.022279408 -0.060958788 0.05762989
0.09599779 0.09133233 0.08469119 -0.08195107 0.02358223 -0.11138786 0.014098348 0.05829909
-0.08175473 0.06616007 -0.00021211957 -0.004051501 -0.12092297 0.10713293 0.14289407 0.20782256
-0.07238002 -0.05286442 0.06447614 0.13493712 0.14450438 -0.09991145 -0.091947176 0.029464273
-0.14491703 0.026487371 0.0062252837 0.089820996 0.12212109 -0.10447716 -0.082670994 -0.12374756
-0.16779877 0.029424286 -0.17197987 -0.14776872 -0.117643744 -0.07173309 -0.007802259 -0.12021992
-0.09922403 0.07954003 -0.1195123 -0.020634187 0.08055264 0.05257903 -0.023089908 0.098091654
-0.06429599 -0.07155132 -0.08088682 0.031011363 0.013368269 0.075088084 0.027439952 0.0077835172
0.14179218 -0.000517512 0.028232506 -0.08438919 0.046239972 -0.0641732 -0.16833699 0.06681679
-0.1426873 0.008947232 0.041920476 -0.020887174 -0.1249666 0.08015373 -0.073043294 0.105265185
-0.021830207 0.0051917844 0.10585268 -0.14151606 0.049244903 0.060290426 0.047835074 -0.13620926
0.1548355 -0.01985404 -0.06724027 -0.0982219 0.038063772 0.0035427809 -0.023967102 0.025022862
0.023561634 0.04039709 0.094934866 0.025442751 -0.021568984 0.11491318 0.029540975 -0.114301145
0.044894166 -0.07699241 0.029191762 0.119081564 0.13080609 0.0463552 0.08000203 0.032520454
-0.090792 0.028389996 0.028968228 0.0805007 -0.15636191 0.038135197 -0.06753589 0.0050082062
0.09385168 0.11322129 -0.079242446 0.062498417 -0.118479036 0.08851035 -0.043203156 0.031615783
-0.09882975 0.03279635 -0.02591679 0.04493725 -0.15465939 -0.030530002 -0.039008036 -0.08485894
-0.04320524 -0.011760525 0.045890085 0.0513298 0.07459873 0.035481505 -0.18250795 0.14031677
-0.06558775 -0.1309084 -0.06211078 0.1672218 0.07168351 -0.06974196 0.059475932 -0.037114467
0.0323389 0.036376573 0.03404877 0.096918136 0.023046218 0.06297396 0.17061658 0.020903107
-0.0025229314 0.09556376 0.05156015 0.016493643 -0.052244227 -0.18026221 -0.03249398 -0.08969244
0.0129689565 -0.12629078 0.005720212 -0.116124146 -0.08844436 -0.04954271 0.038997754 -0.11203543
-0.12733762 -0.056150857 0.0948937 -0.09142384 0.10487704 -0.008357682 0.03693478 0.0073751826
0.07548591 -0.06070066 0.09530285 -0.0054599894 -0.029055713 -0.18174559 -0.11486456 -0.025058838
00000000: d12e 09bd 0709 b93d e394 b0bd 0c8c 88bd
00000010: 9e1c f43c 7760 17bd 359c a0bd e85b b8bc
00000020: 913f 85bc f4a3 debd 6e59 bfbd c0e4 4cbd
00000030: d94a 92bd e7cf 76bd e815 863d 6c12 703d
00000040: ead4 95b9 edc2 f13d d490 e73d 54c7 2a3c
00000050: 1b92 933d 378f ca3d a8f7 b23d 9f98 e8bd
00000060: 556d dc3b 1d57 21bd b500 a3bd c42c 11be
00000070: 036b 78bd 9c43 d33d f42d 65bd 905f c0bc
00000080: 66eb acbd 9958 053c 5e3a 233c 098f c23c
00000090: 6f70 c13d 8469 9d3d 6a19 473c 662f cfbd
000000a0: c123 1bbe 6306 adbd 705b c1bd 5d7e 113e
000000b0: a180 3fbd 6a7b dcbd bbc4 5b3d 2c94 523d
000000c0: 4e75 e43d 7f80 23be 2b9c debd 3a66 15bd
000000d0: 7783 80bd 3e84 803d e0cf d7bb 479f b33d
000000e0: a9b2 30be ee74 333d bb7e 20bd c8e3 7d3d
000000f0: 5bc8 d4bd 82a2 45bc 6d42 44bd 41ae 023d
00000100: d689 55bd 7356 dfbc 33dd c73c 4044 bc3d
00000110: 3789 ec3d 4e83 b6bc ecaf 79bd 520d 6c3d
00000120: 7d9a c43d 720c bb3d 9372 ad3d f6d5 a7bd
00000130: 852f c13c 511f e4bd c2fc 663c 07cb 6e3d
00000140: 066f a7bd ee7e 873d 6a6c 5eb9 74c2 84bb
00000150: 76a6 f7bd 8268 db3d d352 123e 70cf 543e
00000160: fa3b 94bd 5d88 58bd 110c 843d f52c 0a3e
00000170: f5f8 133e 609e ccbd cd4e bcbd 0f5f f13c
00000180: 2165 14be 0bfc d83c 77fd cb3b 12f4 b73d
00000190: 9f1a fa3d 1ff8 d5bd 694f a9bd 5c6f fdbd
000001a0: 71d3 2bbe 330b f13c 7e1b 30be af50 17be
000001b0: 34ef f0bd cce8 92bd 18aa ffbb dd35 f6bd
000001c0: f835 cbbd e2e5 a23d ddc2 f4bd 0709 a9bc
000001d0: c8f8 a43d 1c5d 573d 0c27 bdbc 47e4 c83d
000001e0: 9ead 83bd 8089 92bd fda7 a5bd 8b0b fe3c
000001f0: 9606 5b3c c8c7 993d c0c9 e03c e00c ff3b
00000200: f831 113e a4a9 07ba db47 e73c 3dd4 acbd
00000210: 2066 3d3d 3d6d 83bd 8860 2cbe 3ed7 883d
00000220: 9f1c 12be 6997 123c ceb4 2b3d 941b abbc
00000230: 7dee ffbd a427 a43d b997 95bd 4695 d73d
00000240: 43d5 b2bc d81f aa3b 4ac9 d83d 96e9 10be
00000250: 06b5 493d 18f3 763d b6ee 433d 717a 0bbe
00000260: 338d 1e3e f1a4 a2bc 44b5 89bd 9028 c9bd
00000270: c2e8 1b3d 002e 683b a856 c4bc bffc cc3c
00000280: 5404 c13c 6b77 253d 366d c23d 516d d03c
00000290: 70b1 b0bc 9a57 eb3d eaff f13c b816 eabd
000002a0: f2e2 373d 32ae 9dbd 9023 ef3c 09e1 f33d
000002b0: 08f2 053e f3de 3d3d 1bd8 a33d 2b34 053d
000002c0: 28f1 b9bd 2392 e83c c74e ed3c 8ddd a43d
000002d0: 561d 20be a733 1c3d 4250 8abd e11b a43b
000002e0: 4f35 c03d 90e0 e73d dd49 a2bd 57fe 7f3d
000002f0: 23a5 f2bd ea44 b53d cbf5 30bd 8d7f 013d
00000300: 4167 cabd 7755 063d 734f d4bc 1f10 383d
00000310: 085f 1ebe 0e1a fabc e4c6 1fbd 86ca adbd
00000320: faf7 30bd 38af 40bc 3ef7 3b3d 323f 523d
00000330: 38c7 983d 0e55 113d 5de3 3abe 33af 0f3e
00000340: df52 86bd da0c 06be e067 7ebd 313c 2b3e
00000350: cece 923d dfd4 8ebd 099d 733d 5705 18bd
00000360: cb75 043d 9aff 143d b976 0b3d 047d c63d
00000370: 6ccb bc3c 7ef8 803d 1db6 2e3e fe3c ab3c
00000380: c457 25bb efb6 c33d bc30 533d ad1d 873c
00000390: 0bfe 55bd a896 38be 6818 05bd acb0 b7bd
000003a0: bf7b 543c 5f52 01be 9e70 bb3b 7fd2 edbd
000003b0: 5122 b5bd 4ced 4abd 1cbc 1f3d d572 e5bd
000003c0: cb64 02be 71fe 65bd a157 c23d 6c3c bbbd
000003d0: c6c9 d63d a9ee 08bc ed48 173d 84ab f13b
000003e0: 5b98 9a3d 41a1 78bd 242e c33d b6e9 b2bb
000003f0: 3f06 eebc 841b 3abe 1c3e ebbd 3148 cdbc

layer4.weight f4 [49, 49]
-0.12618776 -0.10283374 0.09433924 -0.020102276 -0.09433903 0.15332767 0.015513411 0.062095925
-0.05600168 0.11943685 -0.016404338 0.065920375 0.13744174 0.13085824 0.05301964 -0.018679177
-0.09648183 -0.110799 -0.0572905 0.08871776 -0.093523875 -0.12707643 0.10388566 0.08049874
-0.035354353 -0.022776432 -0.10018428 -0.12934165 0.024883468 0.05286783 -0.058482155 0.007982739
-0.123272836 -0.13391267 0.032374874 -0.09634342 -0.08886617 0.0981719 0.07166958 0.06744639
-0.01565258 -0.026581233 -0.14477322 -0.1518745 -0.02792049 0.02559421 -0.01365285 -0.067116655
-0.020244434 0.038235806 -0.05861929 0.07897526 -0.11343708 0.081857406 0.007168708 0.07950077
-0.169938 -0.13626574 -0.11385214 0.018517459 -0.1804369 0.08023553 -0.05618487 0.112496085
0.12354998 0.0126582505 0.021218047 -0.08484661 0.12962726 -0.019004477 -0.15994173 0.006022072
-0.06794676 -0.14026658 -0.028589688 -0.055899758 -0.029034771 0.08551255 -0.0957691 -0.06548903
-0.06635968 0.09784446 0.024417756 0.08719234 0.025941238 -0.077621244 0.06822841 -0.005973246
0.0674875 0.032452784 0.102683574 0.0789704 -0.09245529 0.09359408 -0.002436799 -0.13144496
0.07903703 -0.015726265 -0.061632246 0.10234601 0.14146118 -0.08331194 0.03727924 0.062286254
-0.003285468 -0.023353245 0.028593702 0.0010113543 0.025596967 -0.15291855 -0.018134631 0.11173838
-0.015579511 0.092798375 -0.08337972 -0.1156632 -0.13077286 0.06518465 0.043885022 -0.09486941
-0.033998046 0.056172144 0.0065595065 -0.044361796 -0.03813414 -0.11873637 0.034613457 -0.0059176427
0.07724556 -0.03970695 0.0058144396 0.044465743 -0.028339019 0.0038249467 0.05195919 0.050985824
0.053259693 0.052215464 -0.019923486 0.024034925 -0.12941891 -0.103019275 0.018539203 -0.03898757
-0.07360357 0.10321164 -0.12179514 0.12454483 0.004581955 -0.07250247 0.0445672 -0.10471869
-0.014220093 0.03525958 -0.07151626 -0.10767978 -0.043763366 -0.1397823 -0.082619436 0.08708318
0.03987256 0.14420255 0.12840843 -0.12155809 -0.06826425 0.015181148 0.16855581 0.0781651
-0.18469547 -0.0109678805 -0.021765925 -0.09877881 -0.05170143 -0.016229516 -0.05789904 0.0750806
-0.09577095 0.07691596 -0.09994483 0.12897764 -0.12688737 0.027832495 0.041426446 -0.002771758
-0.07612091 0.1153015 0.042660404 -0.047020048 -0.10721926 0.028220778 -0.0046521607 0.03373409
-0.14540818 0.053422913 0.051093865 0.093605675 -0.10848702 -0.0023499283 0.021799477 -0.008821203
-0.041169766 -0.09770001 -0.055040903 -0.075119436 -0.060386054 -0.085224554 -0.05943899 -0.07965656
-0.059726395 0.07395264 0.11952786 0.12421503 0.06684234 0.018719023 -0.19259615 0.13794948
0.004165643 -0.009538718 -0.027402448 0.02278011 0.016779734 0.033125665 -0.029194178 0.07589866
0.026859842 -0.0040583927 0.059526846 0.108571336 0.0073714573 0.010045775 0.008478609 -0.14342533
0.018007528 0.113833345 -0.08526843 -0.061127856 0.04699907 0.050307937 0.052283596 0.032108065
0.12089949 -0.00751748 -0.027464211 -0.08400643 -0.055871077 -0.0562257 0.011689132 0.06274461
0.08377921 0.06426379 0.065345325 -0.14767848 -0.030591728 -0.14104992 -0.12356506 0.062870525
00000000: 5d37 01be 7f9a d2bd ee34 c13d 87ad a4bc
00000010: d234 c1bd ee01 1d3e f62b 7e3c 4c58 7e3d
00000020: 0562 65bd 4f9b f43d 6462 86bc 4301 873d
00000030: 87bd 0c3e b4ff 053e 1f2b 593d 1305 99bc
00000040: 4498 c5bd 96ea e2bd 71a9 6abd a8b1 b53d
00000050: 7289 bfbd 5320 02be 01c2 d43d 86dc a43d
00000060: bacf 10bd a495 babc 6a2d cdbd 2372 04be
00000070: 6ad8 cb3c f08b 583d fc8a 6fbd 09ca 023c
00000080: 7876 fcbd 6720 09be 849b 043d b34f c5bd
00000090: 77ff b5bd 590e c93d 80c7 923d 5521 8a3d
000000a0: d739 80bc e3c0 d9bc 6e3f 14be fd84 1bbe
000000b0: 83b9 e4bc f3aa d13c 34b0 5fbc 7574 89bd
000000c0: a8d7 a5bc 269d 1c3d c81a 70bd c8bd a13d
000000d0: b351 e8bd dba4 a73d 7be7 ea3b 4dd1 a23d
000000e0: 3a04 2ebe 3f89 0bbe 502b e9bd edb1 973c
000000f0: 73c4 38be 8752 a43d 1b22 66bd 5964 e63d
00000100: c607 fd3d 8d64 4f3c 78d1 ad3c 0fc4 adbd
00000110: 02bd 043e 47af 9bbc c4c7 23be cd54 c53b
00000120: ac27 8bbd 0ba2 0fbe ec34 eabc 25f7 64bd
00000130: 54da edbc 3421 af3d 9722 c4bd 1d1f 86bd
00000140: 95e7 87bd ad62 c83d bf07 c83c e691 b23d
00000150: b882 d43c e3f7 9ebd 56bb 8b3d 38bb c3bb
00000160: e336 8a3d 36ed 043d c44b d23d 3cbb a13d
00000170: 3359 bdbd 41ae bf3d b4b2 1fbb 8299 06be
00000180: 2bde a13d 5ed4 80bc 1872 7cbd c99a d13d
00000190: 33db 103e 739f aabd 1eb2 183d df1f 7f3d
000001a0: 0251 57bb 4e4f bfbc 573d ea3c 6b8f 843a
000001b0: bbb0 d13c ae96 1cbe 148f 94bc 17d7 e43d
000001c0: 3541 7fbc 130d be3d fdc2 aabd d4e0 ecbd
000001d0: 52e9 05be 887f 853d c8c0 333d e54a c2bd
000001e0: 8941 0bbd c314 663d 21f1 d63b b7b4 35bd
000001f0: 8b32 1cbd 0e2c f3bd d7c6 0d3d c9e8 c1bb
00000200: ec32 9e3d c1a3 22bd 0e87 be3b b621 363d
00000210: 3b27 e8bc f5ab 7a3b 29d3 543d 83d6 503d
00000220: d626 5a3d e2df 553d 9436 a3bc e4e4 c43c
00000230: 6486 04be c5fb d2bd 87df 973c 6eb1 1fbd
00000240: 78bd 96bd a060 d33d bb6f f9bd 5c11 ff3d
00000250: 3924 963b 2d7c 94bd 198c 363d c176 d6bd
00000260: 65fb 68bc 596c 103d 1e77 92bd 3787 dcbd
00000270: 3741 33bd 1723 0fbe 6134 a9bd ab58 b23d
00000280: 6951 233d d5a9 133e 807d 033e 73f3 f8bd
00000290: 21ce 8bbd 5aba 783c e599 2c3e 0615 a03d
000002a0: cf20 3dbe a0b2 33bc 744e b2bc 8b4c cabd
000002b0: e1c4 53bd c3f3 84bc 8b27 6dbd dcc3 993d
000002c0: 8f23 c4bd 1d86 9d3d e0af ccbd b712 043e
000002d0: c3ee 01be f900 e43c c7ae 293d 62a6 35bb
000002e0: 48e5 9bbd 3123 ec3d adbc 2e3d 1898 40bd
000002f0: c595 dbbd 432f e73c 2771 98bb c22c 0a3d
00000300: e2e5 14be fcd1 5a3d cd47 513d 55b4 bf3d
00000310: 712e debd 4101 1abb d194 b23c cf86 10bc
00000320: a1a1 28bd f116 c8bd 9272 61bd 38d8 99bd
00000330: 5e57 77bd 368a aebd 4c76 73bd fb22 a3bd
00000340: aaa3 74bd 7b74 973d 06cb f43d 7364 fe3d
00000350: a3e4 883d a358 993c ed37 45be a142 0d3e
00000360: f27f 883b 4848 1cbc 197b e0bc 5a9d ba3c
00000370: a775 893c c7ae 073d a128 efbc c270 9b3d
00000380: 2c09 dc3c 44fc 84bb 6cd2 733d a65a de3d
00000390: 448c f13b 0997 243c dde9 0a3c 17de 12be
000003a0: 8684 933c 7521 e93d 37a1 aebd 3461 7abd
000003b0: 1982 403d b20f 4e3d 5327 563d bf83 033d
000003c0: 279a f73d 3155 f6bb a0fc e0bc 900b acbd
000003d0: 12d9 64bd eb4c 66bd c683 3f3c 3f80 803d
000003e0: 6f94 ab3d bc9c 833d c5d3 853d 0739 17be
000003f0: 819b fabc 646f 10be ae0f fdbd 43c2 803d
