shared/weights/model_weights_for_layer_size_199_for_dense_True.pth (torch, 636176 bytes, 4 tensors)

layer1.weight f4 [199, 199]
0	0xbdab81e2	-0.083743826
1	0x3d457605	0.048208255
2	0xbd0b1532	-0.03395576
3	0x3d45a897	0.048256483
4	0x3d519618	0.05116853
5	0xbd9166f8	-0.07099718
6	0xbcb883ee	-0.022523846
7	0xbcd6a309	-0.026200788
8	0xbd6ac84d	-0.057319928
9	0x3d4ded74	0.05027528
10	0x3b6074a6	0.0034249215
11	0x3d20647e	0.039158337
12	0x3bfb35a7	0.007666308
13	0xbc6c9adc	-0.014441218
14	0xbc455e67	-0.012046433
15	0xbbf3dc9c	-0.00744207
16	0x3cdb46bd	0.02676713
17	0xbc6540e1	-0.013992519
18	0x3d2ec8be	0.04267191
19	0x3d0668be	0.032814734
20	0xbd46bac0	-0.048517942
21	0xbd4f7ecc	-0.050658032
22	0x3ca5825f	0.020203767
23	0x3ccaa8b6	0.02473865
24	0x3c482eef	0.012218221
25	0x3cff54af	0.03116831
26	0x3cf781a2	0.03021318
27	0xbd136d55	-0.03599294
28	0x3d476012	0.048675604
29	0xbbcae65c	-0.0061920118
30	0xbd255ed5	-0.040373642
31	0x3d9d50f1	0.07681454
32	0x3c67e98b	0.014154802
33	0x3d72b5c3	0.059255373
34	0x3c4e4ad1	0.01259108
35	0x3d152e82	0.036421306
36	0x3d54d435	0.05196019
37	0xbd2063aa	-0.039157547
38	0xbd37367e	-0.044729702
39	0xbc1a6b73	-0.009425032
40	0xbd3a01a5	-0.045411725
41	0x3bf1231b	0.007358921
42	0x3cce4310	0.025178462
43	0x3cc85425	0.024454186
44	0xbd5e2e3b	-0.054243308
45	0x3d8c3b8f	0.068472974
46	0xbd4b9dd4	-0.049711064
47	0xbcaa3064	-0.020775028
48	0x3d3d8782	0.04627181
49	0xbd667b32	-0.056269832
50	0xbd257014	-0.04039009
51	0xbc23aec5	-0.009990399
52	0xbd155abc	-0.036463484
53	0xbadf0776	-0.0017015773
54	0xbcca9359	-0.024728464
55	0xbd5702ec	-0.05249302
56	0xbd9dba7c	-0.07701585
57	0xbc8f8572	-0.017519686
58	0x3c5bd4e9	0.013417461
59	0xbd1d30bf	-0.038376566
60	0xbd73bdc8	-0.05950716
61	0x3b57de22	0.0032938798
62	0xbd7e3d23	-0.062070023
63	0x3cb9e121	0.022690358
64	0xbb872b70	-0.004125051
65	0xbb9357bf	-0.004496544
66	0x3d767dbb	0.0601785
67	0x3bd35713	0.006449589
68	0xbd43d235	-0.04780789
69	0xbd7c66c3	-0.06162144
70	0xbcb70557	-0.022341413
71	0xbda26f49	-0.07931382
72	0xbdbbdc9a	-0.09172936
73	0x3d070258	0.03296122
74	0x3c48dbd6	0.012259444
75	0xbd0fe197	-0.03512725
76	0x3cd743ee	0.026277509
77	0xbd5f570c	-0.054526374
78	0xbd8da555	-0.069163
79	0xbd105be8	-0.0352439
80	0xbd54130f	-0.05177599
81	0xbd3cf2f3	-0.046130132
82	0x3bedae21	0.007253424
83	0x3d33b2d5	0.04387172
84	0x3b99643a	0.0046811374
85	0xbcb31ed7	-0.021865292
86	0x3ca33c57	0.019926233
87	0x3cfa3023	0.030540532
88	0xbd1086ed	-0.035284925
89	0xbbe71383	-0.0070518865
90	0xbcef1cd5	-0.029188553
91	0xbcf14f45	-0.029456744
92	0x3cf265b9	0.02958952
93	0xbd9c703a	-0.07638593
94	0x3bd62ea1	0.0065363203
95	0xbb7dd69e	-0.0038732658
96	0x3c347233	0.011013555
97	0xbcd87d12	-0.026426826
98	0x3d630f04	0.055434242
99	0xbcfaa0e4	-0.030594297
100	0x3c8e5ab9	0.017377244
101	0x3d353df1	0.044248525
102	0x3d45435a	0.048159935
103	0xbd64eabe	-0.05588793
104	0xbd37c50b	-0.04486565
105	0xbbd59654	-0.0065181646
106	0x3bcae36c	0.0061916616
107	0xbdabeae0	-0.08394408
108	0x3d300594	0.04297407
109	0xbd65d2fc	-0.056109414
110	0x3c780f14	0.015140314
111	0xbc7b180c	-0.015325557
112	0x3d48c282	0.049013622
113	0xbbb67570	-0.005568199
114	0xbdb2cd0c	-0.08730516
115	0xbd822d7e	-0.06356333
116	0xbbd37d26	-0.006454128
117	0x3bd98200	0.0066378117
118	0x3c36d39d	0.011158851
119	0xbd877584	-0.06614211
120	0xbd0d5d7f	-0.034512993
121	0xbd912b32	-0.07088317
122	0x3d8678ee	0.06566034
123	0xbcc64567	-0.024203015
124	0xbd0a4bee	-0.03376382
125	0xbc7066a6	-0.014672911
126	0xbd9c00b0	-0.07617319
127	0xbd94ed87	-0.07271867
128	0x3bb1739c	0.005415393
129	0x3bedd0e1	0.0072575663
130	0xbd66401d	-0.056213487
131	0x3cb89cff	0.0225358
132	0x3d3da1e7	0.04629698
133	0xbd2d95c1	-0.042379145
134	0x38eabe9f	0.000111934954
135	0x3b6b9e8f	0.0035952663
136	0xbca9b022	-0.02071387
137	0xbd65108b	-0.05592398
138	0xbd22f33e	-0.039782755
139	0xbd81a3be	-0.063300595
140	0xbc959fe4	-0.018264718
141	0xbcedd84d	-0.029033804
142	0x3d17351a	0.036915876
143	0xbd605db2	-0.054776855
144	0xbc20d1d6	-0.009815654
145	0xbd8b81b8	-0.06811851
146	0xbd35f49e	-0.04442274
147	0xbd084681	-0.033270363
148	0xbd4c1e75	-0.049833734
149	0xbaffa3ce	-0.0019503774
150	0x3bd9d60c	0.006647831
151	0x3cf49158	0.029854462
152	0xbd8bd73a	-0.068281606
153	0xbd183ffd	-0.0371704
154	0xbd8ce4a0	-0.06879544
155	0x3d310951	0.043221775
156	0xbd2e92be	-0.042620413
157	0xbdb67b8f	-0.08910286
158	0x3bd17847	0.006392512
159	0x3d37633f	0.044772383
160	0xbccfb4d2	-0.025354777
161	0x3d35013e	0.044190638
162	0x3d5beac9	0.053690705
163	0xbd3d7146	-0.046250604
164	0x3d1f9c0e	0.038967185
165	0x3d0533a1	0.03251994
166	0xbd87bf88	-0.066283286
167	0xbd50ecd2	-0.0510071
168	0x3d3d7d1c	0.04626189
169	0xbd2b6aa3	-0.041849744
170	0xbdab615e	-0.08368181
171	0xbd92b0b8	-0.07162613
172	0x3d4a0785	0.049323577
173	0xbc1f5b63	-0.009726378
174	0xbd7fb173	-0.06242509
175	0x3cc9306a	0.024559218
176	0xbccc661f	-0.024951039
177	0x3d19a7cd	0.037513543
178	0xbda8abbb	-0.0823588
179	0xbd117c4a	-0.035518922
180	0xbd327fdd	-0.04357897
181	0x3d124bbc	0.035716757
182	0xbd73e5b9	-0.059545252
183	0x3d099095	0.03358515
184	0xbd763e7d	-0.060118187
185	0x3d247da9	0.0401589
186	0xbd4a99b0	-0.049462974
187	0xbc95be7b	-0.018279305
188	0xbd29d7f6	-0.041465722
189	0x3c3d9529	0.011571207
190	0xbd0bcbb7	-0.034129824
191	0x3c50bbf8	0.012740128
192	0xbb8b8d31	-0.0042587747
193	0x3d70ab0e	0.05875688
194	0x3bdbb7a9	0.0067052436
195	0xbd9738b6	-0.07383864
196	0x3d7ca343	0.061679136
197	0xbd65dd4c	-0.05611925
198	0x3dd303e6	0.10303478
199	0xbd5202c1	-0.051272158
200	0xbd044ffa	-0.032302834
201	0x3c843c88	0.016142145
202	0xbcf1f15d	-0.029534036
203	0x3d493a3b	0.0491278
204	0xbd8e0bc4	-0.06935838
205	0x3c4d1c3e	0.0125189405
206	0xbd3240cc	-0.043518826
207	0x3b7687e5	0.003761762
208	0x3cfa0882	0.030521635
209	0x3d8b005d	0.06787179
210	0xbc41f012	-0.011837022
211	0xbd9eafac	-0.077483505
212	0x3d0bff17	0.03417882
213	0x3d3cc115	0.046082575
214	0x3d62da94	0.055384234
215	0xbc488718	-0.01223924
216	0x3d68eb4b	0.056865018
217	0xbd20dc04	-0.039272323
218	0xbd141ede	-0.03616225
219	0xbcb01dac	-0.021498524
220	0xbcba3707	-0.022731317
221	0xbcf9fb7f	-0.03051543
222	0xbd8089de	-0.06276296
223	0xbca1cb43	-0.019750243
224	0xbd533d4a	-0.05157212
225	0xbd928441	-0.07154132
226	0x3d2cf5e0	0.042226672
227	0x3d315bf0	0.04330057
228	0xbd4c2993	-0.049844336
229	0x3d079472	0.033100553
230	0x3c11c9aa	0.008898178
231	0x3ccf8a2d	0.025334442
232	0x3c6847e3	0.014177295
233	0xbd80d107	-0.06289869
234	0x3d596a8b	0.053080123
235	0x3d0ad237	0.033891883
236	0xbd51b8e2	-0.05120171
237	0x3d18b969	0.037286196
238	0x3b8aaef3	0.0042322814
239	0x3c1816ba	0.009282762
240	0x3d430d2a	0.047619976
241	0xbd9b19aa	-0.075732544
242	0x3cf57af4	0.029965855
243	0xbc9a596d	-0.01884147
244	0xbd0cfad5	-0.0344189
245	0xbd20c6d7	-0.03925213
246	0x3d3a8fec	0.04554741
247	0xbd0f873d	-0.035041083
248	0x3cb7f8f1	0.022457572
249	0xbdb83324	-0.08994129
250	0xbd2ae3e9	-0.04172126
251	0x3d3f0adb	0.046641212
252	0xbd0818c6	-0.03322675
253	0x3c38adeb	0.011271934
254	0x3d3faf88	0.04679826
255	0xbd59b085	-0.053146858

layer2.weight f4 [199, 199]
0	0x3d88c50c	0.06678209
1	0xbbc83e87	-0.0061109695
2	0xbd6af7ef	-0.057365354
3	0xbcbd06dc	-0.02307456
4	0xbcd86718	-0.026416346
5	0x3aca743d	0.0015446019
6	0xbac5717d	-0.0015063729
7	0xbd43691d	-0.047707666
8	0x3d822560	0.06354785
9	0x3d168ed1	0.036757294
10	0x3d6322cf	0.055453118
11	0xbd9dcb8d	-0.0770484
12	0x3d6aa086	0.057281993
13	0x3cbebcf2	0.023283456
14	0xbd86a878	-0.065751016
15	0x3cc29272	0.023751471
16	0xbccdc655	-0.025118986
17	0xbd9722c8	-0.07379681
18	0xbcabdc46	-0.020979058
19	0xbd89a15d	-0.06720231
20	0xbb0cab97	-0.002146458
21	0x3d24a8a6	0.0401999
22	0xbc2e1a94	-0.010626454
23	0x3d8f41ed	0.06994996
24	0x3c9f6f51	0.01946226
25	0x3d22489d	0.03962003
26	0x3d4f4e37	0.0506117
27	0xbd82930a	-0.06375702
28	0xbd2cd691	-0.042196814
29	0xbbc2a93a	-0.0059405835
30	0xbd25f823	-0.040519845
31	0xbd3b3118	-0.045701116
32	0xbd6d0465	-0.05786552
33	0xbd13e83d	-0.03611015
34	0x3d206d40	0.03916669
35	0xbd592f1f	-0.053023454
36	0x3cc6149c	0.02417975
37	0x3d44b483	0.048023712
38	0x3c5f65ff	0.013635158
39	0xbca462ad	-0.020066584
40	0xbc19395a	-0.009352053
41	0x3c58af09	0.013225325
42	0x3c137970	0.009001121
43	0x3d61db09	0.05514053
44	0xbc305082	-0.010761382
45	0x3c3f3a50	0.011671618
46	0x3c9b278c	0.018939756
47	0xbd827ddc	-0.06371662
48	0x3cb4e458	0.022081539
49	0xbd1bd971	-0.038049165
50	0xbd38447e	-0.044987194
51	0x3d661f22	0.056182034
52	0xbd50658a	-0.050878085
53	0x3d9222e8	0.07135564
54	0xbd10edd9	-0.03538308
55	0x3a86cded	0.0010284759
56	0x3c06e64c	0.008233618
57	0x3d355528	0.044270664
58	0xbd76ac99	-0.060223196
59	0xbd3b4c4a	-0.04572705
60	0xbcbd6c80	-0.023123026
61	0xbd46b975	-0.04851671
62	0xbd68fe3e	-0.05688309
63	0x3d7a720d	0.061143924
64	0xbc82a38b	-0.015947124
65	0xbd8af365	-0.06784705
66	0x3d45d25a	0.04829631
67	0x3d8c72d0	0.06857836
68	0xbd6cb7de	-0.057792537
69	0x3c5afb9e	0.013365654
70	0x3be71bdf	0.007052883
71	0x3ba16a47	0.0049259993
72	0xbbc95999	-0.006144714
73	0xbc04a5e3	-0.008096191
74	0xbd4f6b34	-0.050639346
75	0xbd676e10	-0.05650145
76	0xbd66c672	-0.056341596
77	0x3cad892f	0.021183578
78	0xbc5f3c7d	-0.013625261
79	0xbd668b1b	-0.056285005
80	0x3b0da972	0.002161589
81	0xbd44f6c2	-0.04808689
82	0xbd476e07	-0.048688915
83	0xbd09721b	-0.033556085
84	0x3d52aa56	0.051431976
85	0x3d81b425	0.06333188
86	0x3d28581e	0.04109966
87	0xbd5b9fe9	-0.0536193
88	0xbd5348c9	-0.051583085
89	0xbca24482	-0.019808058
90	0x3c867530	0.016413301
91	0xbd3a7d9c	-0.045529947
92	0x3d7fa3eb	0.062412184
93	0xbd3b3b78	-0.04571101
94	0xbd3a2e52	-0.04545433
95	0x3d589931	0.05288047
96	0x3ca7dece	0.020491984
97	0x3c3386ad	0.010957402
98	0xbd02779c	-0.03185235
99	0xbcc09176	-0.023506861
100	0x3d057848	0.032585412
101	0xbd4b97ca	-0.049705304
102	0x3d467ade	0.04845702
103	0xbce1afe9	-0.0275497
104	0x3c51b9e5	0.012800668
105	0xbc82f96c	-0.015988074
106	0xbd7cf340	-0.06175542
107	0xbd88aa8a	-0.06673153
108	0x3cd4ca71	0.025975438
109	0xbd64988d	-0.055809546
110	0x3d06ef70	0.03294319
111	0x3d3a3d93	0.045468878
112	0x3cae5191	0.021279128
113	0xbcc6dc6d	-0.02427503
114	0x3d2b7402	0.04185868
115	0x3c0c2c68	0.008555509
116	0xbb6ffb26	-0.0036618202
117	0xbd1ec5e7	-0.038762953
118	0xbca86992	-0.020558152
119	0x3d487de8	0.0489482
120	0xbd5927ef	-0.0530166
121	0xbd783985	-0.06060173
122	0xbc87b393	-0.01656512
123	0xbd980ea1	-0.07424665
124	0x3cd3c67e	0.025851484
125	0xbd261e7a	-0.04055641
126	0xbd4c5d4a	-0.049893655
127	0x3d4f066f	0.050543245
128	0xbc36bcef	-0.011153444
129	0x3d5c242b	0.05374543
130	0xba54d5ef	-0.0008119037
131	0x3c881677	0.016612275
132	0x3d1ef67f	0.038809296
133	0x3d0401cc	0.032228276
134	0xbcf7bc50	-0.030241162
135	0xbd2a3db9	-0.04156277
136	0xbd91d365	-0.071203984
137	0x3d3507f8	0.044197053
138	0xbd527f7a	-0.051391102
139	0xbd595d8c	-0.05306773
140	0xbd0a5ed3	-0.033781838
141	0x3ce22642	0.027606133
142	0xbd194434	-0.03741856
143	0x3d4b7153	0.04966862
144	0x3d901f6d	0.07037244
145	0xbd538f25	-0.051650185
146	0x3d46df75	0.04855295
147	0x3d6264e6	0.055272005
148	0x39faa033	0.00047803074
149	0x3d26219d	0.0405594
150	0x3d905c3d	0.07048843
151	0xbd4531d3	-0.04814322
152	0x3d64f570	0.05589813
153	0xbd75689e	-0.059914224
154	0x3b025cd6	0.001989176
155	0xbd52cf42	-0.051467188
156	0xbd2fe4ca	-0.0429428
157	0xbd583ed3	-0.05279429
158	0xbd04cc72	-0.032421537
159	0x3d4a58ae	0.049400978
160	0xbd5abf1a	-0.053404905
161	0xbd729603	-0.059225094
162	0xbd88d412	-0.06681074
163	0x3d6e5b89	0.058192763
164	0xbbf2bb12	-0.0074075544
165	0xbc849286	-0.01618315
166	0x3cdbcc36	0.026830774
167	0x3c8c7aa0	0.017148316
168	0x3d976767	0.07392769
169	0x3b86b51c	0.0041109454
170	0xbd16de3b	-0.03683303
171	0x3d7920de	0.06082236
172	0x3c3f2335	0.011666109
173	0xbc95a3fc	-0.01826667
174	0x3c5a9816	0.013341924
175	0x3cf9003e	0.030395623
176	0x3d5318bc	0.05153726
177	0xbd8c60a8	-0.06854373
178	0xbd5e9888	-0.054344684
179	0xbd5131b5	-0.051072795
180	0xbd674f1b	-0.056471925
181	0x3d90da04	0.07072833
182	0x3d7949c8	0.06086138
183	0xbd0d998e	-0.03457027
184	0xbcfcfce2	-0.030882303
185	0xbc26e1aa	-0.010185638
186	0x3d67c53a	0.056584574
187	0xb9a0f820	-0.00030702446
188	0xbc6abc41	-0.01432711
189	0xbd8fff0a	-0.07031067
190	0x3d5859b2	0.052819915
191	0x3c582769	0.01319299
192	0xbd546c9a	-0.051861383
193	0x3d86f44c	0.06589565
194	0x3c7909c7	0.015200085
195	0xbd724244	-0.059145227
196	0x3b8bc56b	0.0042654774
197	0xbd79e281	-0.061007027
198	0x3d892a0a	0.066974714
199	0x3d8c1073	0.06839075
200	0xbd8658e6	-0.06559925
201	0xbd7baede	-0.061446063
202	0x3d473456	0.048633896
203	0xbd489a1e	-0.048975103
204	0x3be2d938	0.006922867
205	0xbcfa826c	-0.030579768
206	0xbc476713	-0.012170571
207	0x3d41fead	0.04736202
208	0x3d632582	0.055455692
209	0x3cfc1a20	0.030774176
210	0xbc30f4ad	-0.010800523
211	0x3cc3ea6c	0.023915492
212	0xbd3323cd	-0.043735314
213	0x3cb62aa5	0.022237131
214	0x3c8a947c	0.016916506
215	0xbcdc6010	-0.026901275
216	0xbcc072ee	-0.023492303
217	0x3bfde339	0.0077480343
218	0x3d5dfdbe	0.054197066
219	0xbd866b5c	-0.06563446
220	0x3d27a020	0.04092419
221	0xbc2df261	-0.01061687
222	0xbd89deff	-0.06731986
223	0xbd655def	-0.055997785
224	0x3c87c426	0.016573023
225	0x3d101788	0.03517869
226	0x3d9c170b	0.076215826
227	0xbc858892	-0.016300473
228	0xbabea107	-0.001454384
229	0xbd115307	-0.03547957
230	0xbdc19eed	-0.09454141
231	0x3d0f24f6	0.034947358
232	0xbd6e9c5e	-0.058254592
233	0xbd06d2c0	-0.03291583
234	0xbd69e9a1	-0.05710757
235	0xbdac3714	-0.08408943
236	0xbd22bcbb	-0.03973077
237	0xbc06ed68	-0.008235313
238	0x3ce99c4c	0.028516911
239	0x3cacf3a4	0.02111227
240	0x3c30585e	0.010763256
241	0xbd02bfe3	-0.03192128
242	0xbcd47ba5	-0.025937865
243	0xbc0d57f7	-0.0086269295
244	0xbd2cb873	-0.042168092
245	0x3ca5075c	0.02014511
246	0x3d73b997	0.059503164
247	0xbca1a713	-0.019732988
248	0x3d95b398	0.073096454
249	0xbc3eaaa6	-0.011637365
250	0xbd920351	-0.07129539
251	0xbd4bfce1	-0.04980171
252	0xbc595822	-0.013265641
253	0xbcc3d183	-0.023903614
254	0xbb9df194	-0.004820058
255	0x3d7aa5b3	0.06119318

layer3.weight f4 [199, 199]
0	0x3c91ec98	0.017813012
1	0xbdb6c071	-0.08923424
2	0xbd0feb6f	-0.035136636
3	0xbcb00ef5	-0.021491507
4	0xbd700db1	-0.058606807
5	0x3d07520c	0.03303723
6	0x3d87819e	0.066165194
7	0xbc1803d3	-0.0092782555
8	0x3c08060e	0.008302225
9	0xbcf439d0	-0.029812723
10	0x3c8a62cc	0.016892813
11	0xbbb36f75	-0.005475933
12	0x3d5218e0	0.051293254
13	0xbc1108a5	-0.008852159
14	0xbbec9c11	-0.007220753
15	0x3ce451b5	0.027870992
16	0x3bdd2dff	0.006749868
17	0x3bc2580f	0.0059309076
18	0x3ccbb295	0.024865428
19	0xbd59dd83	-0.053189766
20	0x3d9ee475	0.077584185
21	0x3ca8dd6d	0.020613397
22	0x3d3a47c3	0.045478594
23	0xbc8b63d3	-0.017015373
24	0xbbdbdf67	-0.0067099812
25	0xbc74d161	-0.014942498
26	0x3d19f4e1	0.03758705
27	0x3cb2e84b	0.021839282
28	0xbcbcbf02	-0.023040298
29	0xbd0d194b	-0.03444795
30	0x3cb20c9c	0.021734528
31	0xbbd50c3f	-0.006501704
32	0x3d11f767	0.035636332
33	0x3d453b3b	0.04815219
34	0x3d7cae41	0.06168962
35	0x3d2c5ecc	0.042082593
36	0x3cadb5c1	0.021204831
37	0x3c565c52	0.013083534
38	0xbc4cf811	-0.0125103155
39	0xbd21fffb	-0.039550763
40	0x3cb455f9	0.022013651
41	0x3cad8126	0.021179747
42	0xba9893e8	-0.0011640759
43	0xbbd4eab7	-0.0064977068
44	0xbce43c0b	-0.027860662
45	0xbb782ddc	-0.0037869131
46	0x3da018a8	0.07817203
47	0x3d4cafe5	0.049972434
48	0xbd317f07	-0.043334033
49	0xbd90f335	-0.07077638
50	0x39024586	0.00012423666
51	0x3cf44b22	0.029820982
52	0x3b9fb795	0.0048741796
53	0xb9bc03a9	-0.0003586088
54	0x3d1bef67	0.03807011
55	0x3b9216c0	0.0044582784
56	0xbae62c98	-0.0017560897
57	0xbd6d5043	-0.05793787
58	0xbd011485	-0.03151371
59	0xbd85e0bc	-0.06537005
60	0x3d5efea6	0.05444207
61	0xbd20e11b	-0.039277177
62	0xbae517d4	-0.0017478415
63	0x3d6651a1	0.05623019
64	0x3d4ba20c	0.049715087
65	0x3d8561a1	0.06512762
66	0x3d26c716	0.040717207
67	0xbd056482	-0.032566555
68	0xbd0c5276	-0.03425833
69	0x3d675e87	0.056486633
70	0x3d180148	0.037110597
71	0x3c8510e9	0.016243415
72	0xbcab2671	-0.020892354
73	0xbd514a01	-0.051095966
74	0x3d6b348f	0.05742317
75	0xbbee6275	-0.0072749206
76	0x3b0e8bbc	0.0021750769
77	0x3d0e4744	0.034735933
78	0xbc8bb234	-0.017052747
79	0xbcd51916	-0.026012938
80	0xbc9a3881	-0.018825771
81	0x3cdb81ab	0.026795229
82	0xbc85b68f	-0.016322402
83	0x3bd48b98	0.0064863674
84	0xbd8f6cc9	-0.07003171
85	0xbcb070c3	-0.021538144
86	0x3ceb2b01	0.02870703
87	0xbb41fbdf	-0.002959959
88	0x3d06c9a8	0.032907158
89	0xbd83f81c	-0.064438075
90	0x3d8c2585	0.06843094
91	0xbc5fcc9f	-0.013659625
92	0x3b5154b7	0.0031941363
93	0xbd6f2b69	-0.05839101
94	0xbd2a4336	-0.041568004
95	0x3d317a8f	0.04332977
96	0x3d3781bd	0.044801462
97	0x3d270ad8	0.040781826
98	0x3c58c81b	0.013231303
99	0x3c478442	0.012177529
100	0xbd316595	-0.043309767
101	0xbd74bde6	-0.059751414
102	0x3b1ef867	0.0024256946
103	0xbca545c5	-0.02017487
104	0x3c8d36b6	0.017238002
105	0xbbbb444a	-0.005714928
106	0x3ce61154	0.028084435
107	0xbc6f905b	-0.014621819
108	0x3c61f809	0.013792046
109	0x3c33ea9f	0.010981231
110	0xbc12a446	-0.008950299
111	0x3d3ead05	0.046551723
112	0x3d2e0a14	0.04249008
113	0xbc879de2	-0.016554777
114	0xbdaae61c	-0.08344671
115	0xbd40d0dd	-0.047074188
116	0xbbb2d95d	-0.0054580406
117	0xbd57a152	-0.05264408
118	0xbb3986b4	-0.002830905
119	0xbcd685c9	-0.02618684
120	0xbb9425a4	-0.0045210887
121	0x3d0be432	0.03415317
122	0x3d86ed14	0.06588188
123	0x3b6dde4f	0.0036295836
124	0x3c4a7069	0.012355902
125	0xbd91a062	-0.07110669
126	0x3b7e8947	0.0038839148
127	0x3d149d51	0.03628284
128	0xbd290cc3	-0.041271936
129	0x3c845747	0.016154898
130	0x3db5142a	0.088417366
131	0x3bd3b7be	0.0064611128
132	0x3d580882	0.05274249
133	0xbb89e4e4	-0.004208194
134	0xbd262c90	-0.04056984
135	0x3cb2794f	0.02178636
136	0xb995e0a1	-0.00028586856
137	0x3c59239d	0.01325312
138	0xbd8c7bf1	-0.068595774
139	0x3c7088a9	0.01468102
140	0xbaf8916c	-0.0018964238
141	0xbd212c24	-0.039348736
142	0xbce9f37a	-0.028558481
143	0xb98c8014	-0.00026798306
144	0x3cb01242	0.021493081
145	0x3d0571ff	0.03257942
146	0xbc702d97	-0.014659307
147	0xbd78cf0a	-0.060744323
148	0xbd0171e0	-0.03160274
149	0xbc2169c2	-0.009851875
150	0xbcc8650e	-0.02446225
151	0x3d78149b	0.060566526
152	0x3d4fef2f	0.050765213
153	0xbd8a0177	-0.06738561
154	0x3b0421c1	0.002016172
155	0x3ba0d8c2	0.004908652
156	0x3d654281	0.055971626
157	0x3d4a7bae	0.049434356
158	0x3d3d3367	0.0461916
159	0x3b712bca	0.0036799782
160	0xbb0ab9f2	-0.002116796
161	0xbd23104e	-0.03981047
162	0x3d3ab10a	0.045578994
163	0x3ba04891	0.004891463
164	0xbcd221ee	-0.025650945
165	0xbd25a934	-0.040444568
166	0x3c9c9d3c	0.019117944
167	0x3d85946d	0.065224506
168	0xbc64e63f	-0.013970911
169	0x3c829013	0.01593784
170	0x3d399ba9	0.045314465
171	0xba97e342	-0.0011588114
172	0xbd2f11ae	-0.04274147
173	0xbc875659	-0.016520666
174	0xbd1753cc	-0.03694515
175	0x3ba958e1	0.005168066
176	0x3c967a4a	0.018368859
177	0xbd400715	-0.046881754
178	0x3d4fa157	0.050690975
179	0x3c8d2867	0.01723118
180	0xbd7ecd2d	-0.06220739
181	0xbd0bed7d	-0.034162033
182	0x3d42e947	0.04758575
183	0x3d092817	0.0334855
184	0x3c1bb8c5	0.009504502
185	0x3c240bd5	0.010012587
186	0x3da8bc47	0.08239036
187	0x3d541c09	0.05178455
188	0xbca88a36	-0.020573717
189	0xbc885de2	-0.01664633
190	0xbaa77cac	-0.0012778244
191	0xbc3546c4	-0.011064235
192	0xbd318616	-0.043340765
193	0x3d32f035	0.04368611
194	0x3b3c7cdc	0.0028760945
195	0xbd0fd067	-0.035110857
196	0x3d60087b	0.054695588
197	0xbc2b06ac	-0.010438602
198	0x3cbc2789	0.02296807
199	0x3d0c659b	0.034276586
200	0x3c6d7ca4	0.014495049
201	0xbbb68e4f	-0.0055711637
202	0x3c4a79a2	0.012358101
203	0x3d125996	0.035729967
204	0x3aae0e22	0.0013279358
205	0x3c170c57	0.009219251
206	0xbcbea0b1	-0.023269983
207	0x3d682962	0.05668009
208	0x3d9d1b43	0.076712154
209	0x3d677769	0.056510363
210	0x3d8e19a7	0.069384865
211	0xbc41c8fc	-0.011827704
212	0x3da73e77	0.08166211
213	0x3c15c05d	0.009140101
214	0xbd4437a5	-0.04790463
215	0xbd619a7b	-0.055078965
216	0xbda2b395	-0.07944409
217	0x3d57f9a7	0.05272832
218	0x3d63fda4	0.055661812
219	0xbd1ea203	-0.038728725
220	0xbd521a55	-0.051294643
221	0xbc0de295	-0.008659978
222	0xbd21bb09	-0.03948501
223	0x3d0549b0	0.032540977
224	0x3b6c0cb5	0.0036018316
225	0xbd376334	-0.04477234
226	0x3ca5623c	0.020188443
227	0x3c99db76	0.018781405
228	0x3d5247c8	0.051337987
229	0x3c353722	0.011060508
230	0xbdcf4344	-0.10120252
231	0xbcd5b989	-0.026089447
232	0xbb1edd96	-0.0024240962
233	0xbd617cb2	-0.05505056
234	0xbd097dc0	-0.03356719
235	0xbd7e900b	-0.06214909
236	0xbd0c97c1	-0.03432441
237	0xbcbd3425	-0.023096154
238	0x3d44aed1	0.04801828
239	0x3d893e8a	0.067013815
240	0x3d31ef08	0.04344085
241	0xbc8f7822	-0.017513338
242	0x3d1bfb9b	0.038081747
243	0xbd628aff	-0.05530834
244	0xbd212ce7	-0.039349463
245	0x3c428f3a	0.011874968
246	0xbd2f89e9	-0.04285613
247	0xbd9ac51b	-0.07557126
248	0x3d2ae4e7	0.041722205
249	0x3d69bc46	0.057064317
250	0x3d291cef	0.04128736
251	0xbd6238aa	-0.05522982
252	0x3c6ef3d5	0.014584501
253	0x3ce3e6a8	0.027819946
254	0xbd364a28	-0.044504315
255	0xbb6bb0da	-0.0035963566

layer4.weight f4 [199, 199]
0	0xbd0dac0f	-0.034587916
1	0xbd2a4a52	-0.041574784
2	0xbd6f910d	-0.05848794
3	0xbcbf8e30	-0.02338323
4	0xbcf80380	-0.030275106
5	0xbd4c7856	-0.04991945
6	0x3d0bd8fe	0.034142487
7	0x3d04d878	0.032433003
8	0xbc8a45f4	-0.01687906
9	0x3cf9bfe3	0.030487007
10	0x3c0afd40	0.008483231
11	0xbd551d81	-0.05203009
12	0x3cf8fbd6	0.030393522
13	0x3d558be3	0.05213536
14	0xbccfaa36	-0.025349718
15	0x3d6478a8	0.05577913
16	0xbc28a6a4	-0.0102936365
17	0x3becb39d	0.00722356
18	0xbb710579	-0.0036776944
19	0xbd4879c9	-0.04894427
20	0xbbd3e587	-0.006466571
21	0x3c4b0a0a	0.01239253
22	0xbc0f37ab	-0.0087413
23	0xbbbcd1c7	-0.005762312
24	0x3d92e50d	0.07172594
25	0x3c1c3fd1	0.009536699
26	0xbd53262f	-0.051550087
27	0x3da32a1e	0.079670176
28	0xbb71d0bc	-0.0036898097
29	0x3d00ffde	0.031494014
30	0x3c84a360	0.016191185
31	0x3d8cd6ea	0.06876929
32	0x3c49d107	0.012317902
33	0xbd6095d6	-0.054830395
34	0xbd1a88ab	-0.037727993
35	0x3d49c256	0.0492576
36	0x3c587c11	0.0132131735
37	0xba56e30e	-0.0008197286
38	0xbd2f7c2c	-0.04284303
39	0xba58919b	-0.0008261443
40	0xbd40b877	-0.04705092
41	0x3b875368	0.004129816
42	0xbd750539	-0.059819434
43	0x3d44cd0a	0.048047103
44	0x3d16239d	0.036655057
45	0x3c60bfb4	0.013717581
46	0x3d3211f0	0.043474138
47	0x3d9fdc8a	0.07805736
48	0x3d00b3be	0.031421416
49	0xbd1905c8	-0.03735903
50	0x3cf6ba6d	0.030118192
51	0xbd54d29a	-0.051958658
52	0xbaa1da1b	-0.0012348326
53	0xbd9dc174	-0.07702914
54	0x3d2b6fc7	0.041854646
55	0x3cc6e9ed	0.024281466
56	0x3b63ba22	0.0034748395
57	0x3d03f3a3	0.032214772
58	0x3d63a3d4	0.05557616
59	0xbbd37116	-0.00645269
60	0xbb9718ae	-0.0046110963
61	0x3d0ed2c5	0.034868974
62	0x3c5d87f2	0.013521181
63	0x3d828509	0.06373031
64	0xbd0c7268	-0.034288794
65	0x3d74c55c	0.05975853
66	0xbcf701cb	-0.030152222
67	0xbb8d3205	-0.0043089413
68	0xbbd05461	-0.006357715
69	0xbd0f2492	-0.034946986
70	0xbd724550	-0.059148133
71	0xbd841192	-0.06448664
72	0x3d74f303	0.059802067
73	0xbcdf0bd2	-0.027227316
74	0xbcd06887	-0.025440468
75	0x3c35e2fb	0.01110148
76	0xbc810a50	-0.015751988
77	0x3daf4cfc	0.085596055
78	0x3c8d2275	0.017228344
79	0xbcc856f7	-0.02445553
80	0x3d7f9436	0.062397204
81	0x3da47684	0.080304176
82	0xbcb5404a	-0.022125382
83	0xbd3fe30f	-0.0468474
84	0xbd89282c	-0.06697115
85	0xbc5d25eb	-0.01349781
86	0x3ca6579a	0.020305444
87	0xbc64d435	-0.01396661
88	0x3d70cbea	0.058788218
89	0xbccfc4c8	-0.025362387
90	0xbd27186b	-0.04079477
91	0xbdc0d3a3	-0.094153665
92	0x3d535ec2	0.05160404
93	0xbd181f6e	-0.03713935
94	0xbb605a16	-0.0034233383
95	0x3d15cf39	0.036574576
96	0xbd072a05	-0.032999057
97	0xb9e803f6	-0.0004425344
98	0xbd2db786	-0.04241135
99	0x3d455c22	0.048183568
100	0xbced23ee	-0.028947797
101	0xbb5c925a	-0.0033656568
102	0xbceb7ffc	-0.028747551
103	0x3cb9c8f0	0.022678822
104	0x3d6d4b14	0.05793293
105	0xbc9bc317	-0.019013925
106	0xbca5a285	-0.020219097
107	0xbd30261d	-0.043005098
108	0x3c7c2995	0.015390773
109	0x3d439ca9	0.047756825
110	0x3d6c8143	0.05774046
111	0x3c31964c	0.010839056
112	0xbc9ddbf5	-0.019269923
113	0xbc8a9b88	-0.016919866
114	0x3d51e5bb	0.05124448
115	0xbd7a30f8	-0.061081856
116	0xbcfafc48	-0.030637875
117	0xbca73a46	-0.02041353
118	0x3c53d303	0.012928727
119	0xbd3cea98	-0.046122164
120	0xbd2aa4d2	-0.04166109
121	0xb94708c8	-0.0001898139
122	0x3c7b684c	0.0153446905
123	0x3bb07ab7	0.0053857225
124	0xbd2c0ff8	-0.042007416
125	0x3c28e4e1	0.010308475
126	0xbcd03d8a	-0.02541997
127	0x3d63c51e	0.055607907
128	0xbda6ee41	-0.08150912
129	0x3d32e564	0.043675795
130	0xbd4c80fe	-0.049927704
131	0xbc7bf067	-0.015377141
132	0x3d387e6d	0.045042444
133	0x3bc471ce	0.005995012
134	0x3cc60d7c	0.024176352
135	0xbd325a42	-0.043543108
136	0xbc682337	-0.014168552
137	0xbd7a1ea8	-0.061064392
138	0x3d1f659d	0.038915265
139	0xbce9fd9e	-0.028563317
140	0xbd40951c	-0.0470172
141	0x3c028f6f	0.007968768
142	0xbc406782	-0.011743428
143	0xbb81de18	-0.003963243
144	0x3d056e16	0.03257569
145	0x3ce84096	0.02835111
146	0xbb357c17	-0.0027692372
147	0x3c2598bf	0.010107218
148	0x3d8b4dd9	0.06801958
149	0x3d732b38	0.05936739
150	0x3c399856	0.011327824
151	0x3d20de7e	0.039274685
152	0xbc034743	-0.008012596
153	0x3d53ca2a	0.05170647
154	0x3d310d30	0.043225467
155	0x3d4e50d9	0.05037007
156	0xbd09ce13	-0.033643793
157	0x3d3aac60	0.045574546
158	0x3c73aaa5	0.014872228
159	0xbdc3345b	-0.095314704
160	0xbd26a05a	-0.040680267
161	0xbd3a2ac1	-0.04545093
162	0x3d1f81a5	0.038941998
163	0xbd8fa20c	-0.0701333
164	0x3b34608a	0.0027523362
165	0x3c0f5d12	0.008750217
166	0x3c15f076	0.009151569
167	0xbc4a232c	-0.012337487
168	0xbba32e10	-0.0049798563
169	0xbd0f821b	-0.035036188
170	0xbd0037da	-0.031303264
171	0x3c915ab0	0.017743438
172	0x3d87949f	0.06620144
173	0x3d8b9b39	0.06816716
174	0xbcc5bd15	-0.024138013
175	0x3d176807	0.036964443
176	0x3cda7331	0.026666256
177	0xbb38a174	-0.0028172405
178	0xbca993a7	-0.020700289
179	0x3d570199	0.052491758
180	0xbd8be54e	-0.06830846
181	0xbd40e121	-0.0470897
182	0xbd2a270b	-0.04154114
183	0xbd864044	-0.065552264
184	0x3d90b8e8	0.07066518
185	0xbd292b17	-0.04130086
186	0x3cfc3e1b	0.030791333
187	0xbb50f7cb	-0.0031885977
188	0x3bf41f48	0.007450018
189	0xbb2a6f51	-0.002600629
190	0xbc19c3db	-0.0093850745
191	0x3cacded4	0.021102346
192	0x3cebd023	0.02878577
193	0x3cdfc5cf	0.027316002
194	0x3d4cdd2a	0.050015606
195	0x3c5edcba	0.01360243
196	0xbd50f74f	-0.0510171
197	0xbd635052	-0.05549652
198	0xbd617ad3	-0.055048775
199	0xbc0e4e58	-0.008685671
200	0xbd5de4f7	-0.054173436
201	0xbb3a9252	-0.0028468561
202	0x3d717f02	0.058959015
203	0x3d72a394	0.05923803
204	0xbc6ba6eb	-0.014383058
205	0xbd4f972b	-0.050681274
206	0xbc14f3cb	-0.009091328
207	0xbd846c23	-0.06465938
208	0xbd8ace47	-0.067776255
209	0x3d2323c0	0.039829016
210	0xbd296daa	-0.04136435
211	0x3cf17533	0.02947483
212	0xbd14f4d5	-0.036366303
213	0x3dae1e81	0.08501912
214	0xbb45e45b	-0.0030195925
215	0xbc431998	-0.0119079575
216	0xbca822b0	-0.020524353
217	0x3d25d69c	0.04048787
218	0x3d41e1c4	0.047334448
219	0x3d9a190e	0.0752431
220	0xbcfc579b	-0.030803492
221	0x3d0451b6	0.032304488
222	0x3bd63ced	0.0065380246
223	0x3d3fb57c	0.046803936
224	0x3cde5a03	0.02714253
225	0x3b4f85f8	0.0031665545
226	0x3d195343	0.03743292
227	0x3cc20450	0.023683697
228	0x3c3773b4	0.011197019
229	0x3ad2f84d	0.0016095728
230	0x3d4b7af9	0.049677823
231	0xbcd42be1	-0.02589983
232	0x3d96f50d	0.073709585
233	0xbd37092f	-0.044686493
234	0x3ce72b6d	0.02821895
235	0xbd0ead03	-0.034832966
236	0xbc2b7d6e	-0.0104669165
237	0xbc02226a	-0.007942775
238	0xbd56e9fd	-0.052469242
239	0x3ca008b1	0.019535394
240	0x3c014c42	0.007891716
241	0x3d4063d6	0.04697021
242	0xbcafd268	-0.021462634
243	0xbd07ed66	-0.033185385
244	0x3cb27726	0.02178533
245	0xbd4ebf71	-0.05047554
246	0x3d959d8f	0.073054425
247	0xbd7d2e70	-0.061811864
248	0xbd36c30d	-0.04461961
249	0x3d7d5a22	0.061853535
250	0x3c436d3a	0.011927897
251	0x3cadc1ab	0.021210512
252	0xbc6a9980	-0.014318824
253	0x3d958f6e	0.07302748
254	0x3cc6d9f2	0.024273846
255	0xbd6f3a89	-0.058405433
