rosenbrock/saved_weights/rosenbrock_trained_model_weights_sparse_00.pth (torch, 9294 bytes, 24 tensors)

Upperlayer1.weight f8 [2, 2]
000000 45 15 5d 8c 16 7d f1 bf 05 e2 ae 0f f1 74 df 3f
       -1.0930390818551399 0.49151255160862234
000010 00 00 00 c0 25 9f e3 3f f3 19 d6 53 33 58 f2 3f
       0.6131771802902222 1.1465333247048164

Upperlayer1.bias f8 [2]
000000 be 90 ab bb fc 6f d2 3f ef c5 7f 7e 82 e1 ed bf
       0.28808515860715633 -0.9337780447660274

Upperlayer1.sparse_mask f8 [2, 2]
000000 00 00 00 00 00 00 f0 3f 00 00 00 00 00 00 f0 3f
       1.0 1.0
000010 00 00 00 00 00 00 00 00 00 00 00 00 00 00 f0 3f
       0.0 1.0

Lowerlayer1.weight f8 [2, 2]
000000 cc d7 27 b0 8b de fc bf 00 00 00 80 ab 9a e2 bf
       -1.8043324357108643 -0.5813806056976318
000010 d3 2c 1d e7 5c db f2 3f b0 30 51 d2 19 59 f6 bf
       1.1785553958787218 -1.3967531409753455

Lowerlayer1.bias f8 [2]
000000 27 79 59 5f 54 9f f4 3f 4f 01 ab 68 5f 41 c7 3f
       1.2888988232221636 0.1816825162004627

Lowerlayer1.sparse_mask f8 [2, 2]
000000 00 00 00 00 00 00 f0 3f 00 00 00 00 00 00 00 00
       1.0 0.0
000010 00 00 00 00 00 00 f0 3f 00 00 00 00 00 00 f0 3f
       1.0 1.0

Upperlayer2.weight f8 [2, 2]
000000 82 e4 a3 2c ad 1a e4 3f e6 83 99 b3 06 4c ea bf
       0.6282564041022314 -0.8217805393034012
000010 00 00 00 60 3c fe e2 bf 04 5f f5 e3 a9 ea f4 3f
       -0.5935346484184265 1.3072909264209907

Upperlayer2.bias f8 [2]
000000 cf b0 a5 50 a0 fa d3 bf 3b 40 9c 3e fc 49 e2 3f
       -0.3121720111437413 0.5715314123972414

Upperlayer2.sparse_mask f8 [2, 2]
000000 00 00 00 00 00 00 f0 3f 00 00 00 00 00 00 f0 3f
       1.0 1.0
000010 00 00 00 00 00 00 00 00 00 00 00 00 00 00 f0 3f
       0.0 1.0

Lowerlayer2.weight f8 [2, 2]
000000 86 b3 1f bb 55 96 e1 bf 00 00 00 40 8e 68 db bf
       -0.5496014265787472 -0.4282565712928772
000010 8c ff 34 f8 a0 a4 f6 3f 80 2a 6d 58 c1 7e ec 3f
       1.4151925750338448 0.8904730536535936

Lowerlayer2.bias f8 [2]
000000 77 a0 bf 2a 3c fc c9 bf 53 f1 28 97 99 1b c5 bf
       -0.20301010215121426 -0.16490478402000494

Lowerlayer2.sparse_mask f8 [2, 2]
000000 00 00 00 00 00 00 f0 3f 00 00 00 00 00 00 00 00
       1.0 0.0
000010 00 00 00 00 00 00 f0 3f 00 00 00 00 00 00 f0 3f
       1.0 1.0

Upperlayer3.weight f8 [2, 2]
000000 93 64 a7 59 97 f4 cf bf d2 8b 66 b4 70 45 d4 bf
       -0.2496518314135626 -0.3167382966732336
000010 00 00 00 20 a5 f1 c3 3f 0e e8 13 a0 1d 8d e9 3f
       0.15581192076206207 0.7984760405081504

Upperlayer3.bias f8 [2]
000000 74 58 37 b9 c3 25 f5 3f cd 1c 0c 24 b5 b6 d7 3f
       1.3217198596007877 0.3705265857719951

Upperlayer3.sparse_mask f8 [2, 2]
000000 00 00 00 00 00 00 f0 3f 00 00 00 00 00 00 f0 3f
       1.0 1.0
000010 00 00 00 00 00 00 00 00 00 00 00 00 00 00 f0 3f
       0.0 1.0

Lowerlayer3.weight f8 [2, 2]
000000 ac 2c a6 71 17 f5 e2 3f 00 00 00 e0 c3 01 e0 bf
       0.5924184055051191 -0.500215470790863
000010 e8 2c a6 ee ef 01 d4 3f 02 02 34 66 29 f9 f1 3f
       0.31261823945597067 1.1233304970083968

Lowerlayer3.bias f8 [2]
000000 b0 24 2c e2 95 a9 e6 3f 85 71 ca ba e8 6c 9b 3f
       0.7082013528280608 0.02678264274673971

Lowerlayer3.sparse_mask f8 [2, 2]
000000 00 00 00 00 00 00 f0 3f 00 00 00 00 00 00 00 00
       1.0 0.0
000010 00 00 00 00 00 00 f0 3f 00 00 00 00 00 00 f0 3f
       1.0 1.0

Upperlayer4.weight f8 [2, 2]
000000 ed f0 8b 75 6a 32 e0 3f ae 48 f9 40 1b bb da 3f
       0.5061542793114576 0.4176700720319201
000010 00 00 00 00 23 1d 6b 3f fd 79 b4 a8 e5 2a ca bf
       0.0033097919076681137 -0.20443411576793827

Upperlayer4.bias f8 [2]
000000 3a 73 8d 4c e9 16 df bf 29 b8 00 de 17 44 e6 3f
       -0.4857733962615388 0.695812162017096

Upperlayer4.sparse_mask f8 [2, 2]
000000 00 00 00 00 00 00 f0 3f 00 00 00 00 00 00 f0 3f
       1.0 1.0
000010 00 00 00 00 00 00 00 00 00 00 00 00 00 00 f0 3f
       0.0 1.0

Lowerlayer4.weight f8 [2, 2]
000000 9d bf 1b d5 aa 2c e1 3f 00 00 00 a0 7e 17 54 bf
       0.5367025530122082 -0.0012263046810403466
000010 c0 8b d4 d5 56 1a db 3f 62 c1 1f 70 4b 20 ea 3f
       0.4234826172052486 0.8164422216341729

Lowerlayer4.bias f8 [2]
000000 40 42 e8 bc b1 db a5 3f 8d 40 a1 e3 32 60 c4 bf
       0.042691759405105945 -0.1591857539629057

Lowerlayer4.sparse_mask f8 [2, 2]
000000 00 00 00 00 00 00 f0 3f 00 00 00 00 00 00 00 00
       1.0 0.0
000010 00 00 00 00 00 00 f0 3f 00 00 00 00 00 00 f0 3f
       1.0 1.0
