rosenbrock/saved_weights/rosenbrock_trained_model_weights_sparse_prod.pth (torch, 9294 bytes, 24 tensors)

Upperlayer1.weight f8 [2, 2]
00000000: b0ea fa26 3930 f93f ed80 5000 15db d53f
00000010: 0000 00a0 6569 62bf f3cb e60f 0df3 e8bf
1.5742732546483857 0.3414967063017816 -0.0022475228179246187 -0.7796693144395007

Upperlayer1.bias f8 [2]
00000000: 4fc9 fdb3 51cf f1bf a041 61cc 5722 f0bf
-1.11311502751467 -1.0083845122900144

Upperlayer1.sparse_mask f8 [2, 2]
00000000: 0000 0000 0000 f03f 0000 0000 0000 f03f
00000010: 0000 0000 0000 0000 0000 0000 0000 f03f
1.0 1.0 0.0 1.0

Lowerlayer1.weight f8 [2, 2]
00000000: 44b3 c557 2a4a f8bf 0000 0080 3c2c e23f
00000010: 8238 3aa4 9f65 efbf 93d2 1c14 5006 efbf
-1.5181067875484624 0.5678999423980713 -0.9811552245680704 -0.9695206063102709

Lowerlayer1.bias f8 [2]
00000000: f27f a84e fc19 02c0 a6d2 337c e8ee f83f
-2.2626882691547445 1.558327183881525

Lowerlayer1.sparse_mask f8 [2, 2]
00000000: 0000 0000 0000 f03f 0000 0000 0000 0000
00000010: 0000 0000 0000 f03f 0000 0000 0000 f03f
1.0 0.0 1.0 1.0

Upperlayer2.weight f8 [2, 2]
00000000: 128c 1c58 ceed 03c0 8ed4 ee7d 2e6f ddbf
00000010: 0000 00e0 9204 cd3f ec65 cce7 1cde f4bf
-2.4911162265502833 -0.45991098688257004 0.22670207917690277 -1.3042267851473026

Upperlayer2.bias f8 [2]
00000000: 6189 b530 7ce7 0740 837a ca5a fc01 d3bf
2.988029842891749 -0.296996201193828

Upperlayer2.sparse_mask f8 [2, 2]
00000000: 0000 0000 0000 f03f 0000 0000 0000 f03f
00000010: 0000 0000 0000 0000 0000 0000 0000 f03f
1.0 1.0 0.0 1.0

Lowerlayer2.weight f8 [2, 2]
00000000: 6b8d 1f13 1407 f1bf 0000 00e0 b71a df3f
00000010: b615 0042 b817 e03f f404 6ab2 1978 e9bf
-1.0642281291009918 0.4860057532787323 0.5028954781598063 -0.7959106907511839

Lowerlayer2.bias f8 [2]
00000000: 7833 6220 07bb 15c0 0f92 4af8 c9cc e53f
-5.432644372934071 0.6812486504973679

Lowerlayer2.sparse_mask f8 [2, 2]
00000000: 0000 0000 0000 f03f 0000 0000 0000 0000
00000010: 0000 0000 0000 f03f 0000 0000 0000 f03f
1.0 0.0 1.0 1.0

Upperlayer3.weight f8 [2, 2]
00000000: 3c8b 13ba b4b9 0d40 32e2 cd8b 7ddc d33f
00000010: 0000 0020 902c ca3f d0e0 7cca ed9b ffbf
3.715676740380699 0.31033266690022565 0.2044849544763565 -1.9755685720138452

Upperlayer3.bias f8 [2]
00000000: b12e 4eb8 dcaf e4bf e546 f1f4 7a00 09c0
-0.6464675521578639 -3.1252345214969517

Upperlayer3.sparse_mask f8 [2, 2]
00000000: 0000 0000 0000 f03f 0000 0000 0000 f03f
00000010: 0000 0000 0000 0000 0000 0000 0000 f03f
1.0 1.0 0.0 1.0

Lowerlayer3.weight f8 [2, 2]
00000000: 753f c1a9 71e5 f7bf 0000 00e0 82f5 e2bf
00000010: 8e7a aa52 f8ca db3f 3783 a3c4 ca59 0140
-1.493516600708941 -0.5924696326255798 0.4342633063587663 2.168843780746467

Lowerlayer3.bias f8 [2]
00000000: a3f0 2f2e 344b e63f 030a 4eb3 9d94 09c0
0.6966801550002127 -3.1975664146605154

Lowerlayer3.sparse_mask f8 [2, 2]
00000000: 0000 0000 0000 f03f 0000 0000 0000 0000
00000010: 0000 0000 0000 f03f 0000 0000 0000 f03f
1.0 0.0 1.0 1.0

Upperlayer4.weight f8 [2, 2]
00000000: b96e 7504 f4fd edbf eabe ed7a 9a0e f83f
00000010: 0000 00e0 a8c3 e3bf 62fe 295b 1803 f93f
-0.9372501456341161 1.503565292539799 -0.6176342368125916 1.5632556496710994

Upperlayer4.bias f8 [2]
00000000: 5489 2c7e 819b be3f d11d be41 7659 a73f
0.11956033068103028 0.04560441544077388

Upperlayer4.sparse_mask f8 [2, 2]
00000000: 0000 0000 0000 f03f 0000 0000 0000 f03f
00000010: 0000 0000 0000 0000 0000 0000 0000 f03f
1.0 1.0 0.0 1.0

Lowerlayer4.weight f8 [2, 2]
00000000: afb8 9e46 4113 e3bf 0000 0060 5b09 c0bf
00000010: 5d58 8267 6177 aa3f 7f29 9d55 9bd7 dcbf
-0.596100461892794 -0.1252855509519577 0.051692050824542625 -0.45065959320768195

Lowerlayer4.bias f8 [2]
00000000: f4da d6f6 718a d13f 8806 786b a1b6 d43f
0.2740750227489308 0.3236468839169011

Lowerlayer4.sparse_mask f8 [2, 2]
00000000: 0000 0000 0000 f03f 0000 0000 0000 0000
00000010: 0000 0000 0000 f03f 0000 0000 0000 f03f
1.0 0.0 1.0 1.0
