rosenbrock/saved_weights/rosenbrock_trained_model_weights_dense.pth (torch, 4834 bytes, 12 tensors)

layer1.weight f4 [2, 2]
00000000: 963b 86bf f84e 743e d297 f3bf 4798 ff3c
-1.0486934 0.23858249 -1.9030707 0.031200541

layer1.bias f4 [2]
00000000: a490 d83f 6b52 0040
1.6919141 2.0050304

layer2.weight f4 [2, 2]
00000000: 30ad 8fbf eb30 903f 802c acc0 1ad9 7c3f
-1.1224728 1.1264929 -5.380432 0.9876877

layer2.bias f4 [2]
00000000: aabf ecbf 03f6 58c0
-1.8495991 -3.3900154

layer3.weight f4 [2, 2]
00000000: 811e c73f 1339 8e3f 7afc c13e a2b9 1b40
1.5556184 1.1111168 0.37887937 2.4332051

layer3.bias f4 [2]
00000000: 0747 333c 7c6f 4f3c
0.010942227 0.012660857

layer4.weight f4 [2, 2]
00000000: 9dcc 313e baca 14c0 3777 aabf 1038 6ebf
0.1736321 -2.3248734 -1.3317631 -0.93054295

layer4.bias f4 [2]
00000000: bce0 eebc 75ca debd
-0.029159896 -0.10878459

layer5.weight f4 [2, 2]
00000000: 3ad2 b1bf 3c4b 2ebf 065b c7bf ca4c 9c3f
-1.3892281 -0.6808355 -1.5574653 1.2210934

layer5.bias f4 [2]
00000000: 4cd2 7b3e bf6d 5d3f
0.2459194 0.86495584

layer6.weight f4 [2, 2]
00000000: 0abc 1ac0 4bf6 3f3e 0ac3 e83d 26a9 7f3f
-2.417727 0.18746297 0.11365326 0.99867475

layer6.bias f4 [2]
00000000: 0964 583f 49a7 cc3d
0.8452764 0.099928446
