rosenbrock/saved_weights/rosenbrock_trained_model_weights_sparse_0.pth (torch, 8654 bytes, 24 tensors)

Upperlayer1.weight f4 [2, 2]
0	0xbcad8993	-0.021183765
1	0xbea6cb62	-0.32577044
2	0xbf33be41	-0.7021218
3	0x3f30e8f8	0.6910548

Upperlayer1.bias f4 [2]
0	0xbf0b6bf0	-0.54461575
1	0xbed7fe31	-0.4218612

Upperlayer1.sparse_mask f4 [2, 2]
0	0x3f800000	1.0
1	0x3f800000	1.0
2	0x00000000	0.0
3	0x3f800000	1.0

Lowerlayer1.weight f4 [2, 2]
0	0x3dd75b86	0.105155036
1	0xbefd6c95	-0.49496904
2	0xbefd4d7e	-0.49473184
3	0xbf22a0f0	-0.6352682

Lowerlayer1.bias f4 [2]
0	0xbed0e4ba	-0.40799505
1	0x3dc6b236	0.0970196

Lowerlayer1.sparse_mask f4 [2, 2]
0	0x3f800000	1.0
1	0x00000000	0.0
2	0x3f800000	1.0
3	0x3f800000	1.0

Upperlayer2.weight f4 [2, 2]
0	0xbf18dcbe	-0.59711826
1	0xbeb3d6d9	-0.35124853
2	0xbda007de	-0.078140005
3	0xbe5f7720	-0.21822786

Upperlayer2.bias f4 [2]
0	0x3d9fa1de	0.077945456
1	0x3ee8011d	0.4531335

Upperlayer2.sparse_mask f4 [2, 2]
0	0x3f800000	1.0
1	0x3f800000	1.0
2	0x00000000	0.0
3	0x3f800000	1.0

Lowerlayer2.weight f4 [2, 2]
0	0x3ec0430d	0.37551156
1	0x3e8087b3	0.2510353
2	0x3f233866	0.6375793
3	0x3f0983b4	0.5371659

Lowerlayer2.bias f4 [2]
0	0xbf03a48a	-0.5142294
1	0x3eb4988a	0.35272628

Lowerlayer2.sparse_mask f4 [2, 2]
0	0x3f800000	1.0
1	0x00000000	0.0
2	0x3f800000	1.0
3	0x3f800000	1.0

Upperlayer3.weight f4 [2, 2]
0	0x3dc98bdb	0.098411284
1	0xbeeddbcb	-0.4645675
2	0x3e3fca50	0.1872952
3	0x3f266fb8	0.6501422

Upperlayer3.bias f4 [2]
0	0xbecb2206	-0.39674395
1	0x3e2049ac	0.15653104

Upperlayer3.sparse_mask f4 [2, 2]
0	0x3f800000	1.0
1	0x3f800000	1.0
2	0x00000000	0.0
3	0x3f800000	1.0

Lowerlayer3.weight f4 [2, 2]
0	0x3ec09e58	0.37620807
1	0xbf1dbb39	-0.61613804
2	0x3f1966dc	0.59922576
3	0xbe595cd7	-0.21226822

Lowerlayer3.bias f4 [2]
0	0x3ed5b1a6	0.41737098
1	0x3f151459	0.58234173

Lowerlayer3.sparse_mask f4 [2, 2]
0	0x3f800000	1.0
1	0x00000000	0.0
2	0x3f800000	1.0
3	0x3f800000	1.0

Upperlayer4.weight f4 [2, 2]
0	0x3e15b253	0.14618807
1	0x3f20086d	0.62512857
2	0xbf15975a	-0.5843407
3	0xbf393c2a	-0.7235743

Upperlayer4.bias f4 [2]
0	0xbd7ad3d6	-0.06123718
1	0xbe9e5975	-0.30927625

Upperlayer4.sparse_mask f4 [2, 2]
0	0x3f800000	1.0
1	0x3f800000	1.0
2	0x00000000	0.0
3	0x3f800000	1.0

Lowerlayer4.weight f4 [2, 2]
0	0x3eceef7f	0.40417096
1	0x3f0b7d72	0.5448829
2	0x3ed3ac2d	0.41342297
3	0x3f72918a	0.94753325

Lowerlayer4.bias f4 [2]
0	0xbe1e3b4c	-0.15452307
1	0x3deb0505	0.11475567

Lowerlayer4.sparse_mask f4 [2, 2]
0	0x3f800000	1.0
1	0x00000000	0.0
2	0x3f800000	1.0
3	0x3f800000	1.0
